maddpg/MADDPG-master/model/simple_tag/agent_2/2_actor_params.pkl (torch, 41167 bytes, 8 tensors)

fc1.weight f4 [64, 16]
00000000: 11d7 bebe 6e5a 1cbf 3c4e 533e 5dd5 2d3f
00000010: 2670 2abe 27c3 8c3f ca0c cb3e 3400 f9be
00000020: 0588 ec3f 5e87 0240 87a2 6b3f c648 023e
00000030: d7fe ad3f 1f3a 0140 7944 b93d 634d a93d
00000040: fbc8 793e 9970 b7be 1f5b bebe 4c1e cf3d
00000050: ab30 1a3f d0a4 233f caaf b0bf 04c3 5cbe
00000060: 92ea 9c3e c121 1240 9aea 453e 135b 383f
00000070: 169e 253e 23d3 ab3f 73ea 003f e43a 0bbe
00000080: 717e 213e 69d1 753e 172c 2cbf f668 063e
00000090: 4437 c9be f362 8d3d d236 4bbe 9afd 9e3d
000000a0: 68f2 673f 9c4b e13e 360a 4b3c f9eb 343e
000000b0: 220d 2fc0 0a16 1dc0 8efc 20bc 341d f5bd
000000c0: 13c2 8d3e 888e e8be 1cd3 15be 4ce4 ce3e
000000d0: ec9f c73e f223 923e 72a4 d1be d8e0 323c
000000e0: d125 1640 6643 cdbe 8004 a83f 24c7 78be
000000f0: d941 17bf 708d b23f aae3 15bf f6a5 283e
00000100: 8b62 243e 732b 6939 4e9d bcbd 4c6c 513c
00000110: 4fab a5bd 7897 a33b 4dba a4bd 9bea 913c
00000120: a594 6f3f 64b1 9e3e 37ec 16c0 04f8 48c0
00000130: 0823 ae3f 32ec 9e3f f4b6 0ebe 45ba adba
00000140: 937f 6f3e 0dce a13d f1c0 c13e eb72 7e3e
00000150: e94f 213e 6638 f43d c95e 4c3e b79b a93d
00000160: 2da5 94c0 927f 3c40 38f7 143e 9286 333f
00000170: a66c 95bf 0f0e b43e af16 b43e b173 80bf
00000180: d057 653e 85d6 c03d 5eb4 733f 27ef 3b3f
00000190: 0a99 243f dfc2 513e 63f5 8b3e f967 ed3e
000001a0: 0a9b 2abe 2fe5 603f d3b1 ca3d 9de6 543e
000001b0: b97d 70be 136e 44c0 8c80 3ebe f75d 003f
000001c0: ab1a 963d a3ee 7d3e 901e ac3d fe94 25bf
000001d0: 2796 9f3e 6865 18bf c774 7cbe e4aa 05bd
000001e0: d619 933e 4eb6 d63a dad7 6dbd 83e1 34bf
000001f0: ed6b d73f c52a 67c0 83b7 14be b02e b4be
00000200: 8edf 3fbf 291b a13e 2905 09be 8c41 143f
00000210: 6efa 25bd 3c6b cabe 59f1 7b3c 1fce 4f3f
00000220: 4b24 9e3e 0461 93bf 1d94 9f3e 41d5 d9bf
00000230: 9609 373f f2ae 20c0 aa9b ad3f a020 b1bd
00000240: c698 5bbd add1 9abd ee64 94be b58e 113f
00000250: d2dd 62bf 7c9a 04be 0fbb 233f a924 363f
00000260: dd1a 913d 1cb8 92bf 13b3 49bf 36cc 543f
00000270: ae63 cdbf db97 0740 d9d1 133e 90f0 e4be
00000280: 6d6a 443d aa4d 8b3e a84e 233f c069 9a3d
00000290: f30f 4f3f d47e 24bf c504 a8bd 5421 263f
000002a0: 91be 87be eae1 f13f 963a 1ebf 2700 1b3f
000002b0: 9a50 0b40 b2d1 5a40 d979 13bf 116f da3e
000002c0: 9ff9 a63e 0c16 783d 1862 cf3e e366 7a3e
000002d0: c8d2 ab3d 3eda 023e 3701 a73e ae16 e53d
000002e0: 52f2 f4bf 95a7 74bf 812d c5bf 7932 91bf
000002f0: aed1 0240 1d25 3940 ebd8 4e3e 44b9 463e
00000300: 2f30 f1bd 4228 5abc a634 a13e 5434 1dbf
00000310: d1a9 93bc 558a df3c ba6b ca3e a744 04bf
00000320: 864c 8abe 4d7d df3e 5689 8f3f 3d83 b1bf
00000330: c501 99bf da7b dcbf 276e 48bf 75f7 1fbd
00000340: 5dc3 de3d 66c3 bc3c 7dfb cc3c 1f94 47bd
00000350: 9e5c a23e aa97 50bf b15f 99be 97c7 393f
00000360: 26d0 cebf ef5a 8cbf 732d 97bf 02d3 69bf
00000370: f7a3 d4bf 7ad1 c93f 923e 593e b696 c43d
00000380: 012e 9f3e acdd 2f3f d17a 4d3f 0af5 4e3e
00000390: 5f3b 4dbe 5506 08be d77d 673f b950 403e
000003a0: e369 82bf a9b8 4f3e ac2b 9ebf 48bb 2d3f
000003b0: d41c d7bf dc82 d7be a1ea 863d 4544 fbbe
000003c0: dcea 55bf 2c02 4fbc 8da9 b4bd 80f8 eebe
000003d0: 936f 26bf a6fb f83d 444f 383f ab13 0bbf
000003e0: 3ef7 053d 3628 3b3e aa2a e13e 0205 c63f
000003f0: 8d6c 0ec0 932c e93f d9eb 36bf 7d0f 323e
-0.37273458 -0.61075485 0.20635313 0.6790369 -0.16644344 1.0997056 0.39658195 -0.48632967
1.847901 2.0395122 0.9204487 0.12723073 1.3593396 2.0191724 0.09046263 0.082667135
0.24393074 -0.35828093 -0.37178895 0.101132005 0.6023051 0.6392336 -1.3803647 -0.21558768
0.30647713 2.2833102 0.19327775 0.7201397 0.16173586 1.3423809 0.5035774 -0.13596684
0.1577089 0.24005665 -0.67254776 0.13125977 -0.39299977 0.06903639 -0.19845131 0.077632144
0.9060426 0.44002998 0.012392571 0.17668141 -2.7351766 -2.4544702 -0.009825839 -0.11968461
0.2768713 -0.45421243 -0.14631313 0.40408552 0.38989198 0.2854305 -0.40945774 0.010917865
2.3460581 -0.40090483 1.3126373 -0.24294716 -0.5908485 1.3949413 -0.5855051 0.16469559
0.16053216 0.00022236798 -0.09209691 0.012782168 -0.08089315 0.0049924217 -0.080433466 0.017812064
0.9358619 0.30994713 -2.3581674 -3.1401377 1.3604441 1.2415831 -0.13936979 -0.0013254365
0.2338851 0.07900629 0.37842515 0.24848525 0.1575314 0.1192482 0.19958033 0.082816534
-4.645163 2.9452863 0.14547431 0.70127213 -1.1673782 0.35166976 0.35173556 -1.0035306
0.22396779 0.09415916 0.95197093 0.7341179 0.6429602 0.20484494 0.27335653 0.46368387
-0.16660705 0.87849706 0.098971985 0.20791097 -0.2348546 -3.0692184 -0.18603724 0.5014338
0.07329305 0.24798064 0.08404267 -0.6468047 0.31169245 -0.59529734 -0.24653922 -0.032633677
0.2873065 0.0016381235 -0.05806718 -0.70656604 1.6829811 -3.6119854 -0.14523129 -0.3519187
-0.7495049 0.31466034 -0.13380875 0.57912517 -0.04052203 -0.39534938 0.015377366 0.8117389
0.30887064 -1.1513982 0.3116769 -1.7018205 0.71499 -2.5106778 1.356313 -0.08648801
-0.053612493 -0.07559524 -0.28983253 0.5685838 -0.8861972 -0.12949556 0.63957304 0.7114969
0.07085202 -1.1462436 -0.7878887 0.831241 -1.6046045 2.1186435 0.1443552 -0.44714785
0.047953058 0.2720769 0.63791895 0.075397015 0.8088371 -0.64256024 -0.08204035 0.64894605
-0.26512578 1.8897069 -0.61808145 0.6054711 2.1767945 3.4190488 -0.576078 0.42662862
0.3261232 0.0605679 0.40504527 0.2445331 0.08389813 0.12778565 0.32618114 0.111859664
-1.913645 -0.9556821 -1.5404512 -1.1343528 2.0440478 2.8928902 0.20199935 0.1940661
-0.117767684 -0.013315262 0.3148548 -0.6140797 -0.01802531 0.027287642 0.39535314 -0.51667255
-0.27011508 0.43650284 1.1213787 -1.3868176 -1.1953665 -1.7225296 -0.7829308 -0.039054353
0.10877106 0.023042392 0.025022263 -0.048725244 0.31711286 -0.8148142 -0.2995582 0.72570175
-1.6157272 -1.0965251 -1.1810745 -0.913376 -1.6612538 1.5767052 0.21215275 0.09599058
0.31089786 0.6869762 0.8026553 0.20210662 -0.2004218 -0.13283665 0.9042639 0.18780793
-1.0188564 0.20285286 -1.2357078 0.67863894 -1.6805673 -0.42092025 0.06587721 -0.49075523
-0.8356149 -0.012634795 -0.08821402 -0.46673965 -0.65014 0.12157373 0.7199595 -0.54326886
0.03270649 0.18277058 0.43977863 1.5470278 -2.2253754 1.8216728 -0.71453625 0.17388721

fc1.bias f4 [64]
00000000: ce2d 68bf 395d 39bf 6382 823f e7af 513f
00000010: 1882 393e feb6 9a3d 1529 693f 3138 9f3f
00000020: b9cf 8bbd 9229 843f eb61 643f de3c 1b3f
00000030: e7fb b2be 0d46 0b3f fd42 d6bf 11e9 cc3e
00000040: e2c0 ae3f ae1d 5fbc 075b 64bf b4cf a83f
00000050: 7725 163f 9eb9 193e d175 fabe 7889 a43e
00000060: c9c5 2c3e 36d5 4ebd 3113 f93e efb3 b03f
00000070: a826 cc3f ac59 a2bd f5c8 bf3f 7e49 c03f
00000080: 9429 dabd 96a1 4cbf 7341 063e 8fcb 7dbe
00000090: c1f1 853f ff2c e6bf d96b af3e 817a c33f
000000a0: f7f3 603f 6cef 30ba cf8c 543f 5a8f d3be
000000b0: db0c f5be a6a1 09bf c1c4 02bf fda9 823f
000000c0: 9947 633f ce64 29be ba5a b53f bbdc bc3f
000000d0: 23d1 b93f 3e98 a43d 0bed 24bf 7fa7 813f
000000e0: 1122 613f dd0d a13d 4420 ca3f 36a2 8e3f
000000f0: 41b9 b13f d66b eebd b451 06bf 3443 34bf
-0.9069489 -0.7240787 1.0196041 0.8190903 0.18116033 0.07554434 0.9107831 1.2439023
-0.06826729 1.0325186 0.8921191 0.6063975 -0.3495781 0.54403764 -1.6739193 0.40021566
1.3652613 -0.013617916 -0.89201397 1.3188386 0.58650917 0.15012214 -0.48918012 0.3213613
0.16872324 -0.050496303 0.48647454 1.3804911 1.5949297 -0.0792726 1.4983202 1.5022428
-0.10652462 -0.7993406 0.13110904 -0.24784683 1.0464402 -1.7982482 0.3426197 1.527176
0.8787226 -0.0006749544 0.83027357 -0.41320306 -0.4786137 -0.5376228 -0.5108147 1.0208126
0.88781124 -0.1654236 1.4168313 1.4754862 1.4516948 0.080368504 -0.644242 1.0129241
0.87942606 0.07863972 1.5791097 1.1143253 1.388466 -0.11641662 -0.5246842 -0.70415044

fc2.weight f4 [64, 64]
00000000: a0ff 023f 6f2b 87be efcb 323f 8845 56bf
00000010: a235 1e3e 22fc 42bf 73b3 a6bb fbe8 b3bf
00000020: cc30 573d b39f 023f 8516 0dc0 7bb0 65be
00000030: a5df 123f a257 cc3d e9c3 e93e d077 9ebe
00000040: 1d95 b2bf b352 5fbf 653c 68be af8f e7bf
00000050: 3133 83bf 1de2 20bf 16c6 24bf 1f42 59bf
00000060: 1a7c 8abf 1c0c 033e 0a35 063e dae0 c4be
00000070: 3d8d 143f 41f8 c13e 38c4 67bf f942 81bf
00000080: 0bf3 a0be 0afd 2b3f 1446 dfbe bdd5 1c3d
00000090: e739 44be 6931 05be 44a5 aebe 8fc1 21bf
000000a0: e185 8e3f e89e 6e3e 7785 59bf 3374 db3e
000000b0: 9ee3 963c 561f 30bc f753 b13d 78e6 8dbf
000000c0: 06fc 643e 89a8 d33d 2ed6 0ebf 301b 0ebf
000000d0: c6dc f5be 9396 b73c 2453 483e 0e41 fd3d
000000e0: 9035 1b3f 0dbe 133f fdb9 5fbd 8556 b4be
000000f0: c713 93bf 0cbb 503f 3687 cfbe 9020 4f3d
00000100: c801 f9be 790e 9cbf 8041 3bbe 8ad6 bf3e
00000110: 423d c2be 6e9d 633f 7c65 a63d acb9 75bf
00000120: 1d1c 523e 0402 8c3d 139d 963e 16b8 053f
00000130: 1b70 813e f650 0abe bab7 2e3e 47b5 5e3f
00000140: f1d6 17bf fd6d ea3e 3773 40be ccb8 7fbe
00000150: df69 cebc a607 1fbf 37f1 0b3f d395 713e
00000160: 4ca6 003f 0b34 50bd 3127 a73f 6879 aa3e
00000170: c58c aa3e ac6d f8be 602f 493f 6703 08be
00000180: 4432 c9bf 6cdd 38bf c58c 583f 3520 b63e
00000190: ea73 ddbe fcc9 433f 4c2d a3be 311d 473f
000001a0: 8c68 973f 6473 373d 90df 20bf 5f40 063f
000001b0: 1d8b 123e 24b3 dd3d 303a ce3e e282 e3be
000001c0: 3c09 23bf 7892 8fbf 3528 9f3f 88e8 6e3e
000001d0: 2aca 553f da8f febe b507 01be d1a5 133f
000001e0: 3062 e23e 9440 c43e 7299 b6bf 5ed4 42be
000001f0: 7578 2c3c d6c6 86bf e098 e73d f426 26bf
00000200: 7dd5 98bd 5b88 1c3d 02b8 5bbe a65c 813e
00000210: f2b2 b33e 9e3d e2be e86d a23e 38b4 86bf
00000220: df1f 0dbd 27a7 583f dd0e 0f3f 6d00 3f3f
00000230: 2456 adbe 626d 9c3f 3532 293f ecad 893f
00000240: 1be8 753f c8d4 b23d 9312 b13d 5091 243e
00000250: 93f9 313e d74c 5ebf 5b1c d03d 3df2 5fbf
00000260: e641 c8be 1e21 a8be 4e35 b93f e733 743f
00000270: bb03 aa3d b8da 803e d947 b23e f26e 5fbf
00000280: 1bd8 983e 6924 2d3e 6304 eebe 7ce2 64bf
00000290: 9553 6cbf 0e3e 843f 7d2a efbd 13e8 963f
000002a0: dc14 a9be f80c 1a3e 8246 85bf 5886 4e3f
000002b0: 5019 c73e 2e7f 56be 628a 1fbe adba bb3e
000002c0: eab8 f3be fb50 04bf 2c9e 41bd 2db9 db3f
000002d0: e824 dbbe 1a63 45bc 6ae4 963d 6ea9 8c3f
000002e0: 570d 88bd c895 2f3e f596 b7bd 051f a43f
000002f0: ab50 ef3e cddf 9c3e afa1 78be 07c8 9b3e
00000300: 7e17 f4be c963 5fbe 87a4 17bf 042f 3cbe
00000310: 5fe4 abbe ec3f 8c3f 6a5f e73e 5fb5 873e
00000320: 5024 873d fe01 5dbe ef4e 223e f042 5d3f
00000330: f9bc 2f3f 4bb5 4f3e f9bf 0a3f ad4d 30bd
00000340: f86b b83e e167 82bf 6975 35bf 00a7 16bf
00000350: 1ede f03d e971 dcbd 1f28 8c3e 1531 113f
00000360: 36d7 763e 6957 613c c163 1dbe b222 babd
00000370: b2f3 e53e 9a69 2e3d 9a28 423e 3e26 35bf
00000380: 9a37 9f3e b812 3b3e 0ce9 013f b3bd 823e
00000390: 8a74 28bf a034 723f 81c0 b13e 3082 823f
000003a0: c085 513f 5ab4 943c 84bd 37bf 596d 1cbe
000003b0: 158b 913c 15ef 4dbf 6b77 d33d 3980 263f
000003c0: 83b0 1abf 5695 4bbf 76b1 213f 86b6 cfbe
000003d0: c80c 713f 91d2 373f 8230 773f 3b62 993f
000003e0: d1b5 55be 6918 f6be 2512 0a3f 848d 0b3f
000003f0: fb5d 15bf f9af 6a3e 89bd febe 1a5a d0bf
0.511713 -0.26400325 0.6984243 -0.83699846 0.15450147 -0.76165974 -0.00508731 -1.4055475
0.05253677 0.5102493 -2.2044995 -0.22430603 0.57372504 0.09977652 0.4565728 -0.30950785
-1.3951756 -0.87235564 -0.22679289 -1.8090724 -1.0249997 -0.6284502 -0.64364755 -0.8486652
-1.0819123 0.12797588 0.1310617 -0.38452798 0.5802801 0.37884715 -0.9053378 -1.0098563
-0.31435427 0.6718298 -0.43608153 0.038289774 -0.19162713 -0.1300713 -0.34110463 -0.6318597
1.1134607 0.23302805 -0.84969276 0.4286209 0.018419083 -0.010749659 0.08658593 -1.1085958
0.22361764 0.1033488 -0.5579556 -0.55510235 -0.4802 0.022410667 0.19562966 0.12365924
0.60628605 0.5771187 -0.05462073 -0.3522226 -1.149041 0.8153541 -0.40532845 0.050568163
-0.4863417 -1.2191917 -0.18286705 0.37468368 -0.3793736 0.88912094 0.08124825 -0.9598644
0.20518537 0.06836322 0.29416713 0.5223402 0.25280842 -0.13507447 0.17062274 0.8699536
-0.5931235 0.4578704 -0.18793951 -0.24972838 -0.025196968 -0.62121046 0.5466494 0.2359231
0.5025375 -0.050830882 1.3058835 0.3329575 0.33310524 -0.48521173 0.78587914 -0.13282548
-1.5718465 -0.7221286 0.845898 0.35571447 -0.43252498 0.7648008 -0.31870496 0.7777892
1.182878 0.04478778 -0.6284113 0.5244197 0.1431088 0.10825184 0.4027877 -0.44435793
-0.63685966 -1.1216574 1.2434145 0.23330891 0.835116 -0.49719125 -0.12600596 0.5767489
0.44215536 0.3833052 -1.4265578 -0.19026324 0.010526766 -1.052943 0.113084555 -0.6490319
-0.07462595 0.038215976 -0.21456912 0.25265998 0.35097462 -0.44187635 0.31724477 -1.0523748
-0.034454223 0.84630054 0.55882055 0.74610025 -0.33854783 1.2220881 0.66092235 1.0756202
0.9605729 0.08731991 0.08646121 0.16071057 0.17380361 -0.86836 0.101616584 -0.87479
-0.39112777 -0.32837766 1.4469392 0.95391697 0.08301493 0.2516687 0.3482044 -0.87278664
0.29852375 0.1690842 -0.46487722 -0.8940809 -0.92315036 1.0331438 -0.11678026 1.1789573
-0.33023727 0.1504401 -1.0412142 0.8067374 0.388865 -0.20946953 -0.15580133 0.3666586
-0.47602016 -0.51686066 -0.047269985 1.7165886 -0.42801595 -0.012047553 0.07367785 1.0989206
-0.066431694 0.17146981 -0.0896434 1.2821966 0.46741232 0.30639496 -0.24280427 0.30426046
-0.47674173 -0.21815409 -0.59235424 -0.1837731 -0.3357267 1.0957007 0.45189983 0.26505563
0.06598723 -0.21582791 0.15850423 0.86430264 0.68647724 0.20284002 0.5419918 -0.043042827
0.36019874 -1.0187951 -0.7088228 -0.5884857 0.117611155 -0.10763914 0.2737436 0.5671552
0.24105534 0.01375375 -0.15370084 -0.09088649 0.44912487 0.04258118 0.18960801 -0.7076148
0.31097108 0.1826886 0.50746226 0.25535354 -0.65802824 0.9461155 0.3471718 1.019598
0.8184471 0.018152405 -0.7177355 -0.15276088 0.017766515 -0.80442935 0.103255115 0.650394
-0.60425586 -0.79524744 0.6316141 -0.40568942 0.9416013 0.71805674 0.9655839 1.1983103
-0.20870139 -0.48065498 0.53933936 0.5451281 -0.5834653 0.2291869 -0.4975398 -1.6277497

fc2.bias f4 [64]
00000000: b73f 10bf 91c8 243e a1c4 8a3f 09fd 483e
00000010: 164b 0abf a88b 4b3e 4fbe 84be 28f2 d43e
00000020: f29c a63e 3527 4d3f 36bf 3ebf 85aa 15bf
00000030: 8e83 a83e 9341 dabc 6b1a f13e 816b 15be
00000040: 66f6 9dbe 21bb f33d a524 02be a930 f73c
00000050: fe30 4abd c86b 2d3e 1714 323f 00b4 993d
00000060: 7803 c9be e2e3 e13d ab0d 013f 2d89 ee3e
00000070: 93c4 78be 17a6 09bf d8af 753f 59fb 90bf
00000080: afa6 193f 50e3 60bd aac4 c63e 56c4 c8be
00000090: c494 b9be 7894 403f 6389 263f 63cd 5fbe
000000a0: 0b74 0c3f 5c4e 82be e943 f33e d346 d93d
000000b0: d4d2 b8be 250a f9bd 5021 a2be 8564 033f
000000c0: 02da 26bf 04cc 9ebd b372 823e d940 6ebd
000000d0: 611f 12be c90c ecbe e868 a53e d855 1ebe
000000e0: e72c 20bf 583e 9abe bd82 49be 85d7 f4be
000000f0: f82f 9e3e e52f 9c3e 03d5 2bbd a148 3fbe
-0.5634722 0.16092135 1.0841256 0.19627775 -0.5402082 0.19877493 -0.25926444 0.41591
0.32541615 0.8013795 -0.74510515 -0.5846332 0.32912868 -0.026642596 0.47090468 -0.1459179
-0.3085205 0.119009264 -0.12709291 0.03017457 -0.04936313 0.16935647 0.69561905 0.075050354
-0.3926046 0.11029793 0.5041148 0.46589032 -0.24293737 -0.5376906 0.9597144 -1.1326705
0.60019964 -0.054904282 0.38821918 -0.39212292 -0.36246312 0.75226545 0.65053385 -0.21855693
0.5486457 -0.25450408 0.4751275 0.10609212 -0.3609835 -0.12160138 -0.3166604 0.51325256
-0.65176404 -0.07753757 0.25478134 -0.058167312 -0.14269783 -0.46103504 0.323066 -0.15462434
-0.62568516 -0.3012569 -0.19678779 -0.47820678 0.30895972 0.3050529 -0.04195119 -0.1868005

fc3.weight f4 [64, 64]
00000000: 0178 083d 6fdc a03f 50cf 9fbd a956 56be
00000010: a107 8c3e 42a9 863f ecf4 643f ff40 99bf
00000020: dee2 fc3e a1d2 e53e b916 c73f c539 bbbe
00000030: 42cd a2be 88a2 abbe 701a 7d3f 19bd 363e
00000040: 4014 38be df20 743e 555c 453f cdfd fc3e
00000050: e53f 553f d916 d5be 5d2f 5bbf 4768 83bf
00000060: 564e 3c3e d582 603f 85dc dd3e 1db2 32be
00000070: 19f7 b4bc 479d 0dbf 1b0d 363c fca4 55bf
00000080: a89e ecbf 2094 44be 15ac dbbe eec1 27bf
00000090: fe7f 613e fe84 473f 0bd0 6d3e 8aa3 123f
000000a0: 375b 743f bcd0 f93f cb1b 503e 8285 11be
000000b0: d24f 99be 20c5 563f 8449 0f3f 7bb2 373f
000000c0: 7707 263e d1df 7b3f 4b30 283f f15b 93be
000000d0: e8b9 9cbe fcce ea3d 2c15 2ec0 1934 85bd
000000e0: 7cbe 2dbe 27ce 1a3e 5367 eb3e 37c0 043f
000000f0: 06de debd 5e7c 1fbf 0a77 30bd a93f 95be
00000100: 94aa d0bf 1ba4 26be d485 11be ebc2 d4be
00000110: 8b6d 3cc0 66c6 c2bf da44 773f b386 d9be
00000120: 9d64 ed3d 5a3b d8be 53d0 2b3f 2672 2b3f
00000130: 02f2 c4bd f789 32be ded2 f03e e618 803f
00000140: cf12 6bbe a281 58bf 6a6d bd3e b5d6 0abf
00000150: b39b a63c 03d8 d43e f214 b3be 4f9d fe3e
00000160: fe97 63bf 81cf aebf 7154 a9be 892c a8bf
00000170: 37fd cd3e aa31 883f 21fb 3bbf a3ec 73bf
00000180: 09dc a83e 8fbd 75bf 1dd5 fbbe f9fd cabf
00000190: c993 cabf b277 103f a015 183c cced 583e
000001a0: f734 23bf ec12 b63e ab56 c8be fe83 48bf
000001b0: 893e 53bf a658 e8be 3a46 51bf 949c 3a3d
000001c0: 5013 f53e 05ab a53e 0c34 693d bf26 88be
000001d0: 38b0 1a3f e96d 56be 0c05 a73f 1f0b 373e
000001e0: 667f 853d 6e12 433f 688b 0dbf 65d0 7cbf
000001f0: 4823 20bf a7e8 243e 851a 363f c9f0 d63e
00000200: f9c2 87be 2d23 82bf 5a52 71be d3c1 203e
00000210: f168 8dbf 88bf bdbf a3cc 2f3d 491a 0e3f
00000220: a75d 073d 9b32 86bf 552d 19bf 53f7 2cbd
00000230: 00ad 9abf 89a8 5bbe d7b7 14bf 2f97 9d3e
00000240: d9de 043f b8b6 e7bf c81a 03c0 181b 27bd
00000250: 4014 47be f3a1 a4bf be3a d6bd cdc9 db3e
00000260: 35ee 3cbf 0557 5bbf e35e 253e d063 233e
00000270: 57da 383f 9f1c 95bf 5e65 07bf e03f debd
00000280: 6e33 c5bf 814f e23f 3826 4b3d 89be 1a3f
00000290: 527e e5be c013 77be 3b62 1cc0 6fcd e3bd
000002a0: 06be f9be 9b40 3dbf 7ce6 01bd e72f 91be
000002b0: 77f5 723f d401 8c3f 9797 7c3e 6faa 12bf
000002c0: 276c 19bf d53f d7bf cdeb acbd 1290 253e
000002d0: a473 bf3e 721a 70bf b0de 743f 3366 92be
000002e0: a5e3 25bf 38d5 5a3e 822d 60bf eee6 a03f
000002f0: 30e8 21bf e8ee 423f dc9a 1cbe 6ca2 71be
00000300: 7e4a 24bf 1e2f e33e f759 173f 3baf 76be
00000310: 66ca b03e 9119 5fbf eaf7 3b3f fd04 41bf
00000320: b10d 33bf 24d5 f5bc 5e92 cb3e ffbe e4bd
00000330: 2209 ffbe cd28 9a3f c12e 9cbf 5e16 88be
00000340: a2cd a63e b398 25bf 6b4b 043f 2a72 fabe
00000350: 08a0 813e 6d4f 59bf 9907 233f 58b3 a33f
00000360: 1892 cdbe 0711 b2bc 0d8f 0c3f 2787 b53e
00000370: fb2d be3d 1f63 c53e 2226 133e ab2a 90bf
00000380: 01b2 c0bf fcc8 7cbe 6053 253f 3624 86be
00000390: 77fd f5bd 630a 5b3f d6f2 c6be f16c 923e
000003a0: f9d9 15be 5b00 89bf 8631 ffbe d504 d9bc
000003b0: 9ea0 f4bd 4271 01bf 6140 8dbe 57e0 de3d
000003c0: 0aa6 6c3f f45d 013f f65b 0cbd 7725 63bd
000003d0: ee32 463f 38cc 10be ff49 843f 516c e73e
000003e0: 9289 f4bd 4bb8 01c0 30be a73d 5032 a8be
000003f0: 4db0 84bf 3519 c93e cd66 4a3e 30a4 32bf
0.03331757 1.2567271 -0.078032136 -0.20931496 0.2734957 1.0520403 0.8943622 -1.197296
0.49391836 0.4488726 1.555381 -0.36567512 -0.31797224 -0.3352244 0.98868465 0.17845573
-0.17976475 0.23840664 0.7709401 0.49412385 0.8330062 -0.41618994 -0.85619146 -1.0266198
0.18389258 0.87699634 0.43332306 -0.17450757 -0.022090482 -0.5531811 0.011111523 -0.8345487
-1.8485918 -0.1919713 -0.42904726 -0.6553029 0.22021481 0.77937305 0.23223893 0.5728079
0.9545168 1.9516826 0.20323102 -0.14211085 -0.2994371 0.8389454 0.5597155 0.71756715
0.16213785 0.9838839 0.6569869 -0.28781083 -0.30610585 0.114652604 -2.7200422 -0.065040775
-0.16967195 0.15117703 0.45977268 0.51855797 -0.10882191 -0.62299144 -0.043082274 -0.2915013
-1.6302056 -0.16273539 -0.14211208 -0.4155496 -2.944186 -1.5216796 0.96589434 -0.4248558
0.11591456 -0.42232782 0.6711475 0.6697105 -0.09616472 -0.17435442 0.4703588 1.0007598
-0.22956394 -0.84572804 0.3699754 -0.54233867 0.020337915 0.41571054 -0.34976918 0.49729392
-0.88903797 -1.3657075 -0.33072236 -1.3138591 0.4023225 1.0640156 -0.7343007 -0.95282954
0.32980374 -0.9599237 -0.4918603 -1.5858756 -1.582635 0.5643264 0.0092825 0.21184462
-0.6375269 0.3556131 -0.39128622 -0.78326404 -0.82517296 -0.45380133 -0.8174778 0.04555948
0.47866297 0.3235704 0.0569344 -0.2659206 0.6042514 -0.20940365 1.3048415 0.17875336
0.0651844 0.76199996 -0.5529084 -0.98755485 -0.62553835 0.16104375 0.71134216 0.4198058
-0.2651594 -1.0166985 -0.23566571 0.15698938 -1.104765 -1.4824076 0.042919766 0.5550886
0.0330483 -1.0484194 -0.59834796 -0.042228054 -1.2084045 -0.2145101 -0.5809302 0.30779406
0.5190254 -1.8102636 -2.0485096 -0.040797323 -0.19441319 -1.2861923 -0.10460423 0.429274
-0.73800975 -0.85679656 0.16149478 0.15956044 0.7220816 -1.164936 -0.5288905 -0.10852027
-1.540632 1.7680513 0.049596995 0.60446984 -0.44822937 -0.24128628 -2.4434955 -0.11123168
-0.4877779 -0.73926705 -0.031713948 -0.2835686 0.949058 1.0938058 0.24667202 -0.5729131
-0.5993065 -1.6816355 -0.08443413 0.1616824 0.37392914 -0.9379035 0.95652294 -0.28593597
-0.64800483 0.21370399 -0.8756944 1.2570474 -0.63244915 0.7614579 -0.15293449 -0.23597115
-0.64176166 0.44371885 0.5912165 -0.24090283 0.34529418 -0.87148386 0.7342516 -0.75398237
-0.69942766 -0.03000886 0.39760107 -0.11169242 -0.49811655 1.2043701 -1.2201768 -0.26579565
0.3257876 -0.64686126 0.5167758 -0.48915225 0.25317407 -0.8488682 0.6368347 1.2789106
-0.40150523 -0.021736635 0.5490578 0.35454676 0.09286114 0.38552186 0.14370015 -1.1263021
-1.5054322 -0.24686044 0.64580345 -0.26199502 -0.12011235 0.85562724 -0.38857144 0.2859874
-0.14633931 -1.0703233 -0.4984247 -0.026491562 -0.11944698 -0.5056344 -0.2758818 0.10882633
0.92440856 0.50533986 -0.03426739 -0.05545565 0.7742146 -0.14140403 1.0335082 0.45199826
-0.11940302 -2.0268734 0.08190572 -0.32850885 -1.0366303 0.39277044 0.19765778 -0.6978178

fc3.bias f4 [64]
00000000: 98ff 8a3e 0e4f 52bc 295a 75be 2755 743e
00000010: 5f19 69bf efa3 7bbd 2a67 c8bc 7098 23bf
00000020: 87fc 8ebc 7963 fcbe 69c4 a03d 94e8 72bf
00000030: 2dbd d63c b05f b23a 8e6c 40bf 7bd4 7f3e
00000040: d3e6 1e3e 90a2 9e3e bc0a b7be 608c 33bf
00000050: de0e 92be 6565 733c 8aae ca3e 1863 27be
00000060: c428 a03e b3b8 6a3e 973f 263f 05bf 04bf
00000070: c0b2 553e c622 1c3f 7f2f cbbe bd69 72bf
00000080: 83c3 ed3e 0cdb 483f 45a7 1ebe 0f57 8ebe
00000090: 76b5 60bf 4715 01bf ad28 8d3f 1abe 363f
000000a0: 2586 5f3f d334 69be c011 8cbf 24f0 2ebe
000000b0: 8112 2bbe e283 9abe bdaf e2be 69c0 5dbe
000000c0: 9b33 443d 59e9 243e b9bf 27bf 4e7d a23e
000000d0: 00fb c9be bcae e7be 491b 5d3e 3cfe 2d3f
000000e0: 2f51 a9be 812d 12bf 5c84 0abd f443 51be
000000f0: 4b82 953e 1e4d 0b3d 1dd6 ef3e 6d54 053d
0.27148128 -0.012836231 -0.23960175 0.23860608 -0.9105434 -0.061435636 -0.024463255 -0.63904476
-0.017454399 -0.49294642 0.07849962 -0.94886136 0.026213253 0.0013608839 -0.7516564 0.24983399
0.1551774 0.309834 -0.35750377 -0.7013607 -0.28526968 0.014855717 0.39586288 -0.16346395
0.31281102 0.2292202 0.6494078 -0.5185397 0.20868969 0.6099056 -0.39684674 -0.94692594
0.46438226 0.7845924 -0.15493496 -0.27800795 -0.8777689 -0.5042309 1.1028038 0.7138382
0.87314063 -0.22774057 -1.0942917 -0.17083794 -0.16706277 -0.30178744 -0.44274703 -0.2165543
0.047900777 0.1610464 -0.6552692 0.31736225 -0.3944931 -0.452505 0.2159244 0.67966056
-0.3306975 -0.57100683 -0.033817634 -0.20436078 0.29200968 0.03400909 0.46843043 0.032551218

action_out.weight f4 [5, 64]
00000000: 79a8 41bf df12 b43f 3246 5c3f a4a9 11c0
00000010: 3ddd 31be 409b c83d 996f b53e d8bf a8bf
00000020: a1bc 0a3e 33b6 0d3f 16e5 043f 1980 5abf
00000030: 893e 94bd 5504 5dbf 03fe af3f abed 483e
00000040: 5c86 87be 8771 36bf 3c16 a0be c102 cbbd
00000050: 7c1a ccbf 41b2 aa3f a81d 653f 1634 30bf
00000060: 5e3d 1c3e d5e1 06be ccb1 643f c45e afbf
00000070: 6d7c 06c0 b2db 11bf 6905 a03f c3ca 49bf
00000080: 36b8 863f be6e 22be e671 94be 580a 32bf
00000090: dc33 9abd df30 febe ddda d53f 331d ac3f
000000a0: 1451 db3e 513b 6cbd 8fcb 11c0 db52 813c
000000b0: ba88 403e 2f41 e0be 3a41 01bf 70af b83f
000000c0: c108 213f 0770 5c3f a478 bf3e 41b6 91be
000000d0: 2147 20bf 0b88 b5be eda8 d63d 7aba 253f
000000e0: 65e3 03bf 9d26 96bf 4f50 30bc 7e4a 7e3f
000000f0: d6a7 0abe 5958 acbf 5e4b ff3e 1936 d23f
00000100: 6d51 96bf 2a80 29bf 0b40 8c3f 23aa a33f
00000110: fcae e6be 1e56 87bd 6a17 38bf 3e5a f3be
00000120: e566 be3f bef4 e5be 7ed5 18be c311 523f
00000130: bc79 313c 1a6b db3f 676b f1be 6b9d 703f
00000140: 4bac 55bf b4b4 4c3d 6bda 85bf ee5a 313f
00000150: e19f 82bf 11ae b0bf 4167 243f 53f4 f0bf
00000160: 618a 4d3f a481 4fbf 39e8 573f 1488 a3bc
00000170: 2590 1c3f 857a e43e 3bef 02be a140 d2be
00000180: 32e1 2a3f a2c1 193f 53be d53e 4bfd c23e
00000190: 0d4e 2fbf fcda 10bf 21ad 2bbe fac0 0cbf
000001a0: 21da 813e c936 183f 6c9e 303c 5905 3ac0
000001b0: 1ccf e4bf 8482 273f d635 abbf 32e0 c03e
000001c0: 2680 b93e 0606 47bf be59 b13e fad5 2bbf
000001d0: e3ca a8bf d9a2 ee3d 9811 56bf ea01 80be
000001e0: f8e0 e1be 83c9 983f ba0b 073d f3e1 a2bd
000001f0: 673b b5be 1af0 223f e70b 1f3f b089 6dbe
00000200: 37b1 7d3f b72e 843f 1180 98bf 6432 30bf
00000210: 1996 f43c 29eb 893d d301 7d3f 608c 90bd
00000220: d415 bdbf aa29 303f a5a2 54bf 28ad 39bd
00000230: 14ee 4c3d 3b63 05c0 daab 083f 0dd6 12bf
00000240: ad49 dc3f 59c8 64bf 6468 853f ffbe 3dbf
00000250: 1d29 193d 0d43 74be 30a7 2dbf 9481 2cbf
00000260: 7329 a33e 0154 ad3f 9c02 2340 4e87 bbbe
00000270: aa91 58bf a94b 96be 08f6 373f 5fee a83f
00000280: 6aa0 b4bf c5d3 353e b30a dabd 04df c43e
00000290: 63d3 a43f cea5 733f 2700 1fbc 4947 063f
000002a0: 5c28 bdbe 4a96 6f3e c248 98bf cd74 a83f
000002b0: 328a 613f a106 b13d 9877 0a3f 3562 6a3f
000002c0: 9ca7 b8be ce88 253e 2ece 683f 2263 f73e
000002d0: 877f cc3f 7da8 f2be c22a 8cbf 0b06 513c
000002e0: b766 3d3f 4d28 12bf 9856 a83d 9273 cbbe
000002f0: 62b4 8ebf 21db e0be 95a4 b5bf 4ec1 963f
00000300: 2761 2a3e d2ac 593e c74a 39be 9db0 2a3e
00000310: aa17 af3f 8b15 24be d10b d9bf 2029 b33e
00000320: d01e 3dbf 37db e6bf 4c5f acbf ca0d 823f
00000330: df28 e63d e980 013f a81d fe3d aaee 403e
00000340: 5095 9e3e a5df 3dbf 6af3 aabf 22f2 10be
00000350: 87e9 a93e 3552 4dbe 08be 5cbf e253 6f3e
00000360: 4585 613f be9b a23f 53ab fbbd cbb8 b3bd
00000370: 5c14 833f f68e d6be e953 983f fed0 9a3f
00000380: 1489 9938 e0e2 1a3f 6a49 5e3e e9c7 f9be
00000390: 788c b4be 7908 b73f 0dee 32bf 1258 b83e
000003a0: 93af 073f 3649 13bf 764c 42bf 00b8 953e
000003b0: 3d5e bcbf c469 90bf de4e 23bf 4e66 b3bf
000003c0: 8be4 da3f 8030 56bf b192 31c0 e39d 343f
000003d0: c343 50bf 9cad 6b3f 392e adbd f4ea bd3f
000003e0: f741 4f3e 2033 983f 30c7 433c 56cc dabf
000003f0: 31f0 153e 422e 583f d4e7 ad3e a9ee a4bd
-0.75647694 1.4068259 0.8604461 -2.275979 -0.17369552 0.097952366 0.35436705 -1.3183546
0.13548519 0.5535614 0.5191206 -0.8535171 -0.0723849 -0.86334735 1.3749393 0.19621913
-0.26469696 -0.7126698 -0.31266963 -0.09912635 -1.5945582 1.3335649 0.89498377 -0.68829477
0.15257785 -0.13172086 0.89333797 -1.3700795 -2.1013443 -0.56975853 1.2501651 -0.78825015
1.0524967 -0.15862557 -0.28993148 -0.69547033 -0.07529423 -0.4964666 1.6707417 1.3446411
0.42835295 -0.057673756 -2.2780492 0.015786579 0.18802157 -0.4379973 -0.5049015 1.4428539
0.6290398 0.8610844 0.3739673 -0.2845936 -0.62608534 -0.35455355 0.10481439 0.64737666
-0.5151885 -1.1730534 -0.010761335 0.99332416 -0.13540587 -1.3464462 0.49862188 1.6422759
-1.1743599 -0.6621119 1.0957044 1.2786297 -0.45055377 -0.066082224 -0.7191073 -0.47529787
1.4875151 -0.44913286 -0.14925191 0.8205835 0.010832246 1.714206 -0.47152254 0.939902
-0.83466023 0.04997702 -1.0457281 0.6927937 -1.0205041 -1.3803121 0.6422005 -1.8824562
0.80289274 -0.8105719 0.8433872 -0.019962348 0.6115745 0.44624725 -0.12786572 -0.41064933
0.6674987 0.60061085 0.41746768 0.38083872 -0.6847847 -0.56584144 -0.16765262 -0.5498196
0.25361732 0.59458596 0.010779958 -2.9065764 -1.7875705 0.65433526 -1.3375804 0.37671047
0.36230582 -0.77743566 0.3463878 -0.6712338 -1.3186916 0.116521545 -0.83620596 -0.2500146
-0.4411695 1.1936496 0.032970168 -0.07953253 -0.35396883 0.63647616 0.62127537 -0.23197055
0.99098533 1.0326756 -1.1914083 -0.6882689 0.029856728 0.06734306 0.9883091 -0.070580244
-1.4772286 0.68813574 -0.83060676 -0.04533115 0.050031736 -2.0841815 0.53387225 -0.57357866
1.7209984 -0.89368206 1.0422482 -0.7411956 0.037392724 -0.23853703 -0.6783323 -0.6738522
0.3186756 1.3541261 2.5470343 -0.36626667 -0.84597266 -0.293546 0.7185979 1.3197745
-1.4111454 0.17756565 -0.10646572 0.38451397 1.287701 0.9517487 -0.009704626 0.5245252
-0.36944854 0.23397174 -1.1897204 1.3160645 0.88101494 0.086438425 0.54088736 0.915561
-0.36065376 0.16165468 0.90939605 0.4831782 1.5976418 -0.4739417 -1.0950549 0.012757788
0.73984855 -0.57092744 0.082196414 -0.3973661 -1.1148798 -0.43917182 -1.4190851 1.1777742
0.16638623 0.21257332 -0.18094932 0.16668935 1.3679097 -0.16023843 -1.6956731 0.34992313
-0.7387514 -1.8035649 -1.3466582 1.0160458 0.11238264 0.50587326 0.12408 0.18841043
0.3097329 -0.7416938 -1.3355534 -0.14154866 0.3318598 -0.2005089 -0.86227465 0.23371843
0.8809398 1.2703779 -0.12288537 -0.08775481 1.0240588 -0.41905946 1.1900607 1.2095029
7.321141e-05 0.60502434 0.21707693 -0.48785332 -0.3526342 1.4299461 -0.69894487 0.36004692
0.5300228 -0.57533586 -0.7589792 0.29241943 -1.4716259 -1.1282277 -0.63792217 -1.4015596
1.7100996 -0.83667755 -2.7745783 0.70553416 -0.81353396 0.9206178 -0.08456082 1.4837327
0.20240007 1.1890602 0.0119493455 -1.7093608 0.14642407 0.84445584 0.33965933 -0.08053333

action_out.bias f4 [5]
00000000: 5921 ba3e 32c2 443d bfb0 0c3e d185 77be
00000010: c0c8 59bf
0.36353567 0.04803676 0.13739298 -0.2417214 -0.85071945
