maddpg/MADDPG-master/model/simple_tag/agent_2/2_critic_params.pkl (torch, 52175 bytes, 7 tensors)

fc1.weight f4 [64, 63]
0	0xbd8e0fad	-0.06936584
1	0x3deb0951	0.11476386
2	0x3e66e1e0	0.22547102
3	0xbe091852	-0.13388184
4	0xbf39c7fd	-0.7257078
5	0x3de338d7	0.11094826
6	0xbe0d6282	-0.13807109
7	0x3d5200ba	0.051270224
8	0x3fcf6dcc	1.6205382
9	0xc0448868	-3.0708256
10	0xbf06c885	-0.5264972
11	0x3f97b9a1	1.1853524
12	0xbfcb31c6	-1.5874565
13	0x412ad978	10.678093
14	0xbe1a44b4	-0.1506527
15	0x3f1ea138	0.6196475
16	0x3eba255f	0.36356637
17	0xbed0dabd	-0.40791884
18	0xbd83506d	-0.064118244
19	0xbe540d7c	-0.20708269
20	0xbcb421fa	-0.021988858
21	0x3eb40be1	0.35165313
22	0x3e86abbc	0.26302898
23	0x3d3fbcfa	0.04681108
24	0xbfd45656	-1.6588848
25	0x40456826	3.0844817
26	0xc0060899	-2.0942748
27	0x408e1927	4.4405704
28	0xc0907b34	-4.5150394
29	0x419a40cb	19.281637
30	0x3d7cbb43	0.061702024
31	0x3ef669db	0.48127636
32	0x3d3cde74	0.046110585
33	0xbe93186a	-0.28729564
34	0xbeea7acc	-0.45796812
35	0x3f00d39a	0.5032288
36	0xbe692e5f	-0.22771595
37	0xbe6eab05	-0.23307426
38	0x3daa18f9	0.083055444
39	0xbeaf4a54	-0.34236395
40	0x3f295bab	0.661555
41	0xbf990eb9	-1.1957618
42	0x3ffb253a	1.9620736
43	0xc08d318d	-4.4122987
44	0xc0522b16	-3.2838798
45	0x4148a06d	12.539166
46	0xbd2c9e33	-0.042143058
47	0x3f006173	0.50148696
48	0xbeaeaa0d	-0.34114113
49	0x3dde6da5	0.10860757
50	0xbe454965	-0.19266279
51	0x3e3bb037	0.1832894
52	0xbe9a2d9e	-0.30112928
53	0x3daefd46	0.08544402
54	0x3e48f803	0.19625859
55	0xbf3e4ce2	-0.74336064
56	0xbef322c5	-0.47487465
57	0x3ec52b7d	0.3850974
58	0xbd41ca3f	-0.047312018
59	0xbd699dd2	-0.057035275
60	0xbee6ef0e	-0.4510426
61	0xbe71802e	-0.23584053
62	0x3ea13179	0.31483057
63	0x3f0247ca	0.5089079
64	0xbe32ef69	-0.1747414
65	0xbc1ded23	-0.009639057
66	0x3e45a350	0.1930058
67	0x3e4ab0cf	0.1979401
68	0x3a2cd8ee	0.00065936043
69	0x3e601b9f	0.21885537
70	0xbe9cd8f6	-0.30634278
71	0xc0060ab4	-2.0944033
72	0x3f3b522f	0.7317228
73	0xc024a079	-2.5722945
74	0x3edb1817	0.42791817
75	0xc225c0d2	-41.4383
76	0x42054db3	33.32588
77	0x3d3bae6e	0.045820646
78	0xba78fcab	-0.00094980997
79	0x3c6a4eb3	0.01430099
80	0x3d976d6b	0.07393917
81	0xbd21a10a	-0.03946022
82	0x3b034c17	0.0020034367
83	0x3ef3f88d	0.47650567
84	0xbeaba156	-0.33521527
85	0xbdff3fd9	-0.1246335
86	0xbdb6852d	-0.0891212
87	0x40097f7a	2.1484056
88	0xbf44e3cd	-0.76910096
89	0x3d0cd0a9	0.03437868
90	0x3ee1998f	0.44062468
91	0xc09eb410	-4.9594803
92	0x3f7c27f9	0.98498493
93	0xbe1dc830	-0.15408397
94	0xbe116d1c	-0.14201778
95	0x3e0bd15d	0.13654085
96	0x3db0448f	0.086068265
97	0xbe47305d	-0.19452043
98	0xbe190e59	-0.1494688
99	0x3f5a5ea5	0.85300666
100	0xbe8203b7	-0.2539346
101	0x3f3e236f	0.7427282
102	0xbe8b9c4d	-0.27267686
103	0x401ed323	2.4816368
104	0xbec9808c	-0.39355886
105	0xbe0c697d	-0.13712116
106	0xbefa0be6	-0.48837203
107	0xc0cd3657	-6.4128833
108	0x3fab4967	1.3381776
109	0xbdd38e41	-0.10329867
110	0xbddbbafb	-0.10729023
111	0x3d98bc1b	0.07457753
112	0x3d994345	0.07483534
113	0xbc799e02	-0.015235426
114	0x3e615829	0.22006287
115	0x3e222544	0.15834528
116	0xbe80a87c	-0.25128543
117	0x3d2b271f	0.041785356
118	0xbd4f7174	-0.050645307
119	0x3e6393bb	0.22224323
120	0xbec2df36	-0.3806092
121	0x3e794b8a	0.24345222
122	0x3d57b061	0.052658442
123	0xbea0bc58	-0.31393695
124	0x3e109004	0.14117438
125	0x3e0e0fc4	0.13873202
126	0x3fbf48e3	1.4944118
127	0x3fecfab3	1.8514007
128	0xbf0a80db	-0.5410287
129	0xbe69d26e	-0.22834179
130	0xbf71e508	-0.944901
131	0x3ee26cbd	0.44223586
132	0x3f614de8	0.880095
133	0xbe551327	-0.20808087
134	0xc08879f8	-4.264889
135	0xbf2ce556	-0.6753744
136	0xbf610aea	-0.8790728
137	0xbf964ec6	-1.174279
138	0xc01fc8d0	-2.4966316
139	0xc0441cc9	-3.064257
140	0xbfadfa8c	-1.3592086
141	0x3f46eb7c	0.7770307
142	0xbea1d2ae	-0.31606048
143	0xbd03e0ac	-0.032196686
144	0xbf789777	-0.97106117
145	0x3e0f210d	0.13977452
146	0xbeef0872	-0.4668613
147	0x3e80aca0	0.25131702
148	0x3f2675d2	0.6502353
149	0xbf6b6d4a	-0.91963637
150	0x408afab0	4.3431015
151	0x3f5786c4	0.8419001
152	0x403b1cdb	2.9236362
153	0x3d93ccf3	0.07216825
154	0x4004ef1e	2.0770946
155	0xc07a5e2c	-3.9119978
156	0xbfad5dee	-1.354429
157	0x3f36a6d8	0.71348333
158	0x3f435389	0.7629934
159	0xbdf044da	-0.117318824
160	0xbe875fb3	-0.264402
161	0xbf20dd53	-0.62837714
162	0xbee9a7cd	-0.45635834
163	0x3e47211a	0.19446221
164	0x3db441f7	0.08801644
165	0x3db82f78	0.08993429
166	0x3f55e8d8	0.83558416
167	0x3f9550f2	1.1665328
168	0xc03c110d	-2.9385407
169	0xbe20522c	-0.15656346
170	0x3ea135b1	0.31486276
171	0xc0afe7ef	-5.497062
172	0xbfbaa7c4	-1.4582448
173	0x3f499f10	0.78758335
174	0xbe7f8551	-0.249532
175	0x3ef6e831	0.48224023
176	0xbeb77330	-0.3583007
177	0x3f5111d7	0.81667846
178	0x3d53b589	0.051686797
179	0xbdd12fc3	-0.10214188
180	0x3f44c921	0.768694
181	0x3dcb5062	0.09927441
182	0xbe361bfc	-0.17784113
183	0xbe3febdb	-0.18742315
184	0xbe3aa12d	-0.18225546
185	0x3f5fa2c2	0.87357724
186	0x3c8d4e4e	0.017249253
187	0xbdee7e3a	-0.116451696
188	0xbeac8d90	-0.33701754
189	0xbec95ade	-0.3932714
190	0x3e909c6c	0.2824434
191	0xbeb212fb	-0.34780106
192	0xbf09a8fb	-0.5377347
193	0x3eb77b04	0.3583604
194	0x3f95f7ad	1.171621
195	0x3e2bbba2	0.16770795
196	0x3f069d3c	0.5258367
197	0x405aedee	3.420772
198	0x4035dc3e	2.8415675
199	0xbea912f4	-0.33022273
200	0x3f9577f1	1.1677228
201	0xc1010306	-8.063238
202	0xc101f91b	-8.123317
203	0xbfd5876b	-1.6681951
204	0xbf828d03	-1.0199283
205	0x407c13ca	3.9387078
206	0x3f9dcfa8	1.2328997
207	0x3f3d079b	0.7383973
208	0x3f35fa61	0.7108517
209	0xbecb2e68	-0.39683843
210	0xbe94012b	-0.2890714
211	0xbf2e3f1a	-0.68065035
212	0xbf50d0b5	-0.8156846
213	0xc05951f2	-3.3956265
214	0xc02df4a8	-2.7180576
215	0xc031f67d	-2.7806695
216	0xbf658696	-0.89658487
217	0xc12364cf	-10.212111
218	0xc0d63656	-6.694133
219	0xbfde4a25	-1.7366377
220	0xbf9723b5	-1.1807772
221	0xbef6cd03	-0.48203287
222	0x3e8aac9c	0.27084816
223	0xbee12bd3	-0.43978748
224	0xbe9cef7e	-0.30651468
225	0x3e6e5de0	0.23277998
226	0x3ee97985	0.45600525
227	0x3da49edf	0.08038115
228	0x3d36e53e	0.044652216
229	0x3e708e30	0.2349174
230	0xbf7c2aa5	-0.9850257
231	0x4030e5d9	2.7640288
232	0x3f7ea1b4	0.9946549
233	0xc0a243ff	-5.0708003
234	0xc0a8deba	-5.2771883
235	0xbff30933	-1.8987182
236	0xbf96077d	-1.1721035
237	0xbef5da7f	-0.48018262
238	0x3e0cf382	0.13764766
239	0xbe57401e	-0.21020553
240	0x3f13bc6d	0.5770939
241	0xbeb76972	-0.35822636
242	0x3d335dcc	0.043790624
243	0x3fcaa462	1.5831416
244	0xbfe7b98a	-1.8103497
245	0x3f3a5507	0.7278599
246	0xbeacce4f	-0.3375115
247	0xbc9b9be6	-0.018995237
248	0x3e490cd7	0.19633804
249	0x3e878697	0.2646987
250	0x3e4e54eb	0.20149581
251	0xbd93af84	-0.07211211
252	0xbf7af2f8	-0.9802699
253	0xbeca4683	-0.3950692
254	0x3e6cb5c0	0.23116207
255	0x3fbc3cef	1.4706095

fc1.bias f4 [64]
0	0x3f8dd78e	1.1081407
1	0x3f7d75af	0.99007696
2	0xc091de95	-4.5584207
3	0xbf057c09	-0.5214239
4	0xc0e08859	-7.016644
5	0xbec0e57e	-0.3767509
6	0xc14117ec	-12.06834
7	0x3eb22cba	0.3479975
8	0x4125a623	10.353061
9	0xbe087ae1	-0.13328125
10	0x3fb488e1	1.4104272
11	0x40772160	3.861412
12	0xbdba2227	-0.09088545
13	0xc0de39fa	-6.944577
14	0x3eecb367	0.46230623
15	0xbfbc8a5a	-1.4729722
16	0xbed42f76	-0.4144246
17	0x3edc3024	0.43005478
18	0xbeebf95f	-0.46088693
19	0xbf15e8f8	-0.5855861
20	0xbda5644e	-0.08075772
21	0x3fe52ff6	1.7905262
22	0xc18118b9	-16.137072
23	0xbfbf5c68	-1.4950075
24	0xc03b2eea	-2.9247384
25	0xc15c5f68	-13.773293
26	0xc14d2182	-12.820681
27	0xbf205dec	-0.62643313
28	0xbec54b3d	-0.38533965
29	0xc0df60f7	-6.9805865
30	0xbe0fbda9	-0.14037193
31	0x418e69df	17.801695
32	0xbfbc596f	-1.4714793
33	0xc180e270	-16.110565
34	0x3f59251a	0.8482224
35	0xbd9ba5ee	-0.07600008
36	0x40290cd5	2.6414082
37	0xc0ac3aaa	-5.382161
38	0xc1600a92	-14.002581
39	0xbf8e14b7	-1.1100072
40	0xc0002dc8	-2.0027943
41	0x3e632154	0.22180682
42	0xc10940a9	-8.578286
43	0xc14d2ced	-12.823468
44	0xbe6410d9	-0.22272052
45	0xc1581904	-13.506107
46	0xc0cb2680	-6.3484497
47	0xbd829949	-0.06376893
48	0xbf45f5ab	-0.77327985
49	0xbf8de72f	-1.1086177
50	0xbf905711	-1.127657
51	0xbf8010ab	-1.0005087
52	0xc0d7a433	-6.738794
53	0x3ea390b5	0.3194634
54	0xbf373796	-0.7156919
55	0xc0861fe9	-4.1913953
56	0xc10228cf	-8.134963
57	0x418d11bd	17.633661
58	0x3f8eaf50	1.1147251
59	0xbf089ac8	-0.5336118
60	0xc04908c7	-3.1411607
61	0x411e255c	9.884121
62	0xc0b14672	-5.5398493
63	0x409d2197	4.9103503

fc2.weight f4 [64, 64]
0	0xbda1faf2	-0.07909192
1	0x3fa847d1	1.3146917
2	0xbd7191ab	-0.05897681
3	0xbe1867c5	-0.14883335
4	0x3f9aaee1	1.2084619
5	0xbef4a45d	-0.4778165
6	0xbe01a82d	-0.1266181
7	0x3d89ea49	0.067341395
8	0xbfa4ebb5	-1.2884432
9	0xbf8fbc98	-1.1229429
10	0xbf698eb2	-0.9123336
11	0x3e67d728	0.2264067
12	0x3f12d211	0.57351786
13	0x3f16beba	0.58884776
14	0x3fc1c8cf	1.5139407
15	0xbf84ebb8	-1.0384436
16	0xbf26ec38	-0.6520419
17	0x3f2b271e	0.66856563
18	0x400cb489	2.198519
19	0xbf63ecc7	-0.8903317
20	0x3f83d31b	1.0298799
21	0x400f7c50	2.2419624
22	0x40e178ec	7.046011
23	0x3f8672e6	1.0503814
24	0xbe9a37ef	-0.301208
25	0xc0230ce9	-2.547663
26	0x404e75f3	3.225949
27	0xbe17fa96	-0.14841685
28	0x3f7df66f	0.9920415
29	0x3e66cd39	0.22539224
30	0x3d3dcc3d	0.046337355
31	0xbfa0a8ed	-1.2551552
32	0xbfa8bdad	-1.3182884
33	0xbfd2872f	-1.6447505
34	0x3e2f606b	0.17126624
35	0x3f7e0e1c	0.9924028
36	0x3eef38a0	0.4672289
37	0x3f0ec30c	0.5576637
38	0x3d937fb1	0.072020896
39	0x3f360270	0.7109747
40	0xbf3186b5	-0.6934617
41	0xbe3613e5	-0.17781027
42	0xbf51ebad	-0.8200024
43	0x40bb40c9	5.8516583
44	0x40063986	2.097261
45	0xbf28dac8	-0.65958834
46	0x3ede69d1	0.43440107
47	0xc00d3469	-2.2063239
48	0x3e26e825	0.16299494
49	0xbf9690cc	-1.1762938
50	0xbfde6dbc	-1.7377238
51	0x3db7f946	0.08983092
52	0x3e003524	0.12520272
53	0xbfce2fc3	-1.6108326
54	0xbe0e772f	-0.13912652
55	0x3f36935b	0.71318597
56	0x3f7bf7ce	0.98424995
57	0xbdd82f81	-0.10555936
58	0x3fa11eb8	1.25875
59	0x3e96b41c	0.29434288
60	0x3f092dfa	0.5358578
61	0x3f48add8	0.78390265
62	0x3d335e83	0.043791305
63	0x3f327b55	0.6971944
64	0xbfad54ae	-1.3541467
65	0x3f89880a	1.0744641
66	0xbe82bf6c	-0.25536668
67	0x3f22aee0	0.6354809
68	0x3e515a56	0.20444617
69	0xbf10527f	-0.5637588
70	0xbf5abd66	-0.8544525
71	0xbe7ebd7b	-0.24876969
72	0xbe8ab33f	-0.2708988
73	0x408282b3	4.0784545
74	0x40238127	2.5547578
75	0x3e65f855	0.22458012
76	0xbf033514	-0.51252866
77	0x3cae6d18	0.021292254
78	0x3f986990	1.1907215
79	0x3faba02f	1.3408259
80	0xbf44f57e	-0.7693709
81	0xbeef0d94	-0.46690047
82	0xbf7821bb	-0.9692647
83	0x3f3c5bcd	0.73577577
84	0xbf9e9de4	-1.2391934
85	0x3f15efc3	0.5856897
86	0x3fa831b1	1.3140165
87	0x3d926d4e	0.071497545
88	0xbe05fb02	-0.13084033
89	0xbe8fdfb4	-0.2810036
90	0xbe942a18	-0.28938365
91	0xbf32da6e	-0.6986455
92	0xbf6afabc	-0.9178884
93	0x3d0dd4e5	0.03462686
94	0xbf027e7c	-0.5097425
95	0xbf85316a	-1.0405705
96	0x3e648530	0.22316432
97	0xbfba9a76	-1.4578388
98	0x4036a174	2.8536043
99	0x3efaf130	0.49012136
100	0xbf3c2bdb	-0.7350442
101	0x3de4cbb1	0.111716636
102	0x3f9bd0c4	1.2173085
103	0xbf98f294	-1.1949029
104	0xbe861ac7	-0.26192304
105	0x3f615846	0.8802532
106	0x3fd958be	1.6980207
107	0xbfd287fa	-1.6447747
108	0x3f88a4ba	1.067527
109	0xbf1dcc2f	-0.61639684
110	0xbf016db1	-0.50558
111	0x3f78f24f	0.97244734
112	0xbe732b63	-0.2374702
113	0xbe80319d	-0.25037852
114	0xc0065069	-2.0986578
115	0xbe88ff79	-0.2675741
116	0x3eef4b12	0.46736962
117	0xbfb081eb	-1.3789648
118	0x3eceb760	0.4037428
119	0x3eeb6e29	0.45982483
120	0xbe3f46f0	-0.18679404
121	0xbf0693a9	-0.5256906
122	0xbe2ff446	-0.17183027
123	0x3f3e30ac	0.7429302
124	0xbebd7c33	-0.3700882
125	0x3e8956f1	0.26824144
126	0xbea6c2fa	-0.3257063
127	0xbeedc704	-0.464409
128	0xbfc6dd6f	-1.5536326
129	0x3f2352a3	0.6379797
130	0x3f449d88	0.76802874
131	0xbdc62981	-0.09675885
132	0xbe046f93	-0.12933187
133	0x3e7b4b93	0.24540548
134	0x3f1dce13	0.6164257
135	0x3cd849f1	0.026402446
136	0xbf125de7	-0.57174534
137	0xbf7156c4	-0.9427302
138	0xbebe8faf	-0.37218997
139	0xbda7c5ff	-0.08192062
140	0xbf0cb494	-0.5496304
141	0xbf06f8f8	-0.52723646
142	0xbfe1addf	-1.7631186
143	0xbf4d9088	-0.8029866
144	0xbf285529	-0.65754944
145	0xbe8ba35a	-0.27273065
146	0x4013bb9b	2.3083255
147	0xbf8e756d	-1.1129586
148	0x3fa08db7	1.2543248
149	0xc042cc7c	-3.0437307
150	0xbead05c0	-0.3379345
151	0x3fdfba82	1.7478793
152	0xbed49e43	-0.41526994
153	0xc03b29f1	-2.924435
154	0x3f4e183e	0.8050574
155	0x3e8c3a45	0.27388206
156	0x3fec12d2	1.8443244
157	0x3ff26f90	1.8940296
158	0x3f0ab278	0.5417857
159	0x3fa3385f	1.2751578
160	0x3dc9479e	0.09828113
161	0x3fd377bc	1.6520915
162	0xc0032bdc	-2.049552
163	0x3ef508ca	0.47858268
164	0xbfbb2834	-1.4621644
165	0xbfa320fe	-1.2744443
166	0xbe835c25	-0.25656238
167	0x3f8c6fa1	1.0971566
168	0xbf73449e	-0.95026577
169	0x3e601972	0.21884707
170	0x3fa56156	1.292033
171	0x3fb59e4b	1.4188932
172	0x3e8e0503	0.277382
173	0xbcf0087f	-0.029300926
174	0x3f0cc53a	0.54988444
175	0xc030cc81	-2.762482
176	0xbf18017a	-0.59377253
177	0xbe2ab323	-0.16669898
178	0x3fad6e65	1.3549315
179	0x3e1f0347	0.15528594
180	0xbf0848f6	-0.5323633
181	0xbe765973	-0.2405756
182	0x3f2f5966	0.68495786
183	0xbd481059	-0.048843715
184	0x3ea96386	0.33083743
185	0x3eb30243	0.34962663
186	0xbf2b3ffa	-0.66894495
187	0xbe5840d4	-0.2111848
188	0xbf12f315	-0.57402164
189	0x3e9bffff	0.30468747
190	0xbf0c57da	-0.5482155
191	0x3e62eb7d	0.22160144
192	0x40129e9b	2.2909305
193	0xbe5903af	-0.21192811
194	0x3edec85a	0.4351223
195	0x3f58f71f	0.84752077
196	0x3f1221e5	0.5708297
197	0x3f28fe55	0.6601308
198	0xbfd6d398	-1.6783323
199	0xbe03bd68	-0.12865222
200	0x3f14449b	0.57917184
201	0xbe7e820b	-0.24854295
202	0x3eea1c28	0.45724607
203	0xbe8c43cf	-0.27395484
204	0x3eec8563	0.46195516
205	0x3ce6035e	0.028077777
206	0x3e6d7c30	0.23191905
207	0xbf2da245	-0.6782573
208	0x3f6b4fa7	0.91918415
209	0x3fa40153	1.2812904
210	0xb9c72958	-0.0003798704
211	0xbf4de861	-0.8043271
212	0x3ea4053c	0.32035244
213	0xbf6c914c	-0.92409205
214	0x3ed082ab	0.40724692
215	0xbf7f16dc	-0.99644256
216	0xbddef290	-0.10886109
217	0x3ff51b34	1.9148927
218	0xbf389dd7	-0.72115844
219	0x3fa038e6	1.2517364
220	0x3e8e4699	0.27788237
221	0xbf58fda6	-0.84762037
222	0x3f971148	1.1802149
223	0xbd404cc2	-0.046948202
224	0x3d8b6abb	0.068074666
225	0xbfb8c428	-1.4434862
226	0x3f06b34a	0.52617323
227	0x3ecca6c2	0.39970976
228	0xbfca4384	-1.5801854
229	0x3fcd1903	1.6023258
230	0x3eed4dc1	0.46348384
231	0x3e2cb106	0.16864404
232	0xbeb2d901	-0.34931186
233	0xbfaad950	-1.3347569
234	0xbea1881d	-0.3154916
235	0xc097550b	-4.729131
236	0xbf3559a1	-0.7083989
237	0x3e24b1cc	0.16083449
238	0xbfd22f2f	-1.6420649
239	0xbfb8e33e	-1.4444349
240	0x3e4af0c2	0.19818404
241	0xbed12a20	-0.4085245
242	0xbf7ca8bc	-0.9869497
243	0x3f0d1889	0.5511556
244	0xbf9adb03	-1.2098087
245	0xbf190bf9	-0.59783894
246	0x3f51ec5a	0.8200127
247	0x3ee52a35	0.44758764
248	0x3f8abe51	1.083933
249	0xbd338ca2	-0.04383529
250	0x3f74e9c7	0.95669216
251	0x3fface95	1.9594294
252	0x3f9b1fbb	1.2119058
253	0xbe113be9	-0.1418301
254	0x3ee6d38c	0.45083272
255	0x3e17c99c	0.14823002

fc2.bias f4 [64]
0	0xc092802c	-4.578146
1	0xc1105247	-9.020087
2	0x411d56a2	9.833651
3	0x407c49f6	3.9420142
4	0xc09af01a	-4.8418093
5	0x4021a4b4	2.5256777
6	0xc02b0b8b	-2.6725795
7	0x3e4ea0c6	0.20178518
8	0x3fa81a6e	1.3133066
9	0xc0131767	-2.2983034
10	0xc07a7005	-3.9130871
11	0x3f4719b2	0.7777358
12	0x40ede877	7.434627
13	0x4158d5a7	13.552161
14	0xc0a07a46	-5.014926
15	0x41304c5b	11.018641
16	0xc064deec	-3.576106
17	0x3f4bd2b8	0.79618406
18	0xbf505c16	-0.8139051
19	0x4171a362	15.102388
20	0x418cf949	17.621721
21	0xc033deb4	-2.8104677
22	0xc0448549	-3.070635
23	0x413c7ecd	11.780957
24	0x4109b66a	8.607035
25	0xc0d0ed57	-6.528972
26	0x41633ff6	14.203115
27	0xbeb251c0	-0.34827995
28	0xc02778a0	-2.6167374
29	0x41537902	13.217043
30	0xbf0d0f83	-0.55101794
31	0xc0a8de8c	-5.2771664
32	0xc031e5b0	-2.779644
33	0x3f6dda1d	0.9291094
34	0x3ff6d150	1.9282627
35	0x40b63423	5.6938643
36	0xc08b2898	-4.3487053
37	0xc034c484	-2.8244944
38	0x40f4d0ac	7.6504726
39	0xc0387bb6	-2.8825507
40	0xc0a40bb9	-5.126431
41	0xbf8be320	-1.0928688
42	0x40621bb4	3.5329409
43	0x40cc9ac2	6.3938913
44	0xc00c36f0	-2.190853
45	0xc136a02d	-11.414105
46	0x3f6329ff	0.88735956
47	0xbfa2a9fb	-1.2708124
48	0xc070fbc1	-3.7653658
49	0x3fcca8ae	1.5988977
50	0xbf80d3ed	-1.0064675
51	0xc087468b	-4.227361
52	0x40b434be	5.6314383
53	0xc0ded722	-6.9637613
54	0xc030a4fa	-2.7600694
55	0xc0c619d9	-6.190655
56	0xc0941466	-4.62749
57	0xbf311683	-0.69174975
58	0xbfac41d1	-1.3457586
59	0xbf004ad3	-0.5011417
60	0x407f857e	3.9925227
61	0x3f74786d	0.95496255
62	0x4093f4f9	4.623654
63	0xc004e4c7	-2.0764635

fc3.weight f4 [64, 64]
0	0xc050f38c	-3.264865
1	0x3f42432f	0.75883764
2	0xbf989cc0	-1.1922836
3	0xc027065c	-2.6097631
4	0x3d0996ec	0.033591196
5	0x3fee6d7d	1.8627163
6	0x3f8eeffe	1.116699
7	0xbdb57f7a	-0.08862205
8	0xc03c1996	-2.9390616
9	0xc0590b5c	-3.3913183
10	0xc05cca87	-3.4498613
11	0xc092106b	-4.564504
12	0x3f497172	0.7868873
13	0xc0ed4439	-7.414578
14	0xbe1d9cee	-0.15391895
15	0xbd9f9dbe	-0.07793759
16	0x3ffad95f	1.9597586
17	0x3d312b9c	0.04325448
18	0xc0a232b1	-5.068688
19	0x3ff06b1a	1.8782685
20	0xbef97c2b	-0.48727545
21	0xc00963a8	-2.1467075
22	0xc0c3e75f	-6.1219935
23	0xc00105bd	-2.0159752
24	0x3ff94650	1.9474583
25	0xbffe8ac0	-1.9886093
26	0xc031b662	-2.7767568
27	0xc0786b01	-3.881531
28	0x3f28054f	0.656331
29	0xbfe2ca79	-1.771804
30	0x3fa5ff5b	1.2968553
31	0x3f394653	0.7237293
32	0x3f350c6f	0.707221
33	0xc0780bfd	-3.8757317
34	0xbe527d7c	-0.20555681
35	0xc0938c9f	-4.6109157
36	0xbffa91e4	-1.9575772
37	0xbd705d9f	-0.058683034
38	0xbee271de	-0.442275
39	0xc0106c8f	-2.256626
40	0xbebf5b2b	-0.37374243
41	0xbe9aa988	-0.30207467
42	0x3fe5bb8a	1.7947857
43	0xbe9db655	-0.3080317
44	0x401dce56	2.4657187
45	0xc0118548	-2.2737598
46	0xbfbe965f	-1.488964
47	0xc0978c78	-4.735897
48	0x3d9e46ed	0.07728372
49	0xbfbfd335	-1.498633
50	0xbf5cb3f4	-0.86212087
51	0xbf7feb78	-0.9996867
52	0x3ef2d5ab	0.4742864
53	0xbf1cd269	-0.6125856
54	0xbf36de69	-0.7143312
55	0x3d10f188	0.035386592
56	0x3ef915b3	0.48649368
57	0xbea6ddcd	-0.32591096
58	0xbe5a0043	-0.21289162
59	0xbff7ea62	-1.9368403
60	0x3d4562b1	0.048189823
61	0xbc6815ae	-0.014165325
62	0x3f74322d	0.9538906
63	0x3f4ebae3	0.80753917
64	0xc05cbe88	-3.449129
65	0x3dc7ae0e	0.09749995
66	0xbec866dd	-0.39140978
67	0x3d78b156	0.060715996
68	0xbfa172e6	-1.2613189
69	0x401c4bbe	2.442123
70	0x4098cbd5	4.774882
71	0xbdb51794	-0.08842388
72	0x3e7db592	0.24776295
73	0x3e43bdcb	0.19115369
74	0xbf10ac16	-0.5651258
75	0x3f91161e	1.1334875
76	0xc02ada4d	-2.669574
77	0xbfe76ced	-1.8080117
78	0xbfea2b59	-1.8294479
79	0xbede69e2	-0.43440157
80	0xc043e1f6	-3.0606666
81	0x3ee9a82c	0.45636117
82	0xc0523544	-3.284501
83	0xc00af8a1	-2.171425
84	0xbf2b5732	-0.66929924
85	0x3fbc1dd0	1.4696598
86	0xc083f1e5	-4.123278
87	0x3f37fa7e	0.71866596
88	0xc00386b4	-2.0550966
89	0x3e87de22	0.2653666
90	0x402253f8	2.536375
91	0x3fe86840	1.8156815
92	0x3f411a3f	0.75430673
93	0xbfc570a6	-1.5425003
94	0x3f6ab366	0.9167999
95	0x3f096365	0.5366729
96	0xc00b5475	-2.1770298
97	0x4006e2fa	2.1076035
98	0x3f005863	0.5013487
99	0x3f97809b	1.1836122
100	0x3f3ecb60	0.74529076
101	0x3f2b5303	0.6692354
102	0x3d8129ce	0.06306802
103	0xbf9ded0d	-1.2337967
104	0xbfa7c87e	-1.310806
105	0xbdec0d26	-0.11525945
106	0x3de5128c	0.11185178
107	0x3eef78e7	0.4677193
108	0x403b8009	2.9296896
109	0x3cb9245e	0.022600349
110	0x3fe26d52	1.7689612
111	0xbfb03f28	-1.3769274
112	0xbba04fb3	-0.0048923134
113	0xc00a7194	-2.1631823
114	0xbf111c14	-0.5668347
115	0xbe995e82	-0.29954916
116	0x3f8fac8d	1.1224533
117	0xbfd3a5db	-1.653499
118	0x3f25c2e9	0.64750534
119	0x4021855e	2.523765
120	0x3fde703e	1.7378004
121	0x3f741e49	0.9535871
122	0x3ecc781b	0.39935383
123	0x3f801e1b	1.0009187
124	0xbf5aef22	-0.8552114
125	0xbeac6fb5	-0.33678976
126	0xbf9f3aa5	-1.2439772
127	0x3f202ca6	0.6256813
128	0xc002ff0c	-2.0468168
129	0xbe6ca1f1	-0.2310865
130	0xbfa0c2ef	-1.2559489
131	0xbf748593	-0.9551632
132	0x3f0f8a1a	0.560701
133	0xc041029c	-3.0157843
134	0x403a5950	2.9117012
135	0xbc76874b	-0.015046905
136	0xc03e0e53	-2.9696243
137	0xbea5afa3	-0.32360563
138	0xbf955159	-1.166545
139	0xbf94393c	-1.1579967
140	0xc0419719	-3.0248473
141	0xbf88b237	-1.0679387
142	0x3e7cacb2	0.24675253
143	0xc0496028	-3.146494
144	0x3f0b8af5	0.54508907
145	0xbff090dc	-1.8794208
146	0xc0a4ce63	-5.1501937
147	0xbf8f276d	-1.1183907
148	0x3f35d05f	0.71021074
149	0xbfae2da0	-1.3607674
150	0x3faa1c69	1.328992
151	0x3ea6a2bf	0.3254604
152	0xbfcab59f	-1.5836676
153	0xbf042354	-0.51616406
154	0xc03a3b3d	-2.9098656
155	0x3f6b023b	0.9180028
156	0x3e596068	0.21228182
157	0xc039d87d	-2.9038384
158	0xc082c3f0	-4.086418
159	0xbf6263f1	-0.8843375
160	0xbf1c1a93	-0.6097805
161	0x3fdf9c33	1.7469543
162	0xbfd66834	-1.675055
163	0xbf094739	-0.536243
164	0xbdc17196	-0.09445493
165	0x3e8500e7	0.2597725
166	0xc076ea71	-3.8580592
167	0xbfe7c12d	-1.8105828
168	0x3fcc40e6	1.5957305
169	0xbeabf005	-0.33581558
170	0xbefbecb4	-0.49204028
171	0x3f27708f	0.65406126
172	0xbffb7451	-1.9644872
173	0x3f87df41	1.0615007
174	0x4046e492	3.1077008
175	0xbfb01cba	-1.3758767
176	0xbf924f08	-1.1430368
177	0xc0417779	-3.022917
178	0x3fdcd3b6	1.7252109
179	0xc07ea84e	-3.9790225
180	0xc08dc2fb	-4.4300513
181	0x3f2da3c9	0.6782804
182	0xbe9de4c2	-0.3083859
183	0xbfaa61ae	-1.331106
184	0x3dafdd32	0.085871115
185	0xbfb3077b	-1.3986658
186	0xbfdf05fd	-1.7423702
187	0x3e4886e5	0.19582708
188	0x3f4b1d0b	0.7934119
189	0xbf84c30e	-1.0372026
190	0xbe8c3c4c	-0.27389753
191	0x3f426992	0.7594234
192	0xbf9a9c14	-1.2078881
193	0xbf84e83a	-1.038337
194	0xc001bf8a	-2.0273156
195	0xbf054ab6	-0.52067125
196	0xbcb4d92f	-0.022076217
197	0xbf1ea47f	-0.6196975
198	0x3e3d7abf	0.18503855
199	0x3caf4af8	0.021398053
200	0x3ea91be4	0.3302909
201	0x3e1012bf	0.14069651
202	0xbeba7024	-0.36413682
203	0xbe0346a2	-0.12819913
204	0xbe841393	-0.25796184
205	0xbf3ec572	-0.7452003
206	0xbf077b0d	-0.52922136
207	0xbfe0fd71	-1.7577344
208	0x3d9e423d	0.07727478
209	0xc0100862	-2.2505116
210	0x3e57c0a4	0.2106958
211	0x3f88c73d	1.0685803
212	0xbfb1b7e7	-1.3884248
213	0x3f7a5fc1	0.9780236
214	0xbf7984bf	-0.9746818
215	0xbf17f5f9	-0.593597
216	0xbde5e535	-0.112253584
217	0xbf6215f3	-0.8831474
218	0xbf7f2624	-0.9966757
219	0xbf3524f8	-0.70759535
220	0xbf8a16c8	-1.0788202
221	0x3ec28e7e	0.37999338
222	0xbf1839a6	-0.59462965
223	0x3f44e83b	0.76916856
224	0xbf85835e	-1.0430715
225	0x3f9b13f0	1.211546
226	0x3f49aef0	0.7878256
227	0x3e816af0	0.252769
228	0xbecc7c1f	-0.39938447
229	0x3fbdec28	1.4837694
230	0xbfb666a4	-1.4250073
231	0xbf3b146a	-0.73078024
232	0xbed540c2	-0.4165097
233	0xbf83358d	-1.0250717
234	0xbf9e3018	-1.2358427
235	0xbfadf7bc	-1.3591228
236	0xbe40d1fb	-0.18830101
237	0xbeb3a07b	-0.35083374
238	0x3f5e988d	0.86951524
239	0xbfc24506	-1.5177314
240	0xc01a1b8b	-2.407931
241	0xbd39b4d6	-0.045338474
242	0xbf4fe97f	-0.8121566
243	0xbdf384c6	-0.11890559
244	0xbef951c4	-0.48695195
245	0xbeca65ae	-0.395307
246	0x3eff6bec	0.49887025
247	0x3e3f1503	0.18660359
248	0xbe9de6f1	-0.30840257
249	0x3f4791dc	0.7795694
250	0x3f66b24b	0.90115803
251	0x3ec739fc	0.38911426
252	0xbfa25539	-1.2682258
253	0xbf10e803	-0.5660402
254	0xbe733319	-0.23749961
255	0x3cd13942	0.025539998

fc3.bias f4 [64]
0	0x402d25dd	2.705436
1	0x3fb80e12	1.4379294
2	0x3f9b5be8	1.2137423
3	0xc0a0db22	-5.0267496
4	0x41727db0	15.155685
5	0x403d865a	2.9613252
6	0xc080e647	-4.02811
7	0x4190a67c	18.081291
8	0xc0b58583	-5.672548
9	0x40287cbb	2.632613
10	0x40718ad4	3.7740984
11	0x3fd8152b	1.688146
12	0xbf5c7023	-0.8610861
13	0xbfba3d51	-1.4549962
14	0x418d5ef5	17.671366
15	0xc119b4ad	-9.60661
16	0x3fc7890a	1.5588696
17	0x4135beec	11.359112
18	0x4157d7c7	13.49018
19	0xbff2a49b	-1.8956484
20	0xbf1ea505	-0.6197055
21	0x405a1a77	3.4078653
22	0xbfc973ca	-1.5738461
23	0xc08bcd66	-4.368823
24	0xbf906a66	-1.128247
25	0xbf69d734	-0.91344
26	0x3ef5344f	0.4789147
27	0x4122db8c	10.1786
28	0xc0071aba	-2.1110063
29	0x41477160	12.465179
30	0xbf4a3cb2	-0.78998864
31	0xc01ab03c	-2.4170065
32	0x3f1e8ac6	0.619305
33	0x402e4b21	2.7233355
34	0x40a7d46d	5.244681
35	0x41866465	16.79902
36	0x3e3529e9	0.17691769
37	0xbf10d0c8	-0.56568575
38	0xc06cba16	-3.6988578
39	0xc0031c50	-2.048603
40	0x4046e497	3.107702
41	0xbeb39470	-0.35074186
42	0xc0830681	-4.094544
43	0xbfed8fd7	-1.8559521
44	0x3f5a4be1	0.8527203
45	0x40933cfd	4.601195
46	0xc09a990f	-4.831184
47	0xc021403f	-2.5195463
48	0xc02846ac	-2.6293135
49	0x400e74ec	2.2258863
50	0xbff1f749	-1.890359
51	0xc0210470	-2.5158958
52	0xbe3fcb2b	-0.18729846
53	0x3efc092f	0.49225757
54	0xc1060f7f	-8.378783
55	0xbb10b376	-0.0022079623
56	0x3d329454	0.043598488
57	0xc08b51db	-4.353742
58	0x3fc3e0e8	1.5303011
59	0xbefd897b	-0.49518952
60	0xbfa0781a	-1.2536652
61	0xbd085df6	-0.033292733
62	0xc0477374	-3.1164217
63	0xbe502d2b	-0.2032973

q_out.weight f4 [1, 64]
0	0xbe3f8912	-0.18704632
1	0xbe6ab0b1	-0.22918965
2	0x3ea78c3e	0.32724184
3	0xbd22e833	-0.039772224
4	0x3d164387	0.036685493
5	0x3e4ed11b	0.20196955
6	0xbc9d6b48	-0.019216195
7	0x3e318ad1	0.1733811
8	0xbded3a87	-0.11583429
9	0xbe815740	-0.2526188
10	0x3f25979a	0.6468445
11	0xbd38ce17	-0.045118418
12	0xbf889c50	-1.0672703
13	0x3c9d9fc4	0.019241221
14	0x3eeafe3e	0.45897096
15	0xbf128019	-0.5722671
16	0xbe9ad549	-0.3024085
17	0x3d307aff	0.04308605
18	0x3ed68911	0.41901448
19	0x3f34403c	0.70410514
20	0x3c471534	0.012151051
21	0x3df5e4dd	0.12006543
22	0xbeeadb85	-0.45870605
23	0xbe1d7e33	-0.15380172
24	0xbfc7a394	-1.5596795
25	0xbe0ac7ab	-0.1355273
26	0xbdab4f0c	-0.08364686
27	0x3df86205	0.12128071
28	0x3f3d4b35	0.7394288
29	0x3e0052c8	0.12531579
30	0x3e76cb05	0.24100883
31	0xbeb89229	-0.3604901
32	0x3fcba2ef	1.5909098
33	0xbd7195ca	-0.05898074
34	0x3e861e27	0.2619488
35	0x3f7b3de1	0.98141295
36	0xbe9a1199	-0.3009155
37	0xbf63d4c8	-0.88996553
38	0xbde572d2	-0.11203541
39	0xbed5d02d	-0.41760388
40	0xbe63b9ec	-0.22238892
41	0xbcee2a75	-0.02907298
42	0x3cb7e3b9	0.022447454
43	0x3cc45508	0.023966327
44	0x3c6f132f	0.014591976
45	0x3ea81b92	0.32833534
46	0xbdcc6853	-0.09980836
47	0xbe60b8e6	-0.21945533
48	0xbebdea65	-0.3709289
49	0xbddc5c1f	-0.10759758
50	0x3bce0dbf	0.0062882598
51	0xbf09fc4a	-0.5390059
52	0x3cbefd58	0.023314163
53	0xbb42328f	-0.0029632186
54	0x3e89737b	0.26845917
55	0x3da2bcf8	0.07946199
56	0x3d995ee2	0.074888006
57	0x3e22d607	0.15901957
58	0xbc90e3e9	-0.017686801
59	0xbf3b5241	-0.73172385
60	0x3f3fb970	0.7489233
61	0xbe014cce	-0.12626955
62	0xbc2ff1e2	-0.010738822
63	0x3d0b3492	0.03398568
