mpeEnvs/model/simple_tag/agent_2/1_actor_params.pkl (torch, 41167 bytes, 8 tensors)

fc1.weight f4 [64, 16]
0	0xbebed711	-0.37273458
1	0xbf1c5a6e	-0.61075485
2	0x3e57da36	0.21079335
3	0x3f2c7081	0.6735917
4	0xbe276e3c	-0.16350645
5	0x3f8cc6db	1.0998186
6	0x3ecb00aa	0.39648944
7	0xbef2bd91	-0.47410253
8	0x3feba94f	1.8411044
9	0x400262e6	2.0372863
10	0x3f6d49c5	0.9269069
11	0x3e086e27	0.1332327
12	0x3faee704	1.366425
13	0x40014a92	2.0201764
14	0x3db94479	0.09046263
15	0x3da94d63	0.082667135
16	0x3e79c8fb	0.24393074
17	0xbeb77099	-0.35828093
18	0xbec2617b	-0.37964997
19	0x3e000e2f	0.1250541
20	0x3f1cf2dc	0.61308074
21	0x3f1d8ae1	0.6154004
22	0xbfafabcd	-1.3724304
23	0xbe72ba59	-0.23703898
24	0x3ea29ec5	0.31761757
25	0x4010c69d	2.2621224
26	0x3e3dff15	0.18554337
27	0x3f3495ee	0.70541275
28	0x3e2c5747	0.16830169
29	0x3faa95de	1.3326986
30	0x3f00ea73	0.5035774
31	0xbe0b3ae4	-0.13596684
32	0x3e217e71	0.1577089
33	0x3e75d169	0.24005665
34	0xbf249fc0	-0.6430626
35	0x3e12e425	0.14344843
36	0xbed8d896	-0.42352742
37	0x3d7b899c	0.06141053
38	0xbe67373e	-0.22579667
39	0x3d81cb28	0.06337577
40	0x3f6558b2	0.89588463
41	0x3edf43cf	0.4360642
42	0xbb76b6ab	-0.00376455
43	0x3e33cbcc	0.17558211
44	0xc02f23c2	-2.7365575
45	0xc01ed3d3	-2.4816787
46	0xbc20fc8e	-0.009825839
47	0xbdf51d34	-0.11968461
48	0x3e8dc213	0.2768713
49	0xbee88e88	-0.45421243
50	0xbe03ac29	-0.12858643
51	0x3eccd166	0.40003508
52	0x3ebfceae	0.37462372
53	0x3e8e7cd3	0.27829608
54	0xbeda007d	-0.42578498
55	0x3c650b29	0.013979712
56	0x4015ad55	2.3387043
57	0xbec2dec4	-0.38060582
58	0x3fa57c03	1.292847
59	0xbe748b3d	-0.2388124
60	0xbf17b8d6	-0.5926641
61	0x3fb2a50c	1.3956618
62	0xbf15e3aa	-0.5855051
63	0x3e28a5f6	0.16469559
64	0x3e24628b	0.16053216
65	0x39692b73	0.00022236798
66	0xbddaecae	-0.10689674
67	0x3baddbc1	0.0053057377
68	0xbd7d9cac	-0.061916992
69	0x3b9faf79	0.004873213
70	0xbd87d49b	-0.06632348
71	0x3cdf39fe	0.027249333
72	0x3f720c06	0.94549596
73	0x3ea4e61a	0.32206804
74	0xc0170561	-2.3597033
75	0xc04846bc	-3.1293173
76	0x3fae66e3	1.3625149
77	0x3f9de06a	1.2334111
78	0xbe0eb6f4	-0.13936979
79	0xbaadba45	-0.0013254365
80	0x3e6f7f93	0.2338851
81	0x3da1ce0d	0.07900629
82	0x3ec25c1c	0.379609
83	0x3e6de725	0.23232706
84	0x3e1937e9	0.14962734
85	0x3e088e74	0.13335592
86	0x3e4c9b0e	0.19981024
87	0x3dc194ae	0.094521865
88	0xc09555c2	-4.6667185
89	0x403d19b7	2.9546945
90	0x3e0e3a11	0.13889338
91	0x3f320872	0.69544137
92	0xbf957908	-1.1677561
93	0x3eb852ba	0.36000615
94	0x3eb416af	0.35173556
95	0xbf8073b1	-1.0035306
96	0x3e6557d0	0.22396779
97	0x3dc0d685	0.09415916
98	0x3f767e0a	0.9628607
99	0x3f3f14f8	0.7464137
100	0x3f2480bf	0.6425895
101	0x3e430dbf	0.19048212
102	0x3e88a4aa	0.2668813
103	0x3ee7cf7d	0.45275488
104	0xbe35844f	-0.17726253
105	0x3f5e8583	0.8692247
106	0x3dc6a110	0.09698689
107	0x3e57f3f7	0.21089159
108	0xbe750cb2	-0.23930624
109	0xc045e9c5	-3.0923932
110	0xbe3e808c	-0.18603724
111	0x3f005df7	0.5014338
112	0x3d961aab	0.07329305
113	0x3e7deea3	0.24798064
114	0x3db45022	0.088043466
115	0xbf231493	-0.6370327
116	0x3e9bf91e	0.304635
117	0xbf183878	-0.59461164
118	0xbe82b52f	-0.25528857
119	0xbd3f523f	-0.046709295
120	0x3e942809	0.28936794
121	0xbc201628	-0.009770907
122	0xbd59f550	-0.053212464
123	0xbf3b4fe1	-0.7316876
124	0x3fd76238	1.6826849
125	0xc066590d	-3.5991852
126	0xbe14b783	-0.14523129
127	0xbeb42eb0	-0.3519187
128	0xbf3fdf8e	-0.7495049
129	0x3ea11b29	0.31466034
130	0xbe00ed63	-0.12590556
131	0x3f17348e	0.5906457
132	0xbd5b89a2	-0.053598054
133	0xbecc949b	-0.39957127
134	0xbbd51b9e	-0.0065035364
135	0x3f4bc4cd	0.7959717
136	0x3e9c2e3a	0.30504018
137	0xbf94a76c	-1.1613593
138	0x3eaa59ea	0.33271724
139	0xbfdb8bdd	-1.7152058
140	0x3f36aa86	0.7135395
141	0xc020227d	-2.502105
142	0x3fad9baa	1.356313
143	0xbdb120a0	-0.08648801
144	0xbd5b98c6	-0.053612493
145	0xbd9ad1ad	-0.07559524
146	0xbe982836	-0.2971818
147	0x3f12d93d	0.5736273
148	0xbf61c258	-0.8818717
149	0xbe02714f	-0.12738536
150	0x3f249552	0.64290345
151	0x3f346534	0.70466924
152	0x3db3722f	0.08762013
153	0xbf926fa7	-1.1440324
154	0xbf495a8a	-0.78653777
155	0x3f51f886	0.8201984
156	0xbfcd0da0	-1.6019783
157	0x40089a84	2.134431
158	0x3e13d1d9	0.1443552
159	0xbee4f090	-0.44714785
160	0x3d446a6d	0.047953058
161	0x3e8b4daa	0.2720769
162	0x3f288caf	0.65839666
163	0x3d90a168	0.07062036
164	0x3f47c74b	0.7803847
165	0xbf1fc4f1	-0.62409884
166	0xbdbe32a5	-0.092870034
167	0x3f257475	0.64630824
168	0xbe8ae233	-0.271257
169	0x3ff3a86a	1.9035771
170	0xbf204ea8	-0.6262002
171	0x3f1f672d	0.6226681
172	0x400abf0e	2.167911
173	0x405ad88a	3.4194665
174	0xbf1379d9	-0.576078
175	0x3eda6f11	0.42662862
176	0x3ea6f99f	0.3261232
177	0x3d78160c	0.0605679
178	0x3ed06eaf	0.40709445
179	0x3e7d8b6a	0.24760213
180	0x3da1c597	0.078990154
181	0x3dffff7f	0.12499904
182	0x3ea59f99	0.32348326
183	0x3df32b9d	0.11873553
184	0xbff60af2	-1.922209
185	0xbf752d94	-0.9577267
186	0xbfc8b1b2	-1.5679228
187	0xbf90a36f	-1.1299876
188	0x4002143a	2.0324845
189	0x4039a135	2.9004643
190	0x3e4ed8eb	0.20199935
191	0x3e46b944	0.1940661
192	0xbdf1302f	-0.117767684
193	0xbc5a2842	-0.013315262
194	0x3ea465d3	0.32108936
195	0xbf14ecf3	-0.58174056
196	0xbd0d6d71	-0.0345282
197	0x3c107a7a	0.008818263
198	0x3ec1f000	0.37878418
199	0xbf0a4af1	-0.540206
200	0xbe8a24b5	-0.2698113
201	0x3ed56273	0.41676673
202	0x3f912df4	1.1342149
203	0xbfb243f4	-1.3926988
204	0xbf9a60aa	-1.206075
205	0xbfdfb748	-1.7477808
206	0xbf486e27	-0.7829308
207	0xbd1ff775	-0.039054353
208	0x3ddec35d	0.10877106
209	0x3cbcc366	0.023042392
210	0x3c47ae8a	0.012187609
211	0xbd55567b	-0.052084427
212	0x3eaaae3c	0.33336055
213	0xbf4f7fb0	-0.8105421
214	0xbe92cf9a	-0.28674012
215	0x3f384f80	0.7199631
216	0xbfcbf388	-1.5933695
217	0xbf8ade31	-1.0849057
218	0xbf94af51	-1.1616002
219	0xbf6a513f	-0.9153022
220	0xbfd56f70	-1.6674633
221	0x3fc855b3	1.5651153
222	0x3e593e92	0.21215275
223	0x3dc496b6	0.09599058
224	0x3e9f2e01	0.31089786
225	0x3f2fddac	0.6869762
226	0x3f4f4768	0.8096833
227	0x3e3f019d	0.18652959
228	0xbe4fbe56	-0.20287451
229	0xbdffe4a8	-0.124947846
230	0x3f677400	0.90411377
231	0x3e4fdb55	0.20298512
232	0xbf83a900	-1.028595
233	0x3e538218	0.20655096
234	0xbf9ddbef	-1.2332743
235	0x3f31d5ad	0.6946667
236	0xbfd656e4	-1.6745267
237	0xbed3dc0a	-0.41378814
238	0x3d86eaa1	0.06587721
239	0xbefb4445	-0.49075523
240	0xbf55eadc	-0.8356149
241	0xbc4f022c	-0.012634795
242	0xbd87c88b	-0.066300474
243	0xbef581f1	-0.479507
244	0xbf2d0425	-0.6758445
245	0x3e0b6e84	0.13616377
246	0x3f319c54	0.6937916
247	0xbf08fb10	-0.5350809
248	0x3c8b01c1	0.01696861
249	0x3e47badf	0.1950488
250	0x3edcbadf	0.4311132
251	0x3fc7c15f	1.5605887
252	0xc00f2449	-2.2365897
253	0x3fe9a8b0	1.8254604
254	0xbf36ebd9	-0.71453625
255	0x3e320f7d	0.17388721

fc1.bias f4 [64]
0	0xbf680c7b	-0.90644044
1	0xbf3e51ac	-0.7434337
2	0x3f858ea2	1.0434153
3	0x3f483f52	0.7822162
4	0x3e2896a2	0.16463712
5	0x3dbc450d	0.09192858
6	0x3f6dca5c	0.928869
7	0x3f9fbf3b	1.2480234
8	0xbd57c283	-0.052675735
9	0x3f827a2c	1.0193534
10	0x3f651dde	0.894987
11	0x3f1d6336	0.6147951
12	0xbea4f57e	-0.32218546
13	0x3f0554d3	0.52082556
14	0xbfd5592b	-1.6667837
15	0x3ed490e2	0.41516787
16	0x3fad9be9	1.3563205
17	0xbcef52f9	-0.02921437
18	0xbf5bd95e	-0.8587855
19	0x3fa5d230	1.2954769
20	0x3f134a6e	0.57535446
21	0x3e161116	0.14654955
22	0xbef0d925	-0.47040668
23	0x3ea29c14	0.31759703
24	0x3e1cb6b7	0.15304075
25	0xbd188457	-0.037235584
26	0x3eeadc1d	0.45871058
27	0x3fb13af6	1.3846118
28	0x3fc90be0	1.5706749
29	0xbdaaa205	-0.08331684
30	0x3fbfa374	1.4971757
31	0x3fc12f75	1.5092608
32	0xbe039b38	-0.1285218
33	0xbf52ca10	-0.8233957
34	0x3de118b9	0.109910436
35	0xbe8497fd	-0.25897208
36	0x3f863746	1.0485618
37	0xbfe515be	-1.789726
38	0x3ebec39e	0.3725862
39	0x3fc2ed57	1.522868
40	0x3f62e1b1	0.8862563
41	0xbab995f7	-0.0014159073
42	0x3f57e1e5	0.8432906
43	0xbecd5851	-0.40106443
44	0xbef9b9fc	-0.48774707
45	0xbf0ef4b4	-0.5584214
46	0xbefd7d01	-0.49509433
47	0x3f8031fd	1.0015255
48	0x3f6816e7	0.90659946
49	0xbe2e40ee	-0.17016956
50	0x3fb83c16	1.4393337
51	0x3fbd5cb2	1.4793913
52	0x3fb8de4d	1.4442841
53	0x3db5dcee	0.088800296
54	0xbf22b0c2	-0.6355096
55	0x3f81be3f	1.0136184
56	0x3f5e5de6	0.8686203
57	0x3da1d559	0.07902021
58	0x3fc9284b	1.5715421
59	0x3f8e44d8	1.111476
60	0x3fb13321	1.3843728
61	0xbe0e53d9	-0.13899173
62	0xbf086615	-0.53280765
63	0xbf2ee2bf	-0.6831474

fc2.weight f4 [64, 64]
0	0x3f02ffa0	0.511713
1	0xbe872b6f	-0.26400325
2	0x3f32cbef	0.6984243
3	0xbf564588	-0.83699846
4	0x3e1e35a2	0.15450147
5	0xbf42fc22	-0.76165974
6	0xbba6b373	-0.00508731
7	0xbfb3e8fb	-1.4055475
8	0x3d5730cc	0.05253677
9	0x3f029fb3	0.5102493
10	0xc00d1685	-2.2044995
11	0xbe65b07b	-0.22430603
12	0x3f12dfa5	0.57372504
13	0x3dcc57a2	0.09977652
14	0x3ee9c3e9	0.4565728
15	0xbe9e77d0	-0.30950785
16	0xbfb2951d	-1.3951756
17	0xbf5f52b3	-0.87235564
18	0xbe683c65	-0.22679289
19	0xbfe78faf	-1.8090724
20	0xbf833331	-1.0249997
21	0xbf20e21d	-0.6284502
22	0xbf24c616	-0.64364755
23	0xbf59421f	-0.8486652
24	0xbf8a7c1a	-1.0819123
25	0x3e030c1c	0.12797588
26	0x3e06350a	0.1310617
27	0xbec4e0da	-0.38452798
28	0x3f148d3d	0.5802801
29	0x3ec1f841	0.37884715
30	0xbf67c438	-0.9053378
31	0xbf8142f9	-1.0098563
32	0xbea0f30b	-0.31435427
33	0x3f2bfd0a	0.6718298
34	0xbedf4614	-0.43608153
35	0x3d1cd5bd	0.038289774
36	0xbe4439e7	-0.19162713
37	0xbe053169	-0.1300713
38	0xbeaea544	-0.34110463
39	0xbf21c18f	-0.6318597
40	0x3f8e85e1	1.1134607
41	0x3e6e9ee8	0.23302805
42	0xbf598577	-0.84969276
43	0x3edb7433	0.4286209
44	0x3c96e39e	0.018419083
45	0xbc301f56	-0.010749659
46	0x3db153f7	0.08658593
47	0xbf8de678	-1.1085958
48	0x3e64fc06	0.22361764
49	0x3dd3a889	0.1033488
50	0xbf0ed62e	-0.5579556
51	0xbf0e1b30	-0.55510235
52	0xbef5dcc6	-0.4802
53	0x3cb79693	0.022410667
54	0x3e485324	0.19562966
55	0x3dfd410e	0.12365924
56	0x3f1b3590	0.60628605
57	0x3f13be0d	0.5771187
58	0xbd5fb9fd	-0.05462073
59	0xbeb45685	-0.3522226
60	0xbf9313c7	-1.149041
61	0x3f50bb0c	0.8153541
62	0xbecf8736	-0.40532845
63	0x3d4f2090	0.050568163
64	0xbef2bf8d	-0.47411767
65	0xbf99dced	-1.2020546
66	0xbe262235	-0.16223986
67	0x3ec69109	0.38782528
68	0xbebd446f	-0.36966273
69	0x3f69f46a	0.9138857
70	0x3dbc089f	0.09181332
71	0xbf78bbaa	-0.9716135
72	0x3e3e915f	0.18610142
73	0x3dc32ae5	0.09529666
74	0x3ea3d4e8	0.31998372
75	0x3f0ec7f2	0.5577384
76	0x3e81c0b0	0.2534232
77	0xbde0860e	-0.10963069
78	0x3e3d8916	0.18509325
79	0x3f665060	0.8996639
80	0xbf10b556	-0.56526697
81	0x3eeec28e	0.46632808
82	0xbe3e0f6a	-0.18560567
83	0xbe750be4	-0.23930317
84	0xb9a56fd9	-0.00031554585
85	0xbf1f275a	-0.6216942
86	0x3f0eba1d	0.55752736
87	0x3e6b9379	0.23005475
88	0x3f00f839	0.5037876
89	0xbd941517	-0.07230585
90	0x3faa1cca	1.3290036
91	0x3ebb5e7a	0.36595517
92	0x3eafe304	0.34352887
93	0xbeee157e	-0.46500772
94	0x3f51963a	0.8186985
95	0xbe08f470	-0.13374496
96	0xbfc7b586	-1.5602272
97	0xbf331063	-0.6994688
98	0x3f5b377f	0.85631555
99	0x3ebc86f4	0.3682171
100	0xbee28a21	-0.4424601
101	0x3f49bbd4	0.7880223
102	0xbea11f62	-0.31469256
103	0x3f4daead	0.8034466
104	0x3f98dea5	1.1942946
105	0x3d9396ba	0.07206483
106	0xbf1b9435	-0.6077302
107	0x3f079dbd	0.52975065
108	0x3e16326e	0.14667675
109	0x3ddb4306	0.10706143
110	0x3ecc71cc	0.3993057
111	0xbedb6ec4	-0.42857945
112	0xbf1f03a9	-0.6211496
113	0xbf8ecee9	-1.1156894
114	0x3fa30a42	1.2737505
115	0x3e8655a5	0.26237217
116	0x3f580a10	0.84390354
117	0xbef22423	-0.47293195
118	0xbe055072	-0.13018969
119	0x3f159f82	0.58446515
120	0x3eea794f	0.45795676
121	0x3ed22c41	0.41049388
122	0xbfb3be48	-1.4042444
123	0xbe27dd8c	-0.16393107
124	0x3d1d9bf5	0.03847881
125	0xbf85bd72	-1.0448439
126	0x3debb008	0.11508185
127	0xbf2764ea	-0.6538836
128	0xbd73298c	-0.059365794
129	0x3d7b6e95	0.061384756
130	0xbe5a35ed	-0.21309634
131	0x3e7b6b11	0.24552561
132	0x3ebb4186	0.36573428
133	0xbed8e0d9	-0.42359045
134	0x3ea9d78d	0.33172265
135	0xbf85321e	-1.040592
136	0xbcf26cf1	-0.029592963
137	0x3f59694e	0.8492631
138	0x3f151ad3	0.58244056
139	0x3f426430	0.75934124
140	0xbeab58d6	-0.33466214
141	0x3f9d811e	1.2305028
142	0x3f2b11cc	0.6682403
143	0x3f8b04f4	1.0860887
144	0x3f782b73	0.969413
145	0x3db0b1e9	0.08627684
146	0x3dc050eb	0.09390434
147	0x3e26a204	0.16272742
148	0x3e4cd357	0.20002495
149	0xbf5e6c4f	-0.86884016
150	0x3dcc5eb4	0.09979001
151	0xbf5d4445	-0.86432296
152	0xbec23127	-0.37928125
153	0xbea98b84	-0.33114254
154	0x3fb9311f	1.4468116
155	0x3f762406	0.9614872
156	0x3db40cfa	0.087915376
157	0x3e850a6a	0.25984508
158	0x3eb5af2b	0.35485205
159	0xbf5e5af2	-0.8685752
160	0x3e9c4c3a	0.30526906
161	0x3e2ccf49	0.16875948
162	0xbeee1c27	-0.46505854
163	0xbf618fbd	-0.8810995
164	0xbf6c1c05	-0.92230254
165	0x3f846e7c	1.0346217
166	0xbdd0e921	-0.10200716
167	0x3f9996d4	1.1999154
168	0xbea34738	-0.31890273
169	0x3e2b5d60	0.16734838
170	0xbf84c725	-1.0373274
171	0x3f573c5e	0.8407649
172	0x3ec3f35d	0.3827161
173	0xbe53b473	-0.20674305
174	0xbe2c1231	-0.16803814
175	0x3ebf7a75	0.37398115
176	0xbef03ad4	-0.46919882
177	0xbf01289a	-0.5045258
178	0xbcd6b320	-0.02620846
179	0x3fdbf7b1	1.7184964
180	0xbecf6e0d	-0.4051365
181	0xbbbb4453	-0.005714932
182	0x3daf6ef9	0.08566088
183	0x3f8dbcd1	1.1073247
184	0xbd899c29	-0.06719238
185	0x3e32ab1d	0.17448087
186	0xbd8f8e4b	-0.07009562
187	0x3fa59d5d	1.2938648
188	0x3ef0a119	0.46997908
189	0x3e9cfd4d	0.30662003
190	0xbe7a53ef	-0.2444608
191	0x3ea00dac	0.3126043
192	0xbef14079	-0.471195
193	0xbe59b890	-0.21261811
194	0xbf1795f7	-0.59213203
195	0xbe2fdad2	-0.17173317
196	0xbeae2e72	-0.3401981
197	0x3f8ba5f2	1.0910017
198	0x3ee374b0	0.44424963
199	0x3e82fd2d	0.25583783
200	0x3d7e095c	0.062020645
201	0xbe4737ad	-0.19454832
202	0x3e334fad	0.17510863
203	0x3f5f4dd3	0.87228125
204	0x3f2e4024	0.6806662
205	0x3e575d5d	0.21031709
206	0x3f08f14e	0.534932
207	0xbcfb7f3a	-0.030700315
208	0x3ebc92f2	0.3683086
209	0xbf8149c4	-1.0100636
210	0xbf3492f7	-0.7053675
211	0xbf1559c3	-0.5834009
212	0x3de04f42	0.10952617
213	0xbdb90d5b	-0.090357505
214	0x3e912366	0.2834732
215	0x3f10d5a6	0.56576
216	0x3e7e24e1	0.24818756
217	0x3a28a08b	0.0006432614
218	0xbe0b449e	-0.13600394
219	0xbd9bd0bf	-0.076081745
220	0x3eed68f5	0.46369138
221	0x3d42310a	0.04741005
222	0x3e5ade9b	0.2137398
223	0xbf357b0d	-0.70890886
224	0x3e9d2362	0.30691057
225	0x3e558ec5	0.20855244
226	0x3f01c22a	0.50686896
227	0x3e872cd5	0.26401392
228	0xbf293555	-0.66097003
229	0x3f72a132	0.94777215
230	0x3ead6331	0.3386474
231	0x3f8471ea	1.0347264
232	0x3f542aa7	0.8287758
233	0x3d0df5cc	0.03465824
234	0xbf38ba57	-0.7215933
235	0xbe249e0c	-0.16075915
236	0x3cdad85f	0.026714502
237	0xbf48ef53	-0.7849018
238	0x3de1c110	0.11023152
239	0x3f266dd3	0.6501133
240	0xbf1a8853	-0.60364264
241	0xbf4ac0db	-0.79200524
242	0x3f26072c	0.64854693
243	0xbecd067b	-0.40044007
244	0x3f707b17	0.9393782
245	0x3f36c033	0.7138702
246	0x3f787856	0.9705862
247	0x3f9aa011	1.2080098
248	0xbe45a509	-0.19301237
249	0xbef3490f	-0.47516677
250	0x3f07a825	0.52990943
251	0x3f0aafc3	0.5417444
252	0xbf126f85	-0.57201415
253	0x3e71187a	0.23544493
254	0xbefad598	-0.48991084
255	0xbfd1b141	-1.6382219

fc2.bias f4 [64]
0	0xbf103fb7	-0.5634722
1	0x3e3f8c90	0.18705964
2	0x3f8c665a	1.0968735
3	0x3e519fbf	0.20471095
4	0xbf07f9a6	-0.5311531
5	0x3e4057dd	0.18783517
6	0xbe86f450	-0.2635827
7	0x3ec9dbc4	0.3942548
8	0x3ea532bb	0.32265267
9	0x3f51517e	0.8176497
10	0xbf3ebf36	-0.74510515
11	0xbf126bf6	-0.57195985
12	0x3eb0ce83	0.34532556
13	0xbcba55ac	-0.02274593
14	0x3ef9cddb	0.48789868
15	0xbe196bb1	-0.14982487
16	0xbe9df666	-0.3085205
17	0x3df89cee	0.12139307
18	0xbe13ee57	-0.14446388
19	0x3d0333a2	0.032031663
20	0xbd98b4ca	-0.07456358
21	0x3e1dbf68	0.15405047
22	0x3f36b2a8	0.7136636
23	0x3d36b5bf	0.04460692
24	0xbebe3173	-0.37147102
25	0x3dac2a11	0.08406461
26	0x3ef4d749	0.478205
27	0x3eec1e55	0.46116892
28	0xbe6eee8a	-0.23333183
29	0xbf0c9b0f	-0.549241
30	0x3f73e28c	0.9526756
31	0xbf8f1ca7	-1.1180619
32	0x3f1b918e	0.60768974
33	0xbd8e58ec	-0.06950554
34	0x3ed033be	0.40664476
35	0xbecae146	-0.39624995
36	0xbeba3048	-0.3636496
37	0x3f3f61d1	0.7475863
38	0x3f2c1554	0.67220044
39	0xbe62b363	-0.22138743
40	0x3f018067	0.5058655
41	0xbe92e3d1	-0.28689435
42	0x3ef70dc5	0.48252693
43	0x3ddac9fe	0.10683058
44	0xbec0a788	-0.37627816
45	0xbdfc1004	-0.12307742
46	0xbea8aa23	-0.32942304
47	0x3f082212	0.5317699
48	0xbf2a896f	-0.6661596
49	0xbdbcff01	-0.09228326
50	0x3e8788f3	0.2647167
51	0xbd6e40d9	-0.058167312
52	0xbe0a51da	-0.13507786
53	0xbeeb4b72	-0.45955998
54	0x3e9c1bf7	0.30490085
55	0xbe1c18f9	-0.15243901
56	0xbf1bd589	-0.60872704
57	0xbe9c77cc	-0.30560148
58	0xbe404f60	-0.18780279
59	0xbef4c20d	-0.478043
60	0x3ea505e9	0.32231072
61	0x3e9aad31	0.3021026
62	0xbd87bd59	-0.06627912
63	0xbe26e936	-0.162999

fc3.weight f4 [64, 64]
0	0x3d087801	0.03331757
1	0x3f9fcca2	1.2484324
2	0xbdc6fcc6	-0.097161815
3	0xbe50e7f4	-0.20400983
4	0x3e8d31e8	0.27577138
5	0x3f87d442	1.0611651
6	0x3f6000f8	0.8750148
7	0xbf980ac1	-1.1878282
8	0x3ef45b11	0.47725728
9	0x3ee51b30	0.44747305
10	0x3fc716b9	1.555381
11	0xbeb9473b	-0.36187157
12	0xbea0488d	-0.31305352
13	0xbea77c88	-0.32712197
14	0x3f7c1257	0.98465484
15	0x3e3856ae	0.18001816
16	0xbe381440	-0.17976475
17	0x3e75475c	0.23953003
18	0x3f43f594	0.765466
19	0x3ef5a675	0.4797856
20	0x3f513245	0.8171733
21	0xbed8b27e	-0.4232368
22	0xbf60783e	-0.87683475
23	0xbf865266	-1.0493896
24	0x3e330dea	0.17485777
25	0x3f61ac22	0.8815328
26	0x3ed69146	0.4190771
27	0xbe2a2302	-0.16614917
28	0xbcfa3117	-0.030540986
29	0xbf143d48	-0.5790601
30	0x3c185fdc	0.009300198
31	0xbf504109	-0.81349236
32	0xbfedbc68	-1.8573122
33	0xbe4d2eb1	-0.20037343
34	0xbedf42bd	-0.43605605
35	0xbf2b9cc4	-0.6703608
36	0x3e5c79e2	0.2153087
37	0x3f46e7c9	0.77697426
38	0x3e64f8ee	0.22360584
39	0x3f0e75fb	0.55648774
40	0x3f72ad84	0.94796014
41	0x3ff717dc	1.9304156
42	0x3e4381de	0.19092509
43	0xbe22e120	-0.15906191
44	0xbe953093	-0.29138622
45	0x3f571ae8	0.8402543
46	0x3f0f5965	0.5599578
47	0x3f3aae17	0.7292189
48	0x3e17c9d2	0.14823082
49	0x3f7476df	0.9549388
50	0x3f266212	0.64993393
51	0xbe935bf1	-0.28781083
52	0xbea04ab2	-0.31306988
53	0x3e0659ec	0.1312024
54	0xc02e0a34	-2.7193727
55	0xbdd87927	-0.10569983
56	0xbe4113ae	-0.18855163
57	0x3e2c7488	0.16841328
58	0x3ee97f0e	0.45604748
59	0x3f031deb	0.51217526
60	0xbddbb54c	-0.10727939
61	0xbf24bf2f	-0.64354223
62	0xbd5b57ce	-0.053550534
63	0xbe98bd12	-0.2983175
64	0xbfd0aa94	-1.6302056
65	0xbe1a005d	-0.15039201
66	0xbdffbf90	-0.124877095
67	0xbec4b16f	-0.3841662
68	0xc03cbc62	-2.948998
69	0xbfc28bd4	-1.5198922
70	0x3f7ada30	0.9798918
71	0xbed80daa	-0.42197925
72	0x3e049906	0.12948999
73	0xbed37787	-0.4130213
74	0x3f2bd053	0.6711475
75	0x3f2db1e5	0.6784957
76	0xbdaa0481	-0.0830164
77	0xbe3954bb	-0.18098728
78	0x3ef28600	0.4736786
79	0x3f7f7623	0.9978964
80	0xbe6b12cf	-0.22956394
81	0xbf570a61	-0.8400021
82	0x3ebaf04c	0.36511457
83	0xbf0a7a78	-0.5409312
84	0x3cc120ae	0.023575153
85	0x3edf5f22	0.43627268
86	0xbead791d	-0.33881465
87	0x3f01bb9d	0.506769
88	0xbf63dd63	-0.89009684
89	0xbfab62ff	-1.3389586
90	0xbe9e994e	-0.30976337
91	0xbfa6b62c	-1.3024344
92	0x3ed0f53d	0.40812102
93	0x3f89c452	1.0763037
94	0xbf3bb89a	-0.73328555
95	0xbf739adb	-0.95158166
96	0x3eb11195	0.34583727
97	0xbf78f1c8	-0.9724393
98	0xbefc59be	-0.49287218
99	0xbfc94378	-1.5723715
100	0xbfc84a34	-1.5647645
101	0x3f17b12f	0.59254736
102	0x3c3d95dc	0.011571374
103	0x3e761fe4	0.24035603
104	0xbf1e67b0	-0.61876965
105	0x3ebe93f1	0.37222245
106	0xbec0f281	-0.37685016
107	0xbf44e213	-0.7690746
108	0xbf533e89	-0.82517296
109	0xbee4830a	-0.44631225
110	0xbf512c0b	-0.8170783
111	0x3d3a9c94	0.04555948
112	0x3eff176e	0.49822563
113	0x3eab3cd2	0.3344484
114	0x3da5026f	0.08057105
115	0xbe8826bf	-0.2659206
116	0x3f1bd302	0.6086885
117	0xbe647983	-0.22311978
118	0x3fa9065b	1.3205065
119	0x3e41998c	0.1890623
120	0x3dac7962	0.084215894
121	0x3f43126e	0.76199996
122	0xbf0e5fc2	-0.55614865
123	0xbf7c0f7c	-0.9846113
124	0xbf21e153	-0.6323444
125	0x3e37dd04	0.17955405
126	0x3f3495f5	0.70541316
127	0x3edd0cdc	0.43173873
128	0xbe87c2f9	-0.2651594
129	0xbf82232d	-1.0166985
130	0xbe71525a	-0.23566571
131	0x3e20c1d3	0.15698938
132	0xbf8d68f1	-1.104765
133	0xbfbdbf88	-1.4824076
134	0x3d2fcca3	0.042919766
135	0x3f0e1a49	0.5550886
136	0x3d075da7	0.0330483
137	0xbf86329b	-1.0484194
138	0xbf192d55	-0.59834796
139	0xbd2cf753	-0.042228054
140	0xbf9aad00	-1.2084045
141	0xbe5ba889	-0.2145101
142	0xbf14b7d7	-0.5809302
143	0x3e9d972f	0.30779406
144	0x3f04ded9	0.5190254
145	0xbfe7b6b8	-1.8102636
146	0xc0031ac8	-2.0485096
147	0xbd271b18	-0.040797323
148	0xbe471440	-0.19441319
149	0xbfa4a1f3	-1.2861923
150	0xbdd63abe	-0.10460423
151	0x3edbc9cd	0.429274
152	0xbf3cee35	-0.73800975
153	0xbf5b5705	-0.85679656
154	0x3e255ee3	0.16149478
155	0x3e2363d0	0.15956044
156	0x3f38da57	0.7220816
157	0xbf951c9f	-1.164936
158	0xbf07655e	-0.5288905
159	0xbdde3fe0	-0.10852027
160	0xbfc5336e	-1.540632
161	0x3fe24f81	1.7680513
162	0x3d4b2638	0.049596995
163	0x3f1abe89	0.60446984
164	0xbee57e52	-0.44822937
165	0xbe7713c0	-0.24128628
166	0xc01c623b	-2.4434955
167	0xbde3cd6f	-0.11123168
168	0xbef9be06	-0.4877779
169	0xbf3d409b	-0.73926705
170	0xbd01e67c	-0.031713948
171	0xbe912fe7	-0.2835686
172	0x3f72f577	0.949058
173	0x3f8c01d4	1.0938058
174	0x3e7c9797	0.24667202
175	0xbf12aa6f	-0.5729131
176	0xbf196c27	-0.5993065
177	0xbfd73fd5	-1.6816355
178	0xbdacebcd	-0.08443413
179	0x3e259012	0.1616824
180	0x3ebf73a4	0.37392914
181	0xbf701a72	-0.9379035
182	0x3f74deb0	0.95652294
183	0xbe926633	-0.28593597
184	0xbf25e3a5	-0.64800483
185	0x3e5ad538	0.21370399
186	0xbf602d82	-0.8756944
187	0x3fa0e6ee	1.2570474
188	0xbf21e830	-0.63244915
189	0x3f42eee8	0.7614579
190	0xbe1c9adc	-0.15293449
191	0xbe71a26c	-0.23597115
192	0xbf244a7e	-0.64176166
193	0x3edcce91	0.43126348
194	0x3f0e8554	0.5567219
195	0xbe8a5dc3	-0.2702466
196	0x3ea8cc5b	0.3296841
197	0xbf652980	-0.8951645
198	0x3f3184e8	0.69343424
199	0xbf40f031	-0.75366503
200	0xbf3ec02e	-0.7451199
201	0xbd84b4fe	-0.06479834
202	0x3ecb925e	0.39760107
203	0xbe12388a	-0.1427938
204	0xbf0d30fd	-0.55152875
205	0x3f95c2cd	1.1700073
206	0xbfa0aa8d	-1.2552048
207	0xbe98deef	-0.29857585
208	0x3ea6cda2	0.3257876
209	0xbf2fd081	-0.68677527
210	0x3efba1f2	0.49146992
211	0xbf063d62	-0.5243741
212	0x3e7a9e99	0.24474563
213	0xbf604038	-0.8759799
214	0x3f17f89f	0.5936374
215	0x3f9e5deb	1.2372411
216	0xbee34f34	-0.44396365
217	0xbd5a46dd	-0.053290237
218	0x3f073e52	0.5282947
219	0x3ea6fd63	0.32615194
220	0x3d711f88	0.05886796
221	0x3eb2d2ba	0.34926397
222	0x3e10e5df	0.14150189
223	0xbf9324d7	-1.1495618
224	0xbfc58b93	-1.543322
225	0xbe92ff7f	-0.28710553
226	0x3f1c352e	0.61018646
227	0xbe9c51e2	-0.30531222
228	0xbe05fece	-0.13085482
229	0x3f55b5d4	0.8348057
230	0xbed904ef	-0.42386577
231	0x3e8367fc	0.2566527
232	0xbe39bce3	-0.18138461
233	0xbf8c308b	-1.0952314
234	0xbf078cec	-0.52949405
235	0xbd732a8d	-0.05936675
236	0xbddad6dc	-0.106855124
237	0xbf07eb34	-0.53093266
238	0xbe999317	-0.29995033
239	0x3dd6d57d	0.104899384
240	0x3f62ff9d	0.88671285
241	0x3ef1b0dd	0.47205248
242	0xbd9ceb0d	-0.0766202
243	0xbd632577	-0.05545565
244	0x3f3cff86	0.738274
245	0xbe10b90b	-0.14133088
246	0x3f7ec58a	0.9952017
247	0x3ecffd2e	0.40622848
248	0xbe27ebf2	-0.163986
249	0xc0014603	-2.0198982
250	0x3d95d9c6	0.073169276
251	0xbeaa9b2d	-0.33321515
252	0xbf88c59a	-1.0685303
253	0x3eb3dbd7	0.35128662
254	0x3e314ec1	0.17315198
255	0xbf398f50	-0.724843

fc3.bias f4 [64]
0	0x3e8590f8	0.26087165
1	0x39e72882	0.00044089934
2	0xbe755a29	-0.23960175
3	0x3e47e53e	0.19521043
4	0xbf69a51e	-0.91267574
5	0xbd7ba3ef	-0.061435636
6	0xbc2f313b	-0.01069289
7	0xbf267bb8	-0.6503253
8	0xbd215512	-0.03938777
9	0xbefc6379	-0.49294642
10	0x3dd4d072	0.1039132
11	0xbf7bb8f9	-0.9832912
12	0x3cd6bd2d	0.026213253
13	0x384b6b6c	4.8499016e-05
14	0xbf406c8e	-0.7516564
15	0x3e808105	0.25098434
16	0x3e1cec8c	0.1532461
17	0x3ea065be	0.31327623
18	0xbeae86c9	-0.34087208
19	0xbf34cc28	-0.7062402
20	0xbe926a0d	-0.28596535
21	0x3d5808d6	0.0527428
22	0x3ecd092d	0.40046063
23	0xbe276318	-0.16346395
24	0x3e937924	0.2880336
25	0x3e68c2d3	0.2273057
26	0x3f2344f0	0.63777065
27	0xbf0d5932	-0.55214226
28	0x3e431b28	0.19053328
29	0x3f15b946	0.5848583
30	0xbecbf4e9	-0.3983529
31	0xbf748d81	-0.9552842
32	0x3eeb2159	0.4592388
33	0x3f43668c	0.7632835
34	0xbe1ea745	-0.15493496
35	0xbe95e7aa	-0.29278308
36	0xbf5c065f	-0.8594722
37	0xbf037e03	-0.51364154
38	0x3f919c20	1.137577
39	0x3f4058f1	0.75135714
40	0x3f5ec93b	0.87025803
41	0xbe6934d3	-0.22774057
42	0xbf8b304a	-1.0874112
43	0xbe14b5f6	-0.14522538
44	0xbe0f51c7	-0.1399604
45	0xbea101ae	-0.31446594
46	0xbed4ef5c	-0.41588867
47	0xbe5c522a	-0.21515718
48	0x3d2faacb	0.04288749
49	0x3e3bc6e5	0.18337591
50	0xbf27bfb9	-0.6552692
51	0x3ea3ddbb	0.32005104
52	0xbec9575a	-0.39324456
53	0xbeebe010	-0.46069384
54	0x3e6ce39f	0.23133706
55	0x3f2f962e	0.6858853
56	0xbeaa266a	-0.33232433
57	0xbf122d81	-0.57100683
58	0xbd0a845c	-0.033817634
59	0xbe4e196c	-0.20126885
60	0x3e9b09b5	0.30280843
61	0x3b50706d	0.0031805292
62	0x3ef18050	0.47168207
63	0x3d516796	0.051124178

action_out.weight f4 [5, 64]
0	0xbf3bd533	-0.7337219
1	0x3fb81730	1.4382076
2	0x3f5c4632	0.8604461
3	0xc00f3a45	-2.2379315
4	0xbe07b85b	-0.1325392
5	0x3dc89b40	0.097952366
6	0x3ed06885	0.40704742
7	0xbfa45447	-1.283822
8	0x3e1c317b	0.1525325
9	0x3f0db633	0.5535614
10	0x3f0bb59d	0.54573995
11	0xbf516de7	-0.8180832
12	0xbd943e89	-0.0723849
13	0xbf56b6f2	-0.838729
14	0x3faffe03	1.3749393
15	0x3e634de3	0.2219768
16	0xbe7151fe	-0.23566434
17	0xbf345c4f	-0.7045335
18	0xbe9a8dc0	-0.30186272
19	0xbdbb7a30	-0.09154165
20	0xbfc8e94b	-1.5696195
21	0x3fad290f	1.3528155
22	0x3f6ce2ab	0.9253337
23	0xbf303416	-0.68829477
24	0x3e43b1be	0.19110772
25	0xbdec08f3	-0.115251444
26	0x3f6861cd	0.9077423
27	0xbfaa3c92	-1.3299735
28	0xc0057d4f	-2.0857732
29	0xbf079568	-0.5296235
30	0x3fa3f19f	1.2808112
31	0xbf49c9fc	-0.7882383
32	0x3f88569e	1.0651433
33	0xbdf71776	-0.12065022
34	0xbe9471e6	-0.28993148
35	0xbf2af8c6	-0.6678585
36	0xbd8b2e1e	-0.067959055
37	0xbefac916	-0.4898154
38	0x3fda4a49	1.705392
39	0x3fb0c99c	1.3811526
40	0x3eecda4d	0.462603
41	0xbd6c3b51	-0.057673756
42	0xc0108616	-2.258184
43	0x3d576695	0.052588064
44	0x3e4c2fab	0.19940059
45	0xbeccc489	-0.39993694
46	0xbef68821	-0.48150733
47	0x3fb94e6e	1.447706
48	0x3f260fdc	0.6486795
49	0x3f664b17	0.8995833
50	0x3ebf78a4	0.3739673
51	0xbe817475	-0.25284162
52	0xbf19ef80	-0.60131073
53	0xbeb319eb	-0.3498071
54	0x3df41f9b	0.11920091
55	0x3f2d7c47	0.6776776
56	0xbef8ba05	-0.48579422
57	0xbf96269d	-1.1730534
58	0xbc30504f	-0.010761335
59	0x3f7f134c	0.9963882
60	0xbdee8a94	-0.116475254
61	0xbfa9ba7d	-1.3260037
62	0x3f0a6c7e	0.54071796
63	0x3fd4144b	1.6568693
64	0xbf97bd86	-1.1854713
65	0xbf2deb9a	-0.67937624
66	0x3f8c400b	1.0957044
67	0x3fa0cb37	1.2562016
68	0xbefa3072	-0.48865086
69	0xbd87561e	-0.066082224
70	0xbf42cc2d	-0.760928
71	0xbf0063c8	-0.50152254
72	0x3fba56e8	1.4557772
73	0xbee5f4be	-0.44913286
74	0xbe440b84	-0.19145018
75	0x3f4d4f0e	0.8019875
76	0x3c3179bc	0.010832246
77	0x3fda9e2c	1.707952
78	0xbef16b67	-0.47152254
79	0x3f6a6dd7	0.9157385
80	0xbf59917e	-0.8498763
81	0x3cf02de1	0.029318752
82	0xbf8931a4	-1.0718274
83	0x3f2b7471	0.6697455
84	0xbf86cd54	-1.0531411
85	0xbfb3f2bc	-1.4058452
86	0x3f1ad15c	0.6047571
87	0xbff0f453	-1.8824562
88	0x3f45cd08	0.7726598
89	0xbf5063a6	-0.8140205
90	0x3f4ffcd2	0.8124515
91	0xbd2d61f9	-0.042329762
92	0x3f19cdd0	0.6007967
93	0x3ed1541a	0.40884477
94	0xbe2c2f79	-0.16814984
95	0xbed240a1	-0.41064933
96	0x3f222cf1	0.63349825
97	0x3f13abab	0.5768382
98	0x3ed5be53	0.41746768
99	0x3eb1e81f	0.34747407
100	0xbf345fe8	-0.7045884
101	0xbf10dafc	-0.56584144
102	0xbe4202ea	-0.18946424
103	0xbf13c01d	-0.57715017
104	0x3e6aa915	0.22916062
105	0x3f1836c9	0.59458596
106	0xbcc7ae7f	-0.024375198
107	0xc03c71fe	-2.9444575
108	0xbfe90423	-1.8204387
109	0x3f1d5aee	0.6146687
110	0xbfb027f5	-1.3762194
111	0x3ebb7efd	0.36620322
112	0x3eaa1ad0	0.3322358
113	0xbf4c1991	-0.7972651
114	0x3eb159be	0.3463878
115	0xbf32978e	-0.69762504
116	0xbfac406d	-1.3457161
117	0x3dbe0a98	0.09279364
118	0xbf60f10e	-0.8786782
119	0xbe887365	-0.2665054
120	0xbee85f80	-0.4538536
121	0x3f98c983	1.1936496
122	0x3d070bba	0.032970168
123	0xbda92594	-0.082591206
124	0xbec48763	-0.38384542
125	0x3f1886e2	0.59580815
126	0x3f15de88	0.5854268
127	0xbe7fe5e0	-0.24990034
128	0x3f7b6676	0.9820322
129	0x3f806e1f	1.0033606
130	0xbf988011	-1.1914083
131	0xbf367bac	-0.7128246
132	0x3be0cd23	0.0068603917
133	0x3d89eb29	0.06734306
134	0x3f7c4800	0.98547363
135	0xbd99dbed	-0.07512651
136	0xbfbdf927	-1.484166
137	0x3f3029aa	0.68813574
138	0xbf577bcf	-0.8417329
139	0xbd83b81b	-0.064316
140	0x3d4cee14	0.050031736
141	0xc006951f	-2.1028516
142	0x3f08abda	0.53387225
143	0xbf19ecf9	-0.60127217
144	0x3fda81da	1.7070878
145	0xbf62c63a	-0.8858372
146	0x3f816edb	1.0111955
147	0xbf3bc3c3	-0.73345584
148	0x3d175414	0.036945418
149	0xbe743258	-0.2384733
150	0xbf2f3142	-0.68434536
151	0xbf2c8194	-0.6738522
152	0x3e9a00bc	0.30078685
153	0x3fac0673	1.3439468
154	0x402323ca	2.5490594
155	0xbec155f0	-0.37760878
156	0xbf5bd588	-0.858727
157	0xbe9626e4	-0.29326546
158	0x3f3563b3	0.70855254
159	0x3fa7d0d7	1.3110608
160	0xbfb3f8bd	-1.4060284
161	0x3e209dd2	0.15685204
162	0xbdda0ab3	-0.10646572
163	0x3ec4f8e3	0.38471135
164	0x3fa2e3c9	1.2725765
165	0x3f723884	0.94617486
166	0xbc917de8	-0.017760232
167	0x3f074155	0.52834064
168	0xbec426b1	-0.3831077
169	0x3e6f964a	0.23397174
170	0xbf979b53	-1.1844276
171	0x3fa83164	1.3140073
172	0x3f639480	0.8889847
173	0x3d9c2c13	0.07625594
174	0x3f09e853	0.53870124
175	0x3f6c9719	0.92418057
176	0xbebefbc4	-0.37301457
177	0x3e16c5a9	0.14723839
178	0x3f68ce2e	0.90939605
179	0x3ef901f1	0.48634294
180	0x3fcc5deb	1.5966161
181	0xbef3bd3e	-0.47605318
182	0xbf8b74d7	-1.0895032
183	0xbb470da6	-0.0030373125
184	0x3f3a2bce	0.7272309
185	0xbf12284d	-0.57092744
186	0x3da85698	0.082196414
187	0xbecb7392	-0.3973661
188	0xbf8e1d3a	-1.1102669
189	0xbee0cd25	-0.43906513
190	0xbfb770c6	-1.4331291
191	0x3f95c934	1.1702027
192	0x3e303ea7	0.172114
193	0x3e59214c	0.21204108
194	0xbe394ac7	-0.18094932
195	0x3e28ff72	0.16503695
196	0x3fae357d	1.3610073
197	0xbe24158b	-0.16023843
198	0xbfd96ef5	-1.6986986
199	0x3eb19534	0.34684145
200	0xbf3ca150	-0.73683643
201	0xbfe6db37	-1.8035649
202	0xbfad0c76	-1.3519428
203	0x3f80a61f	1.0050696
204	0x3de628df	0.11238264
205	0x3f081168	0.5315156
206	0x3dfe1da8	0.12408
207	0x3e461543	0.19344048
208	0x3ea5ed75	0.32407728
209	0xbf3fc582	-0.7491075
210	0xbfacdcf0	-1.3504925
211	0xbe1b4d0d	-0.15166111
212	0x3ea4c9bd	0.32185164
213	0xbe4b8767	-0.1987587
214	0xbf5e0c38	-0.86737394
215	0x3e6f53e2	0.23371843
216	0x3f608e5d	0.8771723
217	0x3fa31f5f	1.2743949
218	0xbe04d274	-0.12970906
219	0xbdbc6659	-0.09199209
220	0x3f84fb63	1.0389217
221	0xbedade06	-0.42747515
222	0x3f97a0b7	1.1845921
223	0x3f99f160	1.2026787
224	0xbc3985c3	-0.011323395
225	0x3f1a542a	0.60284674
226	0x3e5e496a	0.21707693
227	0xbeff1e8b	-0.4982799
228	0xbebab30d	-0.3646473
229	0x3fb67cec	1.4256873
230	0xbf325366	-0.69658506
231	0x3eb1e4dd	0.3474492
232	0x3f085215	0.5325025
233	0xbf134936	-0.57533586
234	0xbf43d745	-0.7650035
235	0x3e91713b	0.284067
236	0xbfbdb706	-1.4821479
237	0xbf912594	-1.1339593
238	0xbf255478	-0.64582014
239	0xbfb36134	-1.4014039
240	0x3fd99801	1.6999513
241	0xbf5742af	-0.84086126
242	0xc03192b1	-2.7745783
243	0x3f334b8b	0.70037144
244	0xbf508b1f	-0.8146228
245	0x3f6a5467	0.9153504
246	0xbdaf10ff	-0.085481636
247	0x3fbe567b	1.4870142
248	0x3e495316	0.19660601
249	0x3f983320	1.1890602
250	0x3c43c730	0.0119493455
251	0xbfdacc56	-1.7093608
252	0x3e10703d	0.14105316
253	0x3f56625b	0.8374383
254	0x3eab792b	0.3349088
255	0xbdbf288b	-0.09333905

action_out.bias f4 [5]
0	0x3ed0f283	0.40810022
1	0x3bd6622b	0.0065424643
2	0x3dfff222	0.12497355
3	0xbe7d3b62	-0.24729684
4	0xbf57c97f	-0.84291834
