maddpg/MADDPG-master/model/simple_tag/agent_1/1_actor_params.pkl (torch, 41167 bytes, 8 tensors)

fc1.weight f4 [64, 16]
000000 ed d8 5e be d6 e1 55 be 0d 58 97 bd d7 60 7f bd
       -0.21762438 -0.20886931 -0.07389841 -0.062348213
000010 6a ed 2c 3f f3 d6 3e bf 84 f6 4b bf 39 90 10 3f
       0.67549765 -0.74546736 -0.7967303 0.56470066
000020 53 57 22 3f 29 5b 19 3f da 1f c9 3e 0a 19 b3 3e
       0.63414496 0.59904724 0.39282113 0.3498004
000030 41 1b 33 3e e3 db f3 bf fc 34 ed bf 6a 82 78 bf
       0.17490865 -1.9051479 -1.8531795 -0.97073996
000040 94 88 b8 be e6 bf 0c bf 67 94 a7 be f4 db ab be
       -0.360417 -0.54980314 -0.3273041 -0.33566248
000050 77 f0 67 3d 3c 8e 82 be c6 ec d3 be 74 4b b1 ba
       0.05662581 -0.2549914 -0.4139158 -0.0013526515
000060 e6 92 0f 40 49 5a d6 be b6 63 14 40 e8 fe 0d 3e
       2.243341 -0.41865757 2.3185859 0.1386677
000070 f7 bb 24 3f 90 43 71 bf 38 09 38 bf 1e a1 b5 be
       0.6434931 -0.9424372 -0.71889067 -0.35474485
000080 d0 1a 01 3f 48 9c 31 be f2 e8 a6 bd 38 9d 97 be
       0.5043154 -0.17344773 -0.081498995 -0.29612136
000090 00 18 1c be 22 92 99 be aa 23 48 3d 6c 07 2a bc
       -0.1524353 -0.29994303 0.048862137 -0.010377746
0000a0 ba 42 d9 bd e2 21 90 3f 71 9f ae 3f b7 c1 11 c0
       -0.1060843 1.126034 1.3642408 -2.2774484
0000b0 4a 5f 37 bf 92 bb a3 3f 0e a7 89 be 33 c0 b5 3f
       -0.71629775 1.2791617 -0.26885265 1.419928
0000c0 6b d5 02 3e 64 92 b8 bd 07 e5 2d be 74 70 de be
       0.12776725 -0.09012297 -0.16981898 -0.4344517
0000d0 e2 ea 90 be 05 3c b5 bd f7 f4 ac 3d a7 bc ae be
       -0.283042 -0.088493384 0.08445161 -0.34128305
0000e0 9a 30 8b bf 1f 54 51 bf c4 d1 a9 bf 94 c8 1e bf
       -1.0874207 -0.81768984 -1.326714 -0.6202481
0000f0 e1 31 fc 3f ab 5b 04 c0 b1 34 c6 be ce 6f a0 3e
       1.9702722 -2.068095 -0.38712075 0.313353
000100 ae 28 88 3e a8 5b af 3e 9a 4f 8b be cd 06 a2 3e
       0.26593536 0.34249616 -0.2720917 0.31645814
000110 76 fc fa be 87 6f 57 3e 99 31 4a 3e 5d 4e a5 3d
       -0.49020737 0.21038638 0.19745483 0.08071587
000120 bf 98 31 c0 7c 75 2a bf 11 f3 36 3f e5 06 46 be
       -2.774948 -0.66585517 0.7146464 -0.19338568
000130 5d 6b 08 40 92 24 e8 bd 3d fc 51 3f db 15 97 3e
       2.131553 -0.113351 0.8202551 0.29508862
000140 80 ca 11 be cc 98 0d bd 36 a1 f8 bd a6 ce 6f 3e
       -0.14237404 -0.034569547 -0.121401235 0.23418674
000150 30 c5 50 be 3e 34 1f 3e e6 7b d8 3d 99 ec 59 3d
       -0.20387721 0.15547273 0.10570507 0.053204153
000160 1a ef 8d 3f 3b 29 c8 bf d5 1a 01 bc 3e 46 b8 3e
       1.1088593 -1.5637583 -0.007879932 0.3599109
000170 97 fe 43 bf 0d a3 83 c0 c1 d6 11 be 0f a6 b0 3e
       -0.7656035 -4.1136537 -0.14242078 0.34501693
000180 e9 29 e7 bd 90 43 98 bd f5 53 15 bf a5 67 b6 be
       -0.112872906 -0.074347615 -0.58331233 -0.3562595
000190 dc 17 43 be 8c 25 37 3e 30 4c aa be 7f b0 14 bf
       -0.1905207 0.17885417 -0.3326125 -0.5808181
0001a0 84 18 d3 be d0 ef ee 3d 48 36 1c 3e b2 b9 b6 3e
       -0.4122964 0.11666834 0.15255082 0.3568855
0001b0 0e 0a 41 40 b9 cf 5c 40 1f 60 c6 3e ef 49 4b 3f
       3.0162387 3.4501784 0.3874521 0.7940969
0001c0 3f 4f c5 3e 15 f2 0b 3f 1b 3a c9 be 7e e2 24 3e
       0.38537022 0.5466626 -0.39302143 0.16102025
0001d0 d9 d9 02 bf c9 23 19 3f 70 c1 02 3e 84 79 de be
       -0.5111366 0.5982023 0.12769103 -0.43452084
0001e0 d0 a4 f0 3e 54 48 80 3f 4e cd 10 be 98 f2 fd be
       0.47000742 1.0022073 -0.14140818 -0.49599147
0001f0 0a 81 ff 3b dd d9 a5 bf 11 82 a5 3e f6 f3 9b be
       0.007797365 -1.2957112 0.32325795 -0.30459565
000200 50 2a bc bd a7 00 99 3d f8 6c f0 3e dc 69 37 be
       -0.09187758 0.074708275 0.46958137 -0.17911476
000210 2a 13 c8 bd 49 c4 ec 3d 8a f6 0c 3f fe 44 b2 be
       -0.0976928 0.11560876 0.5506369 -0.34818262
000220 44 3c 5b 3f 67 c7 e9 bf 26 34 8f 3e 81 66 3d 3f
       0.85638833 -1.8263978 0.27969474 0.73984534
000230 65 3c 3f 3f 52 6e dd 3f d8 71 64 3f 1b f1 92 3e
       0.7470153 1.7299292 0.8923621 0.28699574
000240 ec db 40 3e 05 57 7b 3f cb 9e d1 3e 33 0e 22 bf
       0.18833894 0.98179656 0.40941462 -0.63302916
000250 1b e9 1a bd 4d f9 72 be dd ae e4 3e db 12 a6 be
       -0.037819963 -0.23727913 0.4466466 -0.3243626
000260 65 04 b3 bf df aa d0 3d 33 29 9d bf 68 12 1c 40
       -1.3985716 0.10188841 -1.2278198 2.4386234
000270 67 c2 b7 bf 93 8e 10 3e 56 ef 7c 3f 2b 48 19 3f
       -1.4356202 0.14116888 0.988027 0.59875745
000280 4c bd 45 bf bc 05 4d 3f bf 15 3e be b8 43 fb 3e
       -0.7724197 0.80086875 -0.18562983 0.49075103
000290 1f 36 b1 bd e1 42 89 3e 0e b9 8d bd 1d 6c 4d 3e
       -0.08652901 0.26808837 -0.06920062 0.20060773
0002a0 30 45 c7 be fb 36 41 be 4a 20 88 3f b8 10 f4 bd
       -0.38919973 -0.1886863 1.0634854 -0.11917251
0002b0 3f ce 2f c0 b8 d1 05 40 db 36 1c bf 07 92 3c 3f
       -2.7469633 2.0909252 -0.610212 0.7366032
0002c0 f1 50 75 bc ea 8d 25 3e 61 62 00 bf 60 cf e8 3e
       -0.014972911 0.16167417 -0.50150114 0.45470715
0002d0 b3 50 09 bf 99 e2 c8 3e 28 6a 20 3d 21 aa 27 3d
       -0.5363876 0.3923538 0.03916374 0.040933732
0002e0 a1 7d d0 3f 19 61 65 3f 16 20 54 bf 37 23 d2 bf
       1.6288339 0.89601284 -0.8286146 -1.6416997
0002f0 48 14 02 40 a5 2d 42 be 34 0b aa 3f 66 cf b8 3f
       2.0324879 -0.18962725 1.3284669 1.4438293
000300 a4 21 1f bd 95 50 fc be 3d 7c ab 3e b0 86 9b 3e
       -0.03885044 -0.4928023 0.33493224 0.30376196
000310 03 14 99 3e 3f 9d 35 be cb de 42 3d c4 17 c2 3e
       0.2989808 -0.17735766 0.047575753 0.37908757
000320 a4 3c bc 3e 2a 48 7b bf 88 f9 97 bf ad d0 ee 3f
       0.36765015 -0.9815699 -1.1873026 1.8657433
000330 a5 2e 0b bf 67 97 5b bf ee 82 d1 bd ef f6 7b bf
       -0.5436805 -0.85777897 -0.10230051 -0.98423666
000340 23 62 04 be 85 6d df be c8 4c d4 bc 76 45 1b bc
       -0.12928061 -0.43638244 -0.025915518 -0.00947701
000350 5e 68 b1 3d f0 fa b3 bd 41 20 de bd 6b ec ac 3d
       0.086624846 -0.08788097 -0.10845996 0.08443531
000360 56 e3 31 3f 67 d6 d5 bf 6e ff b6 bf 2b 61 42 40
       0.6948751 -1.6706055 -1.4296701 3.0371807
000370 24 0e 24 40 94 fb 0e 40 ba 92 38 3e 12 a8 7d 3f
       2.563363 2.234105 0.18024722 0.9908458
000380 78 cf c4 be 3a 94 39 be 3d a4 c4 3d e5 cb 90 be
       -0.38439536 -0.1812295 0.096016385 -0.2828056
000390 83 78 fe 3e e1 4d 22 bf 9f a8 bc be 18 ca bd 3e
       0.49701318 -0.63400084 -0.36847398 0.37068248
0003a0 ed ad 18 3e 6a d4 b0 3e 34 05 d7 be 67 f1 0a bf
       0.14910097 0.3453706 -0.41996157 -0.542746
0003b0 04 01 8e 40 3f 68 3c be 06 24 97 3e 60 a7 47 3d
       4.437624 -0.18399142 0.2951967 0.048743606
0003c0 df a1 00 3e 09 5b 03 3e 47 57 0a bd f9 d5 1f be
       0.12561749 0.12827696 -0.03377464 -0.15608968
0003d0 f8 14 16 3e 5c 76 6b b9 52 3b ff bd 5a f4 44 be
       0.14656436 -0.00022455439 -0.12462486 -0.19233838
0003e0 ac 30 4e bf 42 52 e5 3e e5 8b 80 3d 90 b0 01 bf
       -0.8054302 0.4478932 0.06276683 -0.5066004
0003f0 5c 07 4a 40 d5 62 ac 3f 50 75 59 3f 64 a0 0f 3f
       3.1566992 1.3467661 0.8494463 0.5610411

fc1.bias f4 [64]
000000 6f 4a 98 bf 95 fa f8 be f2 36 44 3f ce e9 1e 3f
       -1.1897715 -0.4862868 0.7664634 0.6207551
000010 fb 08 b5 be b0 03 96 bd bc 84 d0 3f 68 8f c2 3f
       -0.35358414 -0.07324922 1.6290507 1.5200014
000020 58 a3 54 3f 78 ac 14 bf a2 7a 6b bf ae 75 2e bf
       0.8306174 -0.58075666 -0.91984 -0.68148315
000030 5e f5 35 bf 1f bc 6c 3f c8 50 93 3f 4a e4 17 bf
       -0.71077526 0.9247455 1.1509027 -0.59332716
000040 fb 8f 34 3f b6 7a 2e 3e 00 95 d5 3e d8 d6 a7 3f
       0.70532197 0.17038998 0.4171524 1.311244
000050 1a 4d 48 3f 41 e0 41 bf 9e fa 92 3f 9f 6b a0 bf
       0.7824265 -0.7573281 1.1482732 -1.2532843
000060 bf 33 e3 3e 4a a3 78 3e f0 59 64 3f 4a 4c 52 3e
       0.44375417 0.2428104 0.89199734 0.20536914
000070 61 c5 a9 be d9 cb ac 3c c6 36 9b 3e 42 aa ad 3a
       -0.331584 0.021093296 0.30315226 0.0013249593
000080 90 76 2d 3f 9a bf 94 3f d2 f1 af 3f a5 51 29 3e
       0.67759037 1.1620972 1.3745673 0.16535051
000090 aa a5 3b 3f 92 78 20 3f 91 62 66 bf 01 48 60 3f
       0.7329966 0.62683976 -0.8999415 0.8760987
0000a0 69 36 1b 3e a5 7a be 3f 4c 95 4c bf 4f f9 5f bf
       0.15157475 1.4881178 -0.7991531 -0.8748979
0000b0 c1 75 49 bf a5 06 65 bf 65 36 d5 3f c1 53 3b 3f
       -0.78695303 -0.89463264 1.6657225 0.73174673
0000c0 e2 69 bc 3f bc 8f 67 bf 0c 4c a4 3e c5 15 e4 3e
       1.4719813 -0.90453696 0.3208927 0.4454786
0000d0 6a 4d c3 3f 57 57 c7 3f f6 b8 d4 3f a1 23 e2 3f
       1.5258 1.5573529 1.6618946 1.7667123
0000e0 6c 48 78 bf 31 35 f9 3e 03 9d 6f 3f 17 92 7c 3f
       -0.96985507 0.48673394 0.93598956 0.98660415
0000f0 1f d1 7e 3e 88 39 61 3f 05 63 87 3f 77 b9 10 bf
       0.24884461 0.8797841 1.0577093 -0.56532997

fc2.weight f4 [64, 64]
000000 13 31 5c be 83 43 a8 be 71 dc 05 bf 55 08 1d 3e
       -0.21503095 -0.32864007 -0.5228949 0.1533521
000010 60 5b 06 3e 98 e4 1c 3f 4d 2e 36 bf d2 36 76 3e
       0.13120794 0.61286306 -0.711644 0.2404435
000020 67 9f ae be 32 05 d9 be 4c 9f a2 bf 6a fe 2b 3f
       -0.3410599 -0.42386776 -1.2704864 0.6718508
000030 02 39 92 bf 14 fb 2c bf 88 a4 18 bf 07 d7 3d be
       -1.1423647 -0.67570615 -0.59626055 -0.18539058
000040 92 69 9d 3e cb c1 4e be df a8 19 3f ad 01 88 be
       0.30744606 -0.20191114 0.600233 -0.2656378
000050 21 50 ad 3c 68 9d b2 bf 08 d9 c7 3e b2 d1 b6 3d
       0.021156373 -1.3954287 0.3903277 0.08926715
000060 76 4d 66 be 45 5a 1e 3e 43 67 08 3f a9 a1 92 be
       -0.22490487 0.15464123 0.53282565 -0.28638962
000070 51 9f b5 3f 43 d9 33 3d 13 02 32 bf 6f f7 02 3f
       1.4189245 0.04390837 -0.69534415 0.51158804
000080 76 06 74 3e 0b 89 99 3e 8d 02 6b bf d5 12 d0 3e
       0.2383059 0.29987368 -0.9180077 0.40639368
000090 bf f1 4f 3d b6 8f 5c be 63 3a 95 be 63 a8 69 3f
       0.050767656 -0.21539196 -0.29146108 0.9127256
0000a0 37 03 86 3e 0a 72 4a bf a2 a4 f2 be 72 c0 e1 be
       0.26174328 -0.7908026 -0.4739123 -0.44092137
0000b0 82 6c 40 bd 95 34 bc 3e c3 50 95 bd 25 0d 11 bf
       -0.04697848 0.36758867 -0.07290795 -0.5666068
0000c0 4b d8 47 3f 3b 2d 81 be 5c 1b 4b 3f 4b df ef 3c
       0.7806441 -0.2522982 0.7933862 0.02928128
0000d0 b6 33 33 3f 6c cc 1e 40 3a 1d e5 3e 4e 4a af 3f
       0.7000078 2.481227 0.4474886 1.3694551
0000e0 10 5d 6e bf a8 e7 62 be 31 df fa be 45 81 62 bf
       -0.9311075 -0.22158682 -0.48998407 -0.884785
0000f0 42 55 c8 be 4f 7a 87 be a4 aa f0 bf 52 f7 84 bd
       -0.39127547 -0.26460502 -1.8802075 -0.06492485
000100 30 8a ab be 95 5e 41 bf 03 6b 30 be b8 94 bb be
       -0.33503866 -0.75534946 -0.17228322 -0.366369
000110 64 c5 02 bf 51 63 44 3f e3 e4 80 3f 50 99 93 bc
       -0.51082444 0.76714045 1.0069851 -0.018017441
000120 0b f5 b2 3d bd 4d a8 bd 6d 6d 9f 3e 64 56 04 3c
       0.087381445 -0.082179524 0.31138173 0.008077238
000130 88 3d 3f bf 40 88 ce 3d be ff 02 bf 66 73 83 be
       -0.74703264 0.100845814 -0.5117148 -0.2567398
000140 39 fb 86 3d 46 ef 17 be 21 25 b8 3e 3b 87 26 3f
       0.06590886 -0.1483737 0.35965827 0.65050095
000150 ce ce 51 bf 8b f9 09 3f eb 38 7b be 65 e4 7c 3e
       -0.81956184 0.538964 -0.24533431 0.246965
000160 bc c4 31 bf af 24 5a bf a6 a0 bd 3e 1f 02 0c bf
       -0.6944082 -0.85212225 0.37036628 -0.54690737
000170 92 47 c6 be d0 07 24 3e 5f ef 47 3f f6 c6 2a be
       -0.3872648 0.16018605 0.78099626 -0.1667746
000180 45 62 6a bf a0 e4 d1 3d c6 03 02 3f 36 59 db 3e
       -0.915562 0.10248685 0.5078701 0.428415
000190 64 cf 15 bf 2c 5c 83 be 4d 91 1b 3f 82 82 6a 3d
       -0.5851958 -0.2565626 0.60768586 0.05725337
0001a0 6e 9a fd bd 72 2d ba 3e a1 44 b5 bd b4 b5 a3 bd
       -0.12382971 0.36362797 -0.088509806 -0.079936415
0001b0 22 b4 13 3f 4f 20 f9 be b2 9c c9 bc b6 9f 88 3f
       0.57696736 -0.48657462 -0.024610851 1.067374
0001c0 ef dd 80 bf 15 0b 27 bf 0b 61 32 3e 9c 7f 40 3f
       -1.0067729 -0.65251285 0.17419831 0.75194716
0001d0 d7 81 3e 3f 13 d3 14 bf 5f bf 26 3e 6e c4 e6 be
       0.7441687 -0.58134574 0.1628394 -0.4507174
0001e0 62 fc aa 3f 35 ee 97 3e 45 36 c0 be 93 22 94 3d
       1.3358271 0.29673925 -0.37541404 0.07233157
0001f0 e1 d7 9d 3f 40 ec 12 bf 5b 15 f9 3f ae 71 ef 3e
       1.2331506 -0.5739174 1.9459642 0.46766418
000200 02 1a 94 3d 71 39 4c 3f 77 14 13 3f 09 de 67 3f
       0.07231523 0.7977515 0.574531 0.90573174
000210 ac 8e d1 be 96 a4 86 3d a3 66 49 3e 63 c2 d2 be
       -0.40929163 0.06574361 0.19668059 -0.4116393
000220 52 fe 85 be 51 08 31 be 61 6c bb 3e 73 10 ab bc
       -0.26170594 -0.17288329 0.36606124 -0.020881867
000230 80 eb 20 be 84 c8 a2 bf b0 52 92 be b2 1f 9a be
       -0.15714836 -1.2717443 -0.2857871 -0.30102307
000240 fc 3e fc be 40 2b 88 3d b4 c3 33 3f 7c 5d e8 be
       -0.49266803 0.06648874 0.70220494 -0.45383823
000250 6c f7 e0 3e a1 42 0b be ca 08 81 be 55 4b 3d be
       0.43938768 -0.13599636 -0.25202018 -0.18485768
000260 11 ab cb 3e e8 e7 9a be 27 d3 41 3e dd 34 99 3f
       0.3977895 -0.30255055 0.18928204 1.1969258
000270 fe ce 0d 3e 5e ac 35 3f b3 7e e6 3d 86 5c b1 3e
       0.13848493 0.70966136 0.11254635 0.34640902
000280 a9 fd 1d 3f 64 95 1f be 5c bc 8e be bd 86 81 be
       0.6171518 -0.15584332 -0.27878082 -0.2529811
000290 77 0a d5 3e 6c a0 45 bf e2 de 0c 3e 30 40 8b 3f
       0.41609547 -0.7719791 0.13756898 1.0878963
0002a0 dd 2b a0 3f 06 45 c8 bf 0f 37 8d be b3 c9 57 3f
       1.2513386 -1.5646064 -0.2758107 0.84292144
0002b0 cd 0e 60 bf 54 3b 5b 3f ac 85 17 bd 3d 60 1f bf
       -0.87522584 0.856374 -0.036992714 -0.6225622
0002c0 f5 ae 18 3f da 91 45 3e d9 cd ad 3d 37 71 ce be
       0.59641963 0.19293919 0.08486528 -0.4032075
0002d0 0b 52 12 bf 3a af 31 3f 79 1f e0 3e 58 f7 4e 3f
       -0.5715644 0.69408 0.43774012 0.80846167
0002e0 9d 0b e0 3e 0e c4 20 3f 33 70 3a 3e 9e 28 4d 3e
       0.4375886 0.62799156 0.18206863 0.20035025
0002f0 c6 6d e7 be b8 7a 3d bf f4 cc 5c bf 6e f5 3e bf
       -0.45200938 -0.7401538 -0.86250234 -0.74593246
000300 7b ea 9b be dc 44 18 3e 38 7d 70 bc 97 10 d8 bd
       -0.30452332 0.14870018 -0.014678292 -0.10550039
000310 b2 a4 00 bf 50 b3 4d 3f c9 2c a3 be 47 5d 3e 3f
       -0.50251305 0.80351734 -0.31870106 0.7436108
000320 b2 a0 ae be 34 f0 e4 be 24 6c 01 3f e0 51 e7 3e
       -0.34106976 -0.4471451 0.50555634 0.45179653
000330 86 e3 58 3f f3 f5 b4 3f 34 1e 6a 3f 26 ac 3c 3e
       0.84722173 1.4137558 0.91452336 0.18425044
000340 86 e4 b5 3f 35 53 28 3e 88 1d bb be 68 29 2c 3f
       1.4210365 0.16437991 -0.36545968 0.6725068
000350 3f e3 a7 bf 4b 93 14 3f d7 1a 83 3f d8 22 78 3d
       -1.3116225 0.5803725 1.0242566 0.060580105
000360 cf f4 af 3e 71 92 bd 3e c0 18 d4 be b1 f0 10 bd
       0.34366462 0.37025788 -0.41425133 -0.03538579
000370 ff 01 e6 3f 36 3b d1 bf f0 3d e3 be 06 f5 cd be
       1.7969359 -1.6346195 -0.44383192 -0.40226
000380 12 1c e6 bf fc 40 8d 3f 19 45 21 3f 99 3b a2 be
       -1.7977316 1.1035457 0.6299606 -0.31686094
000390 ec ae 69 3e d1 64 03 be 8c 30 19 bf 30 f1 73 3e
       0.22820634 -0.12831427 -0.598397 0.23822474
0003a0 53 f9 f9 be 73 d2 a4 3e 27 60 4b bf e1 4f 6f 3e
       -0.48823032 0.3219181 -0.7944359 0.23370315
0003b0 fe f1 65 3e 5a df 9c be 7d 91 e5 3d 97 f9 e8 3e
       0.22455594 -0.30639154 0.1120939 0.45502922
0003c0 1f f1 81 3c 70 de 36 3f 42 56 32 3f 51 df 53 3e
       0.015862046 0.7143316 0.6966287 0.20690657
0003d0 ef f1 23 3e ca 64 81 3f 93 9d ff 3d ca 27 92 3e
       0.16010259 1.0108883 0.12481227 0.28545982
0003e0 12 b8 98 be b6 5e 6a bc 70 4b 8f 3d 9e 08 87 3e
       -0.29827935 -0.014304807 0.069968104 0.26373762
0003f0 c9 d2 9b 3f bd 57 8a 3c 24 ba 8c be 92 b5 44 3e
       1.2173702 0.01688754 -0.27485764 0.19209889

fc2.bias f4 [64]
000000 ef 2a b4 3e 80 4c 98 bd 54 5e 29 3f e4 35 fb 3d
       0.35189006 -0.07436466 0.6615956 0.12266138
000010 39 15 16 bf 9c 37 ef 3e 29 ec d6 3e d7 4c b1 3e
       -0.58626133 0.46722114 0.4197705 0.34628937
000020 dc 59 b3 3d 9b f0 a0 be 5f 82 5c 3f 92 e5 6e bc
       0.08757374 -0.31433567 0.8613643 -0.014581101
000030 a1 7e 15 be 1c 26 92 be 9e 14 d9 3c 5b c8 06 3f
       -0.14599086 -0.285447 0.026499089 0.5264947
000040 1a 43 13 bf de 1b c0 3e d3 79 25 3e 6e c6 ec bc
       -0.57524264 0.3752126 0.16159754 -0.028903212
000050 09 2d 90 3f 1c 1f 3f 3e 3e d8 83 bf e8 70 74 be
       1.1263744 0.18664211 -1.0300367 -0.23871195
000060 15 ce ed 3e bb a0 83 3e 1f 6c 93 3e 39 bf fa be
       0.4644629 0.25708565 0.28793427 -0.48974016
000070 bb ac 36 be 9f f7 a4 3d be b4 a9 3f 03 35 24 bf
       -0.17839329 0.080550425 1.3258283 -0.6414339
000080 ee 6b 25 be c8 23 7c 3f 33 67 b4 be e8 77 14 be
       -0.16154453 0.984921 -0.35234985 -0.14498866
000090 69 c2 9c 3e 16 26 f4 be 42 76 bb be c0 4b 11 bf
       0.30617073 -0.47685307 -0.3661366 -0.5675621
0000a0 5f 70 96 3a 36 d0 84 3f bf 34 5a be 03 2a 4d bf
       0.0011477581 1.0376041 -0.21309184 -0.8014223
0000b0 7f 22 c6 be f8 06 f7 be ef 4e 43 3f 16 e3 5b 3f
       -0.38698193 -0.48247504 0.7629232 0.8589338
0000c0 e3 01 3e 3f 26 c8 57 3f ec fd 26 3f 9e fc ef 3e
       0.7422163 0.8428978 0.65231204 0.4687242
0000d0 39 4d 69 be 01 13 0a be d5 3b ad be 3a 03 7b 3f
       -0.22783364 -0.13483812 -0.3383471 0.980518
0000e0 f2 51 e8 be b5 07 d1 be 98 a5 58 bf 51 22 41 be
       -0.4537502 -0.40826192 -0.84627676 -0.18860747
0000f0 6a f1 df bd 2d db b6 3d 1f 2f a9 be 14 d9 86 be
       -0.10934718 0.08928523 -0.33043763 -0.26337492

fc3.weight f4 [64, 64]
000000 2b a6 c7 3c 93 e5 a6 3b 80 c3 50 3e df b1 36 3f
       0.024371227 0.0050932853 0.20387077 0.7136516
000010 99 0b 4e 3f 33 14 a5 3e 81 ca 99 3f eb ed 3b 3e
       0.80486447 0.32241973 1.2014924 0.18352477
000020 87 c6 01 3f c6 c6 9f bf f6 59 94 bf 5f 5b 0d 3e
       0.50693554 -1.2482536 -1.1589954 0.13804387
000030 9c 1f 10 3f a6 65 73 3e e5 67 0a 3f eb 26 19 bf
       0.5629823 0.23769245 0.5406478 -0.5982501
000040 f2 66 ff bf b1 85 42 be c6 c5 ae be df 91 db 3e
       -1.9953291 -0.18996312 -0.34135264 0.42884728
000050 8a c9 b2 bf 35 a9 57 bf 27 b0 44 3f bc 85 92 bf
       -1.3967755 -0.84242564 0.7683129 -1.1447062
000060 7a 43 f9 be d7 ce 58 3e 72 8f ac 3e 15 17 46 3e
       -0.48684293 0.21172653 0.3370319 0.19344743
000070 12 32 11 3e e2 55 9c 3f 50 64 9f be 12 4f 4a bf
       0.14179257 1.2213709 -0.3113122 -0.790269
000080 0e 45 3d 3f d1 2f 06 c0 96 ae ac bf bf 81 0e be
       0.73933494 -2.0966685 -1.3490779 -0.13916682
000090 e1 69 8e be c7 e1 d2 bd 84 68 26 bf b7 87 f2 bd
       -0.27815154 -0.1029697 -0.6500323 -0.11842292
0000a0 bd 09 10 3f fc 0d 83 be c1 c6 75 3d a5 26 32 be
       0.5626486 -0.25596607 0.060004 -0.17397554
0000b0 00 03 d7 be cc 47 bf 3f 2d e1 66 3d 23 3e 5f 3e
       -0.41994476 1.4943786 0.056367088 0.21801047
0000c0 42 fe 57 bd af a1 eb 3b 53 3c 04 3f 01 a5 18 3f
       -0.052732714 0.007190905 0.5165455 0.59626776
0000d0 69 88 06 3e 78 42 31 bc 10 cf 46 3f c4 4d ba bf
       0.13137974 -0.01081907 0.776597 -1.4554982
0000e0 23 bf b8 3e 63 c3 b6 be 7f b1 b7 bf 80 42 42 3d
       0.36083326 -0.35695943 -1.4351043 0.0474267
0000f0 d1 6e c7 3e 78 6a b8 3f b8 6b 44 3f b1 74 d9 bd
       0.38951734 1.4407492 0.76726866 -0.1061796
000100 f5 da 92 bc 9b 93 80 3d 5c 4d 76 bd 58 6f 22 be
       -0.017926672 0.062781535 -0.06013237 -0.15862787
000110 80 c8 10 be 06 2f 42 3d 66 43 a2 bc 22 3a c4 bd
       -0.14138985 0.047408126 -0.019807529 -0.095814005
000120 2b ca ef bd 08 1c 14 be 15 fa dc bd ef fb c8 bd
       -0.11708482 -0.14463818 -0.10789887 -0.098136775
000130 6d 2a 1d be 7d ef 03 bd e2 79 a2 3c 23 ab be 3c
       -0.15348215 -0.032210816 0.019833509 0.023274964
000140 ca 78 d8 3c 15 1d 4d 3d 06 7f 05 bd 7c d0 a6 bc
       0.026424784 0.050076563 -0.032591842 -0.020363085
000150 54 83 47 bd e3 ef f4 bd 18 73 ea 3a 90 4c 2a be
       -0.04870923 -0.11959817 0.0017887084 -0.16630769
000160 14 93 cf bd f9 6b 1d be 60 24 d8 bd 78 af 0a bd
       -0.10135475 -0.1537322 -0.10553813 -0.033858746
000170 82 bd c6 bd 34 6d f7 bc d8 2b cb bd fd 39 39 3d
       -0.097041145 -0.03020344 -0.09920472 0.045221318
000180 48 e5 19 be 84 04 58 3d 8e 24 4b 3d 35 f0 85 bd
       -0.1502887 0.05273868 0.04959541 -0.065399565
000190 01 73 57 bc cd c2 5f 3c 68 52 88 bd 7d 0d 88 3c
       -0.013149978 0.013657284 -0.06656343 0.016607994
0001a0 f5 d5 f3 3c f0 f1 4f bd 90 c8 30 be 23 54 3c be
       0.029765109 -0.05076784 -0.17264009 -0.1839147
0001b0 5f 1a 2b 3d 77 0b eb 3c 37 5a 48 bb 2c 9b db bc
       0.041773196 0.02869199 -0.003057135 -0.02680739
0001c0 fd 2f df bd 89 64 af 3c 93 41 19 be ad 82 4f 3d
       -0.10897825 0.021410244 -0.14966421 0.05066173
0001d0 2d 32 28 be 75 59 d4 bd b1 63 d4 bd 22 1a 93 3d
       -0.1642539 -0.10368625 -0.10370577 0.07182719
0001e0 3c f6 02 be 10 3a 18 be 63 6c 86 bd 55 5c d5 3b
       -0.12789243 -0.14865899 -0.06563642 0.006511251
0001f0 74 b0 06 be 07 26 5d be 61 0f 9b bd c9 e7 30 bb
       -0.13153249 -0.21596538 -0.07571293 -0.0026993623
000200 74 d3 49 3f b7 4d cc bf a1 84 04 bd bd de eb bf
       0.78838277 -1.5961217 -0.032353047 -1.8427349
000210 15 30 bf be 8d f7 f6 be 35 ba 50 bf 6c ba 93 bc
       -0.3734137 -0.4823574 -0.8153413 -0.018033229
000220 c4 69 80 bf fc 09 f9 3e ef e0 c9 3f 7e 95 13 3f
       -1.0032277 0.4864043 1.5771769 0.5764998
000230 94 9d af 3e 59 54 ef 3d 45 70 41 bf e0 76 60 bf
       0.3429991 0.1168601 -0.75561935 -0.8768139
000240 3d ba 93 bf 99 11 2d bf 4f 22 87 bf 54 b5 57 3f
       -1.154121 -0.67604977 -1.0557345 0.8426106
000250 83 3d df be 0c 0f 04 3f 5d 8f 21 c0 b4 f2 96 3e
       -0.43601617 0.5158546 -2.5243752 0.29482043
000260 8c f4 d1 be b4 c2 12 3f 83 ba 85 be 35 47 71 bf
       -0.41006887 0.57328343 -0.2611886 -0.9424928
000270 2f 4d d3 3d 0a 85 b1 3e 01 82 bc 3e 3b 41 74 3e
       0.10317456 0.34671813 0.36817935 0.23853008
000280 42 36 10 bf be 34 c6 3e 87 75 c4 bf 27 59 35 bd
       -0.5633279 0.38712114 -1.5348366 -0.044274475
000290 ba b1 38 3e 61 c0 4d bf c5 83 07 3f f7 e7 b2 3e
       0.18036547 -0.8037167 0.5293544 0.349426
0002a0 58 ac 12 3e c6 47 05 bf 6b e7 8b bd 90 aa b9 bd
       0.14323556 -0.5206264 -0.06831249 -0.09065735
0002b0 af 47 cf bf 45 a3 9e 3c 29 13 c6 bd 78 5f 06 3f
       -1.6193751 0.019364962 -0.09671623 0.52489424
0002c0 64 cf f6 3d 58 a0 86 bf 9e f1 99 bf 6f 5c 33 3c
       0.12051275 -1.0517683 -1.2026861 0.010947331
0002d0 4e 68 08 3f be d3 11 3d 41 01 82 be 1b 5c 5a 3f
       0.53284156 0.035602324 -0.25391582 0.8529679
0002e0 00 83 81 be 1b 6b 84 bf 47 ab 1f 3f ed c9 85 be
       -0.25295258 -1.0345186 0.62370723 -0.2613062
0002f0 89 22 47 3e 94 d9 9c 3d 37 19 97 bd 0e 4d 0c bf
       0.19446768 0.07658687 -0.07377856 -0.54805076
000300 25 e9 ca be e3 ec 89 be 46 15 57 3f e5 94 d7 be
       -0.39631 -0.26938543 0.84016836 -0.42105785
000310 71 f0 a5 3e c8 1a e7 be 25 de 63 3f fb ed b2 3e
       0.32410005 -0.4513762 0.8901084 0.3494719
000320 f5 41 ef be 87 57 ee be 2f 52 b2 3e e0 8c 88 3f
       -0.4673001 -0.46551153 0.34828326 1.0667992
000330 f5 11 53 3e c1 85 3d 3e 43 b6 29 be df 07 30 3f
       0.20612319 0.18508054 -0.16573434 0.6876201
000340 06 2a 81 be 02 bf a8 be e2 33 7f be bb 4a 1c be
       -0.25227374 -0.32958227 -0.24922135 -0.15262882
000350 71 12 4e bf 99 e2 e9 bd 9a 4d 67 3e c1 a3 95 bf
       -0.8049689 -0.11420173 0.22588196 -1.1690599
000360 55 ea 94 3e 25 21 b9 3f e8 b6 4a be 84 70 9d bd
       0.2908503 1.446324 -0.19796336 -0.07687476
000370 41 cc 1f 3c 21 ae 23 3e 6e a5 ab 3f cb 84 08 be
       0.009753288 0.15984394 1.340986 -0.13331906
000380 e8 c1 14 3f 73 87 aa 3f d8 4f b4 bf 8b 54 64 3e
       0.5810838 1.3322586 -1.4086866 0.22297876
000390 80 b1 bb 3e 8c 59 04 bf 97 f1 71 bf 42 19 f2 be
       0.3665886 -0.5169914 -0.9450926 -0.47284895
0003a0 1f 65 6e 3f 3c 06 4b 3f 0a fd 05 3e 3b 6d 2f 3c
       0.9312305 0.7930639 0.13084808 0.010707195
0003b0 c5 48 8b bf 9b 57 64 bf b3 b1 1f bf 33 63 83 3f
       -1.0881582 -0.89196175 -0.6238052 1.0264648
0003c0 b4 3d 50 3f 3a 6e 5b 3f c3 25 a3 3e 49 40 ab 3f
       0.8134415 0.8571507 0.31864747 1.3378993
0003d0 ea 0b 82 bd 4d 92 e0 3d c3 e2 4b bf e8 e2 29 3f
       -0.06349929 0.10965405 -0.79642886 0.66361856
0003e0 0b d0 6f 3e 6f 92 10 3b 50 dd c6 bf 60 9d 79 bf
       0.23419206 0.0022059937 -1.5536289 -0.9750576
0003f0 d2 ed c6 3e 9d bf a5 3f 56 18 1d 3f 0b 82 56 bd
       0.38853317 1.2949101 0.6136526 -0.052370112

fc3.bias f4 [64]
000000 c7 4c 6d be 9f 1e 5c be f6 bc 46 be 83 60 8d 3f
       -0.2317382 -0.21496056 -0.1940802 1.1045078
000010 36 fd 64 be 1a b7 70 be a2 7a 35 3f e1 3b 7a 3f
       -0.22362217 -0.23507348 0.7089025 0.9774762
000020 b5 70 11 3f 3f f4 aa 3e 3a 91 af bd 19 2c 68 be
       0.568126 0.3338947 -0.08572622 -0.22673072
000030 1e 7f ba 3d fc a7 84 bf 37 bf b9 be db 79 cc 3d
       0.09106277 -1.0363765 -0.36278698 0.099841796
000040 7f b3 01 3f 28 21 bc be 0c 3b 90 3f 45 a3 06 bf
       0.50664514 -0.36744046 1.126802 -0.5259288
000050 44 31 e0 3e b6 93 9e bf 6b 82 7d bf 4f d0 89 3f
       0.43787587 -1.2388828 -0.9902713 1.0766696
000060 45 31 9a 3e 04 99 1f 3f 3d 43 de 3d 2b d4 b8 3e
       0.30115715 0.6234286 0.108526684 0.3609937
000070 1f bb 86 3f 62 cb 39 be c0 d2 a3 3e a3 d9 97 be
       1.0525855 -0.1814399 0.31996727 -0.2965823
000080 33 28 96 be ac d1 c9 be b4 68 14 3e b4 9f 2d 3f
       -0.29327545 -0.3941778 0.14493066 0.6782181
000090 79 3b a6 3e ee d2 48 bc 1a 90 14 3e 28 da fa 3e
       0.3246725 -0.012257321 0.14508095 0.48994565
0000a0 40 6a b5 3e b3 81 39 3d 52 2f 29 bf fe bb 21 3d
       0.35432625 0.045289706 -0.6608783 0.039485924
0000b0 df 62 0d bf 1a 32 8b 3e 0d 4d 07 3f 64 4a 1e bf
       -0.5522899 0.27186662 0.52851945 -0.6183226
0000c0 4e 7f a9 bf 31 72 17 3f 0d 1b a9 bb ee bf b5 bc
       -1.3241975 0.5915862 -0.0051606954 -0.022186246
0000d0 41 77 15 3e 48 4f 1c 3f ea 80 c8 3e d1 5e d3 3e
       0.14596273 0.61058474 0.39160854 0.41283277
0000e0 2f 33 05 bf b5 54 d4 bd 10 00 28 bd a4 db 38 3e
       -0.52031225 -0.10367719 -0.041015685 0.18052536
0000f0 30 3b f0 3e e6 8f cb 3e 65 b9 6d 3f fd dd 8c bf
       0.46920156 0.39758223 0.92861015 -1.1005245

action_out.weight f4 [5, 64]
000000 6e 4a 7e 3e 9a d5 26 bd c5 ed 23 bf f1 de db be
       0.2483308 -0.04073105 -0.6403468 -0.42943528
000010 ee 78 82 bf 80 4a 12 be 21 4e 4a bf dc 59 8c 3e
       -1.0193155 -0.14286232 -0.79025465 0.27412307
000020 d6 5a 17 3f dc 09 4c c0 64 99 73 3f 9d 32 a9 3f
       0.5912298 -3.1881018 0.9515593 1.3218571
000030 49 b7 30 3e 70 3d be 3e f5 1d 30 bf 55 f9 83 be
       0.17257418 0.37156248 -0.6879571 -0.25776163
000040 d5 6c 9d 3e d0 fd 8b bd fa 11 d4 3f 9e f4 7d 3f
       0.30747095 -0.0683552 1.6567986 0.9920138
000050 ab 2f 28 bf 26 eb ec bd 2f 45 66 3f ec f1 dd be
       -0.65697736 -0.115682885 0.89949316 -0.43348634
000060 50 f1 09 bf 25 01 67 3f 4a 48 28 3e db 6c 74 3e
       -0.5388384 0.9023612 0.16433826 0.2386965
000070 9e 21 6c 3f f4 7b f1 bc 1f 03 87 bf 22 da 91 3e
       0.92238796 -0.02947805 -1.0547827 0.28486735
000080 6c 7c 97 3e c3 a6 e2 3e 39 46 d2 bd 8b 64 0f bf
       0.29587114 0.44267854 -0.102673 -0.5601279
000090 2d 0d fe 3f bb 8c a3 bd 6d 0b a9 3f 4a 4b e1 be
       1.9847771 -0.079858266 1.3206612 -0.44002753
0000a0 d8 0e 0f bf ef c0 a2 be 85 96 89 bf 44 c6 a5 bd
       -0.55882025 -0.31787822 -1.074906 -0.08094457
0000b0 61 5f f6 3f 86 4d 53 bf c2 62 62 be f4 35 0c 3f
       1.9247857 -0.82540166 -0.22107986 0.54769826
0000c0 77 a4 d4 3f 01 cc ad bf 69 6d 58 3f 7f 8c a9 3f
       1.6612691 -1.3577882 0.84541947 1.3246001
0000d0 09 89 2b 3f b4 10 db 3e 2c 6e c6 3e 4e 63 2e bf
       0.67005974 0.4278618 0.3875593 -0.68120277
0000e0 98 aa 4a be 81 81 d9 be c9 2c 70 3f 63 69 98 be
       -0.19791639 -0.42481616 0.93818337 -0.29767904
0000f0 b4 96 56 3f 6c e1 9d 3e c7 37 84 bf 3a 48 d1 3d
       0.83823705 0.30836046 -1.0329522 0.10218854
000100 da 0e 8d be ae bf c1 bb 6f d6 ba be 5e e5 ea be
       -0.27550393 -0.0059127426 -0.36491725 -0.45878118
000110 0a e6 e1 be b1 13 8a bd ce d2 4e 3f da b4 98 3f
       -0.44120818 -0.06742037 0.8079041 1.1930192
000120 26 3b d2 3e af 7a 99 bf 3b 27 27 3f d5 90 cb be
       0.41060752 -1.1990565 0.65294236 -0.39758936
000130 f3 7f 41 bd 51 88 e3 3d 56 8e c7 bf 3d 9b c3 3e
       -0.047241163 0.11109985 -1.5590312 0.38204375
000140 34 6f 0a bf da 5b 7e 3e a5 0b 82 3e cc 2c 9b bf
       -0.5407593 0.24839726 0.2539951 -1.2123046
000150 c6 34 4f 3f 43 03 a7 bf 27 9d 2e bd 98 24 5e 3f
       0.809399 -1.304787 -0.04263034 0.8677459
000160 d5 d7 45 bf 30 bb 70 3d 4f 09 53 3f 39 d6 0e be
       -0.7728246 0.058772266 0.8243608 -0.13948907
000170 86 47 93 3e 0f 03 d7 bc 70 7f 86 bf 06 99 b9 be
       0.28765506 -0.026246576 -1.0507641 -0.3624956
000180 d5 6f 80 3f a7 e7 02 be 6d 31 4e bf a7 00 8e 3e
       1.0034128 -0.12783681 -0.8054417 0.27734873
000190 10 4a a5 be fd ba de 3d b4 f6 81 3f ad 86 b7 3e
       -0.32283068 0.10875509 1.0153413 0.35844937
0001a0 85 a4 05 bf 57 1a c1 3e 15 91 8d bf 31 87 b6 3f
       -0.5220416 0.37715408 -1.10599 1.4260007
0001b0 fb 0a 0d 3f 4f 2d d2 3f 68 12 85 bf ee 22 22 be
       0.5509488 1.6420077 -1.0396242 -0.15833637
0001c0 19 fe 8d bf cc 79 13 be 31 c1 85 bf ad 52 ba be
       -1.109317 -0.1440193 -1.0449582 -0.36391202
0001d0 36 b6 af bf 77 31 fc 3e 72 31 47 bf f1 d5 61 bf
       -1.3727481 0.4925649 -0.7780982 -0.88217074
0001e0 17 d6 0d 3f 56 35 89 be ce bd 80 bf fa a4 c5 3f
       0.554048 -0.26798505 -1.0057924 1.5440972
0001f0 64 1c d0 3e 80 39 b9 3f d2 cc bd be e7 cc 94 3f
       0.4064666 1.4470673 -0.37070328 1.1625031
000200 88 14 48 bf 18 8f 89 bb 54 7a 2c 3f 5e 86 91 bc
       -0.7815633 -0.0041979663 0.6737416 -0.017764267
000210 df 5b 43 be d9 92 86 3c 83 d0 a5 be 4e 5b 11 bf
       -0.19078015 0.016427444 -0.32385644 -0.56779945
000220 46 6a 74 be e0 15 80 be 7c 89 b3 bd 81 31 f7 be
       -0.23868665 -0.2501669 -0.087664574 -0.48279956
000230 99 78 4c 3d b2 1b 4a 3e 85 c3 7a 3f a8 c3 95 3e
       0.0499197 0.19737127 0.9795459 0.29250836
000240 5d 30 aa 3f 32 2d be be e1 63 1c bf 0b 52 5c 3f
       1.3296009 -0.37143856 -0.61089903 0.8606269
000250 e5 3a 15 bf 8e 22 62 3f 46 b6 b0 3e 65 4d 7a bf
       -0.5829299 0.88333976 0.34514064 -0.97774345
000260 0d 92 92 3e 48 b6 aa be 38 ae 54 bf 4f 27 8b 3e
       0.28627053 -0.33342195 -0.83078337 0.27178428
000270 8d 8c 37 bf 63 2f f4 bc b1 2d 3d 3f 88 17 2f 3f
       -0.7169884 -0.029807752 0.73897845 0.6839528
000280 ad 07 b1 be 21 8f 8f be 70 2e 4a 3f de 27 21 bf
       -0.3457617 -0.28038886 0.7897711 -0.6295146
000290 81 31 fd bd be 55 de bd 8f 6a c4 be 25 fe a5 bf
       -0.12362958 -0.10856198 -0.38362548 -1.2968184
0002a0 4d ba 11 3f 4c 67 7c bf f5 d3 33 bf 8d d0 96 be
       0.569249 -0.9859512 -0.70245296 -0.29455987
0002b0 9a e9 9e 3e 35 51 6e bf cb f4 02 3f 10 81 f3 3e
       0.310376 -0.9309266 0.51154774 0.47559404
0002c0 4d 09 9c bd 74 6f dc 3d b6 8b 84 3e 20 73 df 3d
       -0.076189615 0.107634455 0.2588784 0.1091063
0002d0 66 8a 34 3f 09 e4 ea be 4b ce 01 3f b6 e0 59 3f
       0.7052368 -0.45877102 0.50705403 0.85108507
0002e0 25 16 ba 3d bb d0 ab be 11 3f 78 3f 4d 90 80 bf
       0.09086255 -0.33557686 0.9697123 -1.0044037
0002f0 e6 9a 94 be ac 91 61 bf 87 d1 97 3e c5 d9 b1 bd
       -0.29024428 -0.881129 0.29652044 -0.08684114
000300 23 81 99 bf 97 58 21 bc c2 00 d8 3d 85 26 51 3e
       -1.1992534 -0.009847782 0.105470195 0.2042485
000310 94 f0 ae be 25 96 b5 bd 90 70 b4 bd 5f 19 5f be
       -0.34167922 -0.088665284 -0.08810532 -0.21787022
000320 e5 6b 85 3f 46 be 59 bd e4 30 91 3f 14 29 77 3e
       1.0423552 -0.053159975 1.1343045 0.24136764
000330 3b ce 45 be f5 89 68 3f 64 58 bd 3f 2f c8 fd 3e
       -0.19316952 0.90835506 1.47926 0.4956679
000340 e8 e3 5d 3e e9 6b 76 3e f4 e3 f2 3d 4a 28 91 3f
       0.2166897 0.24064602 0.11859885 1.134042
000350 a8 45 d4 3d 60 d9 ce 3e 8f c1 3a 3f 3d 71 b6 3d
       0.103648484 0.4040022 0.72951597 0.08908317
000360 c0 82 fd 3e eb 0a 4f bf 47 0c c8 3d 1f d4 77 be
       0.49513817 -0.80876034 0.09767967 -0.24202012
000370 68 c9 45 bf 4c a4 25 bd 5a 3b cb bd e4 b5 a6 bf
       -0.77260447 -0.04043989 -0.0992343 -1.3024259
000380 1a 4b 9f be 19 0e 01 3f ed d1 1a bf 1f 6a 97 be
       -0.31111985 0.50412136 -0.6047657 -0.2957315
000390 f0 26 28 bf 66 d9 67 3a a4 58 fe 3f de 0f ed 3e
       -0.65684414 0.00088443456 1.9870801 0.46301168
0003a0 70 5e ca bd 15 16 66 bf a3 b1 00 3f 51 da 84 3e
       -0.09881294 -0.89877445 0.5027105 0.25947812
0003b0 c9 fd 06 3f f6 d1 6e be 4e 67 e6 be 9e c2 0c 3e
       0.52730995 -0.23322281 -0.4500069 0.13746116
0003c0 66 46 40 be b7 93 43 bf 79 95 2b 3f 31 e9 69 3f
       -0.18776855 -0.7639727 0.6702495 0.91371447
0003d0 8b e4 f6 be 19 f0 7d be ae f4 d4 3d fd d9 13 3f
       -0.4822124 -0.24798621 0.103982314 0.577545
0003e0 e3 08 4c 3f 24 d5 8b bf 4d a7 48 bf cd fe 3c be
       0.7970106 -1.092442 -0.7838028 -0.18456574
0003f0 10 68 a6 3e e4 3b b0 3e 90 6b 2a bf a9 99 9a 3e
       0.32501268 0.34420693 -0.6657038 0.30195358

action_out.bias f4 [5]
000000 ba ec 97 be 6e 18 9b 3e ac e5 10 bf 82 b4 a1 be
       -0.29672796 0.30292076 -0.5660045 -0.3158303
000010 ae e2 3e 3f
       0.74564636
