maddpg/MADDPG-master/model/simple_tag/agent_1/1_critic_params.pkl (torch, 52175 bytes, 7 tensors)

fc1.weight f4 [64, 63]
000000 3c 9e d1 be 67 9b 54 3e ff f9 e9 bf 0d 79 8a be
       -0.40941036 0.20762406 -1.8279418 -0.2704548
000010 80 57 2b bf 94 83 fa 3e 88 95 4d be 61 f4 11 40
       -0.6693039 0.4892851 -0.20076573 2.2805407
000020 de ab 10 40 c1 ed 8e 3e b4 5d 5e 3e 11 95 d3 3f
       2.26049 0.27915767 0.21715432 1.6529866
000030 19 89 5c 40 d4 19 74 3f 97 78 af 3d 52 68 29 bf
       3.4458678 0.9535191 0.085679226 -0.66174805
000040 dc 11 54 be 22 9c a7 3e e4 2a bf bf 6b e2 29 40
       -0.20709938 0.32736307 -1.4934964 2.6544445
000050 14 82 61 be bc d6 f2 bf 0f 97 a4 bf ad ec be bf
       -0.22022277 -1.8971782 -1.28586 -1.4915978
000060 38 ed 0b c0 62 24 75 be e0 90 80 bf 9e a6 86 3e
       -2.1863537 -0.2393966 -1.0044212 0.26298994
000070 a9 1e 94 3f e1 a4 b0 bf 62 32 13 3e b6 ee 15 bf
       1.1571857 -1.3800317 0.14374688 -0.5856737
000080 f4 d2 40 bf 65 0e c3 3d 57 c5 85 bf ab fc 2a 3f
       -0.7532189 0.0952423 -1.0450848 0.6679179
000090 0e a8 39 bf 4e 31 bb bc e3 c0 8b bf 1c 94 9d 3f
       -0.72522056 -0.022850659 -1.0918239 1.2310824
0000a0 13 49 5a be 1f c5 be bf e4 48 8a 3f 25 0a 98 bd
       -0.21316938 -1.4903907 1.0803494 -0.0742381
0000b0 5a dd 68 40 b7 16 56 c0 4a d8 a9 3d 70 4b 22 bf
       3.6385102 -3.3451364 0.08293207 -0.6339636
0000c0 c1 e4 ab bc ec 18 e0 be a1 fe dd be 55 22 d8 3e
       -0.020983102 -0.43769014 -0.4335833 0.42213693
0000d0 60 ee 2d be 32 62 7b 3d 28 4a 26 bf c8 41 16 3e
       -0.16985464 0.061372943 -0.64956903 0.14673531
0000e0 03 08 3e 3d ce f6 1a 3e c4 49 a0 bd e3 51 d4 be
       0.04639436 0.15133211 -0.0782657 -0.41468725
0000f0 e5 a4 b7 3e a0 b3 a1 bd 8d db a6 3c 3c bc 49 3f
       0.35867992 -0.07895589 0.020368362 0.7880285
000100 a3 b1 54 3f b8 44 6e 3d e8 d3 9c bd 12 ac 9e be
       0.8308355 0.058171004 -0.076576054 -0.30990654
000110 e8 80 84 be 9f 52 99 bc e5 2e 9d 3e 5e 6f 1c bf
       -0.25879598 -0.018716155 0.3069984 -0.6110743
000120 b0 cf 67 40 b4 d9 06 be 4f 8a 2f 3f 5c ab 9c 40
       3.6220512 -0.13168985 0.6857042 4.895918
000130 2e 5a cd bf 1d 33 f2 3f 37 03 ce 3f b9 bc 92 3f
       -1.6043146 1.8921849 1.6094731 1.1463844
000140 79 ef 00 3f ad 46 85 be 8e db ac 3d 80 a4 a4 3d
       0.50365406 -0.26030484 0.08440314 0.080391884
000150 d1 b1 d2 bd b8 c8 25 be 3a 6d da 3d 18 c3 12 3f
       -0.10287822 -0.1618985 0.106653646 0.5732894
000160 3e 5e 64 c0 74 bb d4 3e 13 e0 cd be 1c 34 99 40
       -3.568252 0.41549265 -0.40210018 4.787611
000170 65 20 13 bf 75 6a f7 3f bd 7e b7 3f 3a 75 f6 3e
       -0.57471305 1.9329363 1.4335552 0.48136312
000180 28 c9 ea 3e 97 e0 09 bf 05 e6 34 bf 64 70 8e 3e
       0.45856595 -0.5385832 -0.7066348 0.27820122
000190 98 01 1d 3f a3 6b 1a 3f f7 e1 41 3f da 70 80 3e
       0.61330557 0.6032049 0.7573542 0.250861
0001a0 b3 62 5d bf a2 b9 ce be 96 4c 8a 3e 04 af 0b 40
       -0.8647873 -0.40376002 0.27011555 2.182557
0001b0 d4 dd 3f 40 ff c2 e9 3f e1 dd c4 3f 67 22 78 bd
       2.9979143 1.8262633 1.5380212 -0.060579684
0001c0 ec 51 14 be 58 39 6e be 24 0d 06 3f 5c 89 4f be
       -0.14484376 -0.23264062 0.523638 -0.20267242
0001d0 4e 6d 67 3d 56 ab c3 3e 17 64 46 3e 20 69 4c 3e
       0.056500725 0.38216656 0.19374119 0.19961977
0001e0 90 4a 5c be 71 97 28 bc ae a8 ce 3e 2c 96 69 be
       -0.21512818 -0.010290013 0.40363067 -0.22811192
0001f0 b8 ae b0 bd a9 fa b4 be 71 23 f9 3e ad c1 76 3f
       -0.08627075 -0.3534749 0.48659852 0.96389276
000200 87 d3 96 3e b8 46 66 3f 1b ac 98 bd 30 95 cd 3e
       0.29458258 0.8995166 -0.074547015 0.40152884
000210 83 f4 0c 3e 9d f8 f3 be 27 09 eb 3e e3 97 30 c0
       0.13765149 -0.47650614 0.4590542 -2.7592704
000220 3b ab 95 bf 6f f6 83 3e 2d ea e4 bf 32 f5 70 40
       -1.169288 0.2577395 -1.7883965 3.7649655
000230 4e f0 22 3e 88 ce 0c 3f 73 a0 2b be ff cb 87 be
       0.15911981 0.5500264 -0.16760425 -0.26522824
000240 70 dd 19 bf d9 6d a4 3f b7 73 7b be df c2 bd 3d
       -0.6010351 1.2846023 -0.2455586 0.09265684
000250 6d a5 20 3f d1 33 24 bf 1b 1e e6 be d9 9e 2a 40
       0.6275242 -0.64141566 -0.44944844 2.6659453
000260 4a 9f 9f be 41 22 15 40 b8 d2 08 c0 b9 56 6b 40
       -0.31176215 2.3302157 -2.1378613 3.6771681
000270 d2 a8 52 3e 96 b4 01 3f 52 a6 be bd 1a 24 ab 3e
       0.20572212 0.5066618 -0.09309067 0.3342598
000280 9b 73 61 3e 1f 0c b3 3f 60 0b 4e be bb b1 d4 bd
       0.22016756 1.3988074 -0.20121527 -0.10385462
000290 91 72 e4 bd 6a 9a 76 bf 5b cb 8a 3f 44 2c b7 bd
       -0.11154664 -0.9632937 1.0843309 -0.0894399
0002a0 eb 97 53 3e 3b 49 16 c0 2f 68 f8 bf eb 44 a3 be
       0.20663421 -2.3482196 -1.9406794 -0.31888518
0002b0 79 e2 32 3e f2 4d 22 3f 3d 40 82 be 1d fa 07 3e
       0.17469205 0.63400185 -0.25439635 0.13279004
0002c0 40 7c 67 3d a2 3d a7 3e 9c 7f 28 bf 7b 9f 9f 3c
       0.05651498 0.3266421 -0.65819716 0.019485226
0002d0 69 e7 07 be 62 e5 d9 ba 44 8d 05 be d7 3b 64 3e
       -0.1327187 -0.0016624148 -0.1304217 0.22288452
0002e0 2d 1d a4 bd 59 ed 1a be dc f0 a2 bd b7 24 aa 3e
       -0.08013377 -0.15129603 -0.079560965 0.33231136
0002f0 95 10 42 bd e7 1c e5 be a9 a0 47 bf 41 b2 a0 be
       -0.047379095 -0.44748613 -0.7797952 -0.31385997
000300 d1 8e 78 c0 b2 64 b6 3f e0 94 6c be 86 b7 04 c0
       -3.8837168 1.424948 -0.23103666 -2.0737014
000310 96 0e b9 bd be 4b a3 3f 6e 0f 24 3f 33 ac 57 3f
       -0.09035985 1.275749 0.64086044 0.8424713
000320 cd d1 97 bf 1a 27 2d c0 21 50 f6 be d7 cf f0 3f
       -1.1860901 -2.7055116 -0.48108009 1.8813428
000330 4e ce a6 3e 11 11 d3 3e 64 14 25 3f 1b 62 40 be
       0.32579273 0.41223958 0.6448424 -0.18787424
000340 01 24 10 bf 37 1f 96 3f a6 f4 35 c0 96 5c ef be
       -0.5630494 1.1728276 -2.8430572 -0.46750325
000350 79 f2 07 c0 34 08 8e bf 4e 88 30 bf 70 c1 76 be
       -2.1241744 -1.1096253 -0.68957984 -0.24097228
000360 86 7b a4 3f 29 f0 d7 bf 1a b7 51 40 5f d4 ea 3f
       1.2850196 -1.6870166 3.2768006 1.834606
000370 82 43 cc 3e c3 22 c5 3e ee 7a 3c 3f 10 09 9c be
       0.39895254 0.38503084 0.73625076 -0.30475664
000380 ff fb 12 c0 62 89 42 3d 29 2d 80 bf ff 4a ae bf
       -2.2966306 0.0474943 -1.0013782 -1.3616637
000390 eb a2 b5 be 23 c6 49 bf 5f 04 87 3f d1 bb ad 3e
       -0.3547586 -0.7881796 1.0548209 0.33932355
0003a0 88 df 98 bf f3 b2 18 3f e0 18 d9 3e 6b 97 f2 3f
       -1.1943216 0.59648055 0.4240179 1.8952459
0003b0 24 56 d2 3e 89 62 18 3f 81 e9 3f bf 21 dd 84 be
       0.41081345 0.5952535 -0.74965674 -0.25949958
0003c0 e9 98 c4 be 99 11 af 3e 12 95 63 3e fa 13 33 3f
       -0.3839791 0.34193113 0.22224835 0.69952357
0003d0 03 4b 69 3f c8 26 67 be 44 20 ad 3e df 1b 43 bf
       0.91130084 -0.22573388 0.3381368 -0.762144
0003e0 0c 36 17 bf c9 a7 dd bd 65 1d 71 be 2a dd 26 40
       -0.59066844 -0.10823018 -0.2354637 2.6072488
0003f0 7e 04 60 bf 69 99 91 3d 23 29 da bd 8b 41 b0 be
       -0.87506855 0.07109339 -0.106523775 -0.34425005

fc1.bias f4 [64]
000000 d7 4f 8f c1 40 dd eb c0 b8 5e 49 c1 41 07 76 c1
       -17.913984 -7.370758 -12.585625 -15.376771
000010 6a 52 e5 c0 29 f4 2a c1 27 3e 1f be 96 88 89 bf
       -7.1663103 -10.684609 -0.15551053 -1.0744808
000020 44 ff d8 c0 22 56 cd c0 10 6b 36 bf 78 99 06 bf
       -6.7811604 -6.4167643 -0.71257114 -0.52577925
000030 05 c6 2d c1 8b 6e 69 c1 be d4 51 c1 ba f4 72 be
       -10.860845 -14.589488 -13.114439 -0.23726168
000040 d8 7f 05 bf 4c 05 9c 3e 23 21 5e 3f 3a 45 c8 bf
       -0.521482 0.3047279 0.8676931 -1.5646126
000050 24 69 ba c0 46 c1 c4 c0 0c e0 16 c0 4d 90 df c0
       -5.8253345 -6.148593 -2.3574247 -6.986365
000060 38 9a 90 40 d5 c3 2e c1 d0 45 13 bf a0 f8 b3 bf
       4.5188255 -10.922811 -0.575284 -1.4060249
000070 89 6a 18 be d4 37 54 c1 37 c8 04 c1 14 9f 5e c0
       -0.1488439 -13.26363 -8.298881 -3.4784594
000080 e3 7b 88 c0 79 ef 85 c1 a4 61 9d 3e aa fb 1b c1
       -4.265123 -16.74193 0.30738556 -9.748941
000090 57 26 44 c1 b5 a2 53 bf 70 c3 17 c1 d6 ef 6b 41
       -12.25936 -0.82670146 -9.485214 14.746054
0000a0 a6 ab ac c0 89 f1 09 bf e4 e8 03 40 88 d9 1e c1
       -5.395953 -0.5388418 2.0610895 -9.928108
0000b0 60 0d 7f 3e e4 3e b9 3e 23 3a 6f c1 52 de 68 bf
       0.24907446 0.36180794 -14.951694 -0.90964234
0000c0 dc b2 26 c1 ad b3 01 c1 ba ef 16 3f a2 a2 8c be
       -10.418667 -8.106366 0.58959544 -0.2746783
0000d0 a2 7c 93 c0 bc a8 20 bf 80 82 03 c1 3b 9f e2 3e
       -4.608964 -0.6275747 -8.21936 0.44262108
0000e0 a1 e5 c1 bf 85 85 3c c1 cb ff c0 3e 07 5c 83 bf
       -1.5148202 -11.782598 0.37695155 -1.026246
0000f0 9d ea b9 bd 8d f1 70 3e 7f 6e 71 be 9f 0b b5 bd
       -0.09077952 0.23529644 -0.23577307 -0.08840107

fc2.weight f4 [64, 64]
000000 4f cd 78 3e a7 34 85 bd 1c 52 20 bf 4e 9e e8 3e
       0.24297069 -0.06504183 -0.6262529 0.45433277
000010 aa 84 8b 3d 68 ae 49 3f 3c a7 de bd 39 38 0b c0
       0.06812413 0.7878175 -0.10871741 -2.1753066
000020 f7 c1 9d 3e de 6c bc bf 35 b5 45 bf 8b 36 b8 3d
       0.30812046 -1.4720724 -0.77229625 0.08994778
000030 e1 e8 0b 3e 94 a4 ec 3e b5 1b bd 3d d2 1a 85 bd
       0.13663055 0.46219313 0.092338 -0.06499256
000040 4a 1a 58 bf 3b f0 73 bd b1 66 aa bf 2a ab b5 bd
       -0.84415114 -0.059555274 -1.3312589 -0.088705376
000050 c2 bc 61 bf fb 2d 5f bf 56 dd 9f 3c ad b7 d2 be
       -0.88178647 -0.87179536 0.01951472 -0.41155759
000060 a7 24 2e bf ad 8b 2b 3e 11 31 3f 3e fa d4 4c bf
       -0.6802468 0.16752501 0.18671061 -0.80012476
000070 6c a7 b0 3e 07 b8 dd bf 97 a9 88 bd 7b 02 fb be
       0.34502733 -1.7321786 -0.06672972 -0.4902533
000080 17 71 f4 be 4e 6a 16 3e b3 1f 5f bf 67 80 6c 3c
       -0.4774253 0.1468899 -0.87157744 0.01443491
000090 a1 9b 9e 3c 8a e0 6e be ad fd 42 3e bf 04 9b bf
       0.019361319 -0.23327842 0.19042082 -1.2110823
0000a0 a4 85 09 3d da ec be bf e9 9b 51 bf 67 7b 43 bf
       0.033574715 -1.4916031 -0.81878525 -0.7636017
0000b0 3f 1e a1 3c 40 92 07 3f ea 25 ac be 85 3f 17 be
       0.019667743 0.52957535 -0.33622676 -0.14770325
0000c0 74 89 3c be f9 37 52 bf 26 69 48 be 33 75 e6 bf
       -0.18411809 -0.8211666 -0.19571361 -1.8004516
0000d0 07 6f 1f 3f c6 83 e3 3d 2c 9c b0 3d 21 9b 83 bf
       0.6227879 0.11109118 0.086235374 -1.0281717
0000e0 78 43 57 3d 18 47 03 bf ea 49 13 bf 04 66 f9 bd
       0.052554578 -0.51280355 -0.5753466 -0.12177661
0000f0 f8 8f 11 be 4f de 76 bd 6b 8d ab be 83 63 85 bf
       -0.14215076 -0.060270604 -0.3350633 -1.0420994
000100 88 8e c6 be a1 25 ab bf 72 72 2d bf 19 68 9b 3e
       -0.38780618 -1.3370858 -0.67752755 0.30352858
000110 bf 21 8a 3e d3 e3 33 bf 43 f5 44 bf ee 37 ea bd
       0.2697887 -0.7026951 -0.7693674 -0.11436449
000120 8f 78 cf 3d 2a b7 0e bf 7b f1 cb bd 1d 68 9a be
       0.101304166 -0.55748236 -0.09958168 -0.30157557
000130 d8 61 b1 be 7d d1 97 be 24 98 6e be 71 ed d8 3c
       -0.3464496 -0.29652014 -0.23300225 0.026480408
000140 e6 55 b4 bf a5 b5 a1 3d c5 9f 04 c0 d5 ba f5 be
       -1.4088714 0.07895974 -2.0722516 -0.47994104
000150 29 7d 24 3f 5e f5 c7 3e 1f 8b 47 be bf a5 bd bd
       0.6425348 0.39054388 -0.19486664 -0.09260129
000160 58 e5 ad be 05 a8 9a 3e 63 ec 9f bd 88 64 9d bf
       -0.33964038 0.30206314 -0.07808759 -1.2296305
000170 c8 38 c3 be 58 13 4e 3d 0b ec ae be 19 72 11 bf
       -0.38129258 0.050311416 -0.34164461 -0.56814724
000180 a1 e4 ad bf cd 90 df 3e 17 5c 14 be 65 14 2c bf
       -1.3585397 0.43665162 -0.14488254 -0.6721862
000190 21 ed 82 3e 27 2e 89 bd f5 72 56 bf 03 04 90 bf
       0.2557154 -0.06698256 -0.8376916 -1.1251224
0001a0 fa 61 be 3e d1 73 4b be 8a 95 99 be f9 c6 75 be
       0.37184125 -0.19868399 -0.29996902 -0.24001683
0001b0 91 ae fa 3e 98 dd 9e bf 01 4a 75 bf 7c 83 a1 3c
       0.4896131 -1.2411375 -0.95816046 0.019716017
0001c0 4d 90 43 3e 49 b7 d2 3e 99 ca 84 bf 9b af e6 3d
       0.19098015 0.4115546 -1.0374328 0.11263963
0001d0 6d 36 02 be 30 d1 dd be f0 1a 17 bf ca fa e6 bd
       -0.12716074 -0.4332366 -0.5902548 -0.11278303
0001e0 81 28 39 bf 01 74 55 3f 9b f0 a9 bf 78 cb cf bd
       -0.7232743 0.8338013 -1.3276552 -0.101462305
0001f0 66 1b b2 be 7a ec 93 3c 4a 8a cd be 3a b1 97 bf
       -0.34786528 0.018057097 -0.4014457 -1.185096
000200 b8 43 3a c0 e1 41 34 c0 4a 13 74 bf fd 9c 3e bf
       -2.9103832 -2.816521 -0.9534193 -0.74458295
000210 59 9c 20 3e a8 c5 4a c0 7c 68 a0 3f c1 df cc 3f
       0.15684642 -3.168314 1.2531886 1.6005784
000220 48 e2 a0 bf b2 e7 7f c0 4f 37 75 bf 38 25 d5 3d
       -1.2569056 -3.9985166 -0.9578752 0.104074895
000230 f7 c1 a9 3e 35 b4 3f bd dd 5d 0d 3c cc 1e 60 bf
       0.33155796 -0.04680272 0.008628336 -0.8754699
000240 65 3f 9a bf 6a 6f b8 bf 92 0c 53 c0 9f 9a 77 bf
       -1.2050596 -1.4409001 -3.2976422 -0.9672031
000250 4f 6a 11 c0 fc c3 9a bf 36 92 b6 bf 1b 1e 90 c0
       -2.2721136 -1.209106 -1.426337 -4.503675
000260 6d 33 2e c0 14 74 c3 bf 4d 69 50 3f cf 7c 60 bf
       -2.7218888 -1.5269799 0.81410676 -0.8769044
000270 3e 62 ba be 27 a1 85 3e 08 73 60 bf 25 cc dd bf
       -0.36403078 0.26099512 -0.87675524 -1.7327925
000280 d7 f9 0e 3f e9 ef 74 bf 12 47 31 3f 6a a5 11 3d
       0.55849975 -0.95678574 0.6924907 0.03555814
000290 ac 30 55 3f 99 a4 0b bf a7 42 60 bc e1 44 29 c0
       0.8327739 -0.5454803 -0.013687766 -2.644829
0002a0 8b 22 b7 bf 3d f1 ca 3e 98 bd b0 3d 38 c6 7d c0
       -1.4307417 0.39637175 0.08629912 -3.9652233
0002b0 b0 ce 1c 3f 89 b0 9b bd 26 73 e3 be cb 05 37 c0
       0.6125288 -0.07602031 -0.4442379 -2.8597286
0002c0 88 df 47 3e eb 26 37 3f a0 8f 2f c0 5e 34 a2 3e
       0.19518864 0.7154376 -2.7431412 0.31680578
0002d0 03 19 b1 bf cb 28 60 bf af c7 19 bf ac 0e 0e bf
       -1.3835758 -0.87562245 -0.6007032 -0.5549114
0002e0 63 ed 5f bf 31 91 7d c0 24 78 7e c0 59 57 c7 3f
       -0.874716 -3.9619868 -3.9760828 1.5573531
0002f0 4b 9b dd bf 0d 98 5b bf 48 31 45 3f 0a ba 04 bf
       -1.7313017 -0.85778886 0.7702832 -0.51846373
000300 72 84 31 3d 46 1c 16 be 16 1f 13 bd 0e a1 6d be
       0.0433392 -0.14659223 -0.035918318 -0.23205969
000310 0a b8 82 be f5 d9 1a bf 65 eb 1c 3e f9 14 71 bf
       -0.25531036 -0.60488826 0.15324171 -0.94172627
000320 26 9c d3 be 39 12 2d bf 8c b6 11 be 5e cc e2 3d
       -0.4133007 -0.6760593 -0.14229792 0.11074136
000330 70 fe ef be 39 5a 3b be 9b b4 43 be ff 16 98 be
       -0.46873808 -0.18296136 -0.19111864 -0.29705045
000340 f7 54 c1 bd 21 36 60 bc 3a 03 9a 3c ff 02 3e be
       -0.09440034 -0.01368478 0.018800367 -0.1855583
000350 90 0d 0c be 88 3c b3 be 93 0f a9 3d 95 b6 a8 3e
       -0.13677049 -0.3500712 0.08254924 0.329518
000360 c4 2c 56 bf ee 84 19 bf f5 9b 01 be b5 4b 5e bf
       -0.83662057 -0.5996846 -0.12657149 -0.8683427
000370 16 b6 35 3e 8f 71 e0 bd 6f 7d 34 be bd 1c 94 be
       0.17745242 -0.109591596 -0.17625974 -0.28928176
000380 0d 1e 53 bf ff 68 6a be 23 94 14 3e 13 a5 bd be
       -0.8246773 -0.22891615 0.14509635 -0.37040004
000390 7e 72 09 3b ab 7a 1c bf 8c f0 41 be 29 54 80 bf
       0.0020972784 -0.61124676 -0.18939418 -1.0025684
0003a0 44 11 bc 3d 02 cf 4e bf 3d fe b3 3c 76 25 a1 3e
       0.09182981 -0.8078462 0.021971816 0.31473893
0003b0 5e a6 8a bf 05 0e 0a bf 1d c0 d4 be 2e 51 f9 be
       -1.0832021 -0.5392764 -0.4155282 -0.48694748
0003c0 52 2c a8 bd 00 55 20 bf f1 da 82 bf 24 2b 2d 3e
       -0.082115784 -0.626297 -1.0223066 0.16910988
0003d0 f9 79 11 bf ff b6 57 bf 07 d9 5e bf 46 29 83 be
       -0.5682674 -0.84263605 -0.8704991 -0.25617427
0003e0 0f 3c 19 3d 34 3d a7 be f9 e2 35 bf 0d b4 11 bf
       0.037410792 -0.32663882 -0.7104946 -0.5691536
0003f0 94 5f 43 bf a0 63 43 3e e3 e6 c2 3d c4 88 38 bf
       -0.76317716 0.19080973 0.095166944 -0.7208369

fc2.bias f4 [64]
000000 38 9d 73 40 c4 b4 4d bf 2c 11 0e bf b8 f5 66 3f
       3.8064709 -0.8035395 -0.5549495 0.9021869
000010 e6 cf 90 bd 24 3b 3f 3d d6 88 3c 3f 2d a6 4d c0
       -0.070709035 0.04668726 0.73646295 -3.2132676
000020 cd 07 80 3f ad 8d 49 3d 5b 1c 92 bd e1 23 31 40
       1.0002381 0.04920738 -0.071343146 2.7678149
000030 92 b2 b0 bf a1 71 28 bc f2 1c 21 bc 98 26 ae bf
       -1.3804495 -0.0102809975 -0.009833561 -1.3605528
000040 30 e0 47 bf 0f c9 d0 3f f9 f4 f9 bf f8 44 5e bf
       -0.7807646 1.6311358 -1.9527885 -0.8682399
000050 c5 58 9c bf b1 96 d1 bf 47 c1 26 bf f7 99 78 3e
       -1.221459 -1.6374112 -0.6513867 0.24277483
000060 af 1c 54 3f 3d 6c 0e bf c0 5e 15 c0 14 59 17 bf
       0.8285627 -0.5563391 -2.333908 -0.591203
000070 27 76 29 bf 18 28 9f 40 eb 7a e6 be ab 67 7d 3e
       -0.6619591 4.9736443 -0.45015654 0.24746577
000080 25 56 8e 3f b7 1e c1 bf 18 35 53 3e 82 ac 47 40
       1.1120039 -1.5087498 0.20625722 3.119904
000090 a4 16 37 40 2e 87 12 40 ca 17 10 3f f6 08 36 41
       2.8607569 2.2895007 0.562863 11.377188
0000a0 cb 5a 55 bf 91 50 9b bf 71 ca db be 10 a5 8b bf
       -0.83341664 -1.2133962 -0.42927888 -1.0909748
0000b0 be ea 69 3e 1a ee 81 c0 b7 b2 1a be 34 f6 77 c0
       0.22843453 -4.060315 -0.15107237 -3.874402
0000c0 33 6d 50 c0 5c 2b 56 c0 13 72 9b 3f 27 38 a4 3f
       -3.256665 -3.3463964 1.2144188 1.2829636
0000d0 2c ad e9 3e 21 c9 d5 bf 48 9d 4b 40 e9 29 a0 3f
       0.45639932 -1.6702005 3.1814747 1.251279
0000e0 dc 25 c2 3c 0e fd 8b bf 32 8d 00 40 56 59 75 40
       0.023699693 -1.0936601 2.0086179 3.8335776
0000f0 97 bb 34 bf 2c e5 a3 3f e9 bc 9d bf 84 2c 06 3e
       -0.7059874 1.2804313 -1.2323276 0.13102919

fc3.weight f4 [64, 64]
000000 72 57 92 bf d9 e0 7e be 0a de a3 3f 9c bd 82 3f
       -1.1432936 -0.2489046 1.2802136 1.0214114
000010 56 a3 ea 3e ff 13 f9 3f 87 3e da 3e 3b e3 42 bf
       0.4582774 1.9459227 0.4262583 -0.76127976
000020 c9 a1 f5 3d fa 26 de be 81 95 86 bf ac 4e 05 40
       0.11993749 -0.43389112 -1.0514375 2.0829268
000030 c6 92 8d 3f 0e 1d c1 be b2 a7 ed be f1 6e 67 bf
       1.1060417 -0.3771748 -0.46417004 -0.9040366
000040 53 43 dc bf 72 c0 fd 3e 5e f4 06 bf ec a4 59 3e
       -1.7208046 0.49560887 -0.52716625 0.21254319
000050 e0 b1 38 bf ba 2a 18 bf f0 7d 95 be d7 16 e5 3f
       -0.72146416 -0.59440196 -0.29197645 1.7897595
000060 cc 0f e1 3e cd fa 04 40 5d e5 d5 bf de 58 d7 bf
       0.43957365 2.0778077 -1.6710621 -1.6823995
000070 78 bc 13 3f a7 5c 09 3f 90 1d c6 3d 8a aa 7f 3f
       0.57709455 0.53657 0.09673607 0.99869597
000080 07 42 a2 3f 29 e6 be 3b f3 23 3c 3e fc 6f 81 bf
       1.26764 0.005825777 0.18373089 -1.01123
000090 77 e9 ad bf 5f 83 b8 bf 50 0a 26 bf f1 73 85 bf
       -1.3586873 -1.4415091 -0.64859486 -1.0426008
0000a0 e3 42 34 3d a9 f6 71 3d 28 11 f7 be 2d 10 d0 bf
       0.0440091 0.059073124 -0.48255277 -1.6254936
0000b0 c0 21 c6 bf 06 60 0b 3e b7 2c fa be 44 f0 2c bb
       -1.547905 0.13610849 -0.4886224 -0.0026388327
0000c0 47 00 1a 3f 07 d1 0f c0 5f dc 8a be fc c0 7b 3f
       0.60156673 -2.247133 -0.27121255 0.98341346
0000d0 75 dd 70 bf 30 72 a2 3e 7b e1 af 3e 36 73 c7 3f
       -0.94087917 0.31727743 0.34351715 1.5582035
0000e0 8f 67 0f 40 b4 f3 d5 be 3c e6 59 bf 21 92 47 3d
       2.2406957 -0.41787493 -0.85116935 0.048723344
0000f0 e3 b5 a2 3f 32 bb 0d bf d2 44 a5 3f bd fe 0e c0
       1.2711757 -0.5536376 1.2911627 -2.234298
000100 c9 8f bb 3d 67 b5 92 bd 89 75 31 bf 35 fa d0 3f
       0.09158284 -0.07163506 -0.6931997 1.6326357
000110 d9 5d a5 3f 32 4f 50 40 6b 96 a0 3f 10 8b 07 3f
       1.2919265 3.2548337 1.2545904 0.5294657
000120 cd 3c 7b bf b5 1e 1d 3f 57 1d fe bf 47 ba 6e be
       -0.9813965 0.6137498 -1.9852704 -0.23313247
000130 84 5a 7c bf 34 07 a7 3f 69 41 61 c0 3e 50 b1 bf
       -0.98575616 1.3049073 -3.5196173 -1.3852613
000140 3e 2f c4 3e ba 67 c8 bf 81 54 10 c0 8a 8c d0 be
       0.38317293 -1.5656655 -2.2551577 -0.40732223
000150 e5 1d 96 bf 4b f1 18 bf 6d 59 26 c0 52 2c 6d 3f
       -1.1727873 -0.59743184 -2.599208 0.9264575
000160 69 b2 35 c0 c3 93 cc 3e 39 fd 3c bf fa e7 f0 bf
       -2.8390143 0.39956483 -0.7382389 -1.8820794
000170 85 64 36 40 f7 05 a6 bf 14 37 5e 3f 55 25 41 c0
       2.8498852 -1.297057 0.8680279 -3.0179036
000180 3b 9f 17 40 3e a6 b5 bd 6b 9b fc 3f 38 d8 ef bf
       2.3690937 -0.08869599 1.973493 -1.873786
000190 b8 20 79 c0 e0 c2 4c 3f 97 da d8 bf e2 e8 05 c0
       -3.892622 0.79984856 -1.6941708 -2.092339
0001a0 87 f9 dc 3f f4 90 a5 bf e2 a5 cf bf 25 3f 3f 3d
       1.726365 -1.2934861 -1.6222498 0.04669108
0001b0 ee 7a f9 3f 19 bd b4 3e 37 41 a8 be c9 6e a2 3e
       1.949064 0.3530052 -0.32862255 0.31725147
0001c0 e6 cc ac bf c4 25 7b bf 03 dd 0c 3e 5a 77 cd 3e
       -1.350003 -0.981045 0.13756184 0.4013012
0001d0 70 6e 68 bf 02 72 3f 3f 18 1b d2 bf 11 71 d5 3d
       -0.90793514 0.7478334 -1.6414518 0.10421956
0001e0 61 4e 08 be 53 ee 89 bf 05 09 b0 be 05 ae 52 3e
       -0.13311149 -1.0775856 -0.3438188 0.20574196
0001f0 9a d1 e1 3f b2 60 e1 3f 57 86 25 bf f3 3a a1 bf
       1.764209 1.7607634 -0.6465811 -1.2596115
000200 8c d5 a1 c0 65 25 ff 3e 9d 58 89 3f 7c 8f 4e 40
       -5.0573177 0.49833217 1.0730168 3.2275076
000210 22 03 09 40 bb fe a0 bf b9 66 f1 bf e4 0b e8 3f
       2.1408162 -1.2577738 -1.8859473 1.8128629
000220 42 20 a7 bf 19 e5 35 bf 99 55 28 be f2 8c 97 3f
       -1.3056719 -0.710527 -0.16438903 1.1839888
000230 3c cc 07 3f f1 b6 92 3f 73 25 5a 3f ac 28 b6 3c
       0.5304601 1.1462079 0.8521339 0.02223619
000240 1b 73 21 3f 3a f4 24 3e a8 1f 32 3f 67 2a 5f 3f
       0.6306626 0.1610879 0.69579554 0.87174076
000250 00 ce b7 be d3 75 3d 3d 53 ad a1 3f f9 8f 3e 3f
       -0.35899353 0.046254944 1.2631019 0.74438435
000260 ea 83 f0 3d a1 af 29 bf 42 50 1c 3e 6d 8a 84 3f
       0.117439106 -0.66283613 0.15264991 1.0354744
000270 56 10 88 3f d3 8e 29 3f 4f e8 a7 3e 5c a1 7e bf
       1.0629985 0.6623356 0.32794425 -0.99464965
000280 4e 3c 36 40 23 af 03 c0 c8 d0 8d 3f 11 d8 d9 3f
       2.8474307 -2.0575645 1.107934 1.7019063
000290 8f 4b d0 bf 20 ff a5 bd f6 7c b0 bd 82 2d 1b bf
       -1.6273059 -0.08105302 -0.086175844 -0.60616314
0002a0 3e 60 b7 3f bc 86 7c 3f 1f cc 74 3f 23 f1 c3 3e
       1.4326246 0.9864309 0.95623964 0.3826991
0002b0 4d 16 bd 3f 93 8f 81 be 1b ae 58 bf 3b 14 82 3d
       1.4772431 -0.2530485 -0.84640664 0.06351515
0002c0 eb f7 57 3e b2 5d b3 3d 72 f2 98 3d d2 22 12 c0
       0.21090667 0.08758105 0.07468118 -2.2833753
0002d0 43 5f 9a be 70 e4 87 3f ec e5 ac 3f fa 79 dd 3f
       -0.30150804 1.0616589 1.3507667 1.7302849
0002e0 d3 32 60 be 4a 0d c3 3e 4f 64 2b 3e d2 ab bc bf
       -0.21894388 0.38096076 0.16737483 -1.4739935
0002f0 51 d2 96 bf 0d 8c 12 3f 31 d1 af 3e 0d 3d 08 40
       -1.1782933 0.5724495 0.34339288 2.1287262
000300 76 72 ad bf 4f 8f 93 be 78 22 a7 be 3a 39 23 3f
       -1.3550556 -0.28820273 -0.32643485 0.63759196
000310 c9 36 05 40 b7 1f 72 be 78 40 c9 bf 6e 82 fc 3f
       2.0814688 -0.23644911 -1.5722799 1.9727304
000320 f4 de 7e 3d 9b bc 06 be c6 d5 a2 3f 5a c3 90 3f
       0.062224343 -0.13157885 1.2721488 1.1309617
000330 34 77 10 40 91 f9 e1 3e 81 44 2d 3f d4 da ac c0
       2.2572756 0.44135717 0.67682654 -5.4017124
000340 ab 02 cf bf b1 30 9f bd fe 5d eb 3e d8 a7 96 bf
       -1.6172689 -0.07772959 0.45970148 -1.1769972
000350 1b fd 37 3e 78 55 5d 3f 6c ca dd 3f 4a 38 36 3f
       0.17967646 0.8645854 1.7327399 0.7117964
000360 ee 0c 12 c0 3f 25 80 3e 27 8f 84 3f ee 6a 2b 40
       -2.2820392 0.25028417 1.0356187 2.6784015
000370 d8 45 00 c0 2c 71 cd bf fa 8b 39 3f b2 4c 36 40
       -2.004263 -1.6050162 0.7247921 2.848431
000380 01 c4 79 3f dd 2c 0d c0 1f 70 99 be 35 00 a6 bf
       0.97564703 -2.2058632 -0.29968354 -1.2968813
000390 ba f0 5c 3f 39 25 23 be 6e db 40 bf 5f 8d 4f bf
       0.8630482 -0.15932168 -0.75334823 -0.8107509
0003a0 1c 0b 86 be 5a 3f 49 40 b8 a1 29 3c ed 05 df be
       -0.2618035 3.1444917 0.010353498 -0.4355921
0003b0 db fd c9 bf 40 ce 5f 3f de 8f 2d bf d6 f7 dc be
       -1.5780596 0.8742409 -0.6779765 -0.43157834
0003c0 58 3b b2 3f 12 9c 6e be 74 c1 8f 3f 28 ba 53 c0
       1.392436 -0.23301724 1.1230912 -3.308237
0003d0 ef 6c 23 3d 88 e2 44 c0 c2 50 fd 3f 24 b3 e7 be
       0.03989881 -3.0763264 1.979027 -0.4525386
0003e0 7e a5 82 c0 72 d7 89 be 38 da bf bf a8 16 2b c0
       -4.0827017 -0.26922184 -1.498847 -2.6732578
0003f0 40 ec d3 be ad 0a 95 bf 08 7a 62 bf b9 e6 18 be
       -0.41391182 -1.1643883 -0.88467455 -0.14931764

fc3.bias f4 [64]
000000 ae 0b ff c0 eb 86 e9 40 55 ba 23 c1 39 49 f7 3f
       -7.9701757 7.2977195 -10.232991 1.9319221
000010 89 6f e5 bf a5 d2 9b be 32 14 5d 41 7a dc ee 40
       -1.7924663 -0.30434147 13.8174305 7.4644136
000020 59 e6 1a c1 fd e3 f2 40 75 fd 92 c0 aa 40 cc c0
       -9.681237 7.5903306 -4.5934396 -6.3828936
000030 09 93 fb c0 4d 3b 44 40 e8 36 9a 3f 93 28 26 c1
       -7.8616986 3.0661194 1.2048006 -10.384906
000040 39 4d 14 c1 b0 29 0f 41 16 0c 00 40 07 de 65 41
       -9.268853 8.947678 2.0007377 14.366706
000050 28 72 f7 c0 89 4f e3 c0 96 0b 78 bf 43 9a 22 c1
       -7.732685 -7.103459 -0.9689268 -10.162662
000060 37 a0 b4 40 60 ab 8f c0 85 b3 a5 3f f7 de 51 c0
       5.6445575 -4.48967 1.294541 -3.2792337
000070 af 15 9c bf 68 04 8c c0 f0 a1 15 c1 08 0f a6 c0
       -1.2194117 -4.375538 -9.3520355 -5.189335
000080 09 10 d8 40 e8 ef 93 3f 67 da ed be ca 5e 8f c0
       6.7519574 1.1557589 -0.4645569 -4.480321
000090 6a 0b 2c c1 e5 c4 1c c1 c8 42 5d 41 c1 52 28 40
       -10.752787 -9.79807 13.828804 2.630051
0000a0 81 e4 08 41 e0 fa 19 c1 d6 48 7f c0 44 c3 91 c0
       8.555787 -9.623749 -3.9888206 -4.555086
0000b0 5f 48 36 bf 3b 4c 3c 41 48 52 27 c1 3c bb 9f 3f
       -0.7120418 11.768611 -10.457588 1.2479014
0000c0 41 0d 60 3f 02 0b 07 c1 a5 3a ca c0 5c d3 3a c0
       0.87520224 -8.440187 -6.3196588 -2.9191504
0000d0 fd 04 21 c0 ce d4 04 c0 39 72 56 40 3f 84 13 c1
       -2.5159295 -2.0754886 3.3507216 -9.219787
0000e0 17 e6 34 40 2d f3 89 c0 58 7d f6 3f 8d 39 b1 bf
       2.8265436 -4.3109345 1.9257002 -1.3845688
0000f0 a2 a3 22 40 c6 02 1b 3f b4 d7 3a c0 20 7e 92 be
       2.5412374 0.60551107 -2.9194155 -0.2861185

q_out.weight f4 [1, 64]
000000 4b 5a ad be 41 11 79 3f 85 05 77 be a2 a6 b4 3e
       -0.3385795 0.9729195 -0.241232 0.3528338
000010 30 f6 f9 bd 65 fe df be 93 1b 04 40 e7 8e 3b 40
       -0.1220516 -0.43748775 2.064183 2.930597
000020 42 d6 1d be d4 da 8e 3e 72 73 ff be 0d 79 67 3e
       -0.15413764 0.27901328 -0.49892765 0.22604771
000030 dd 44 a4 be 49 b7 88 3f 35 12 21 3f 0c d3 8b be
       -0.3208379 1.0680934 0.62918407 -0.27309453
000040 77 2b 11 bf c4 2d d4 3f c8 79 01 3f 2d ae fb 3e
       -0.5670695 1.6576467 0.5057645 0.49156323
000050 09 c6 a9 be f4 6b 36 bf 1b 25 f9 be 29 c6 80 be
       -0.331589 -0.71258473 -0.48661122 -0.25151184
000060 db 00 04 3f cc 8c 5c 3e 98 49 ae 3c c5 c7 36 3f
       0.51563805 0.21538085 0.021275327 0.71398574
000070 20 05 8a 3f 41 4a 8a 3f 6c 13 62 be b1 24 a5 3d
       1.0782814 1.080391 -0.22077721 0.08063639
000080 fe 39 af 3f e0 50 29 3e 96 cf 81 3e 2c 53 c4 be
       1.3689573 0.16534758 0.25353688 -0.38344705
000090 97 24 5a be 7f 22 68 bf 53 32 08 40 5d 0d 27 3e
       -0.2130302 -0.90677637 2.1280715 0.16313691
0000a0 0c ea 11 40 46 27 82 bf 5b 94 e5 3e 97 64 5d bf
       2.27991 -1.0168235 0.4483975 -0.8648161
0000b0 02 da 15 3d cf c4 86 3e 59 3f 7d be 05 ff 2f 3e
       0.03658486 0.26322028 -0.24731196 0.17187126
0000c0 80 f6 3f 40 de 74 24 bf c4 da 39 bf 7b c4 83 bd
       2.9994202 -0.64240825 -0.72599435 -0.0643396
0000d0 63 c0 d4 3e 90 ea 6f be da 6b e9 bf b9 80 4b bf
       0.4155303 -0.23429322 -1.8236039 -0.7949329
0000e0 5a f0 64 bf 6e d9 9f 3e 53 35 8c 3f ab d4 d7 be
       -0.8942925 0.31220573 1.0953773 -0.4215444
0000f0 f1 be 56 3f 47 0f ed 3e 31 a2 84 be ef d6 98 3c
       0.83885103 0.46300718 -0.25904992 0.018657176
