maddpg/MADDPG-master/model/simple_tag/agent_1/2_critic_params.pkl (torch, 52175 bytes, 7 tensors)

fc1.weight f4 [64, 63]
-0.46038657 0.20799541 -1.0875331 -0.05233708 -1.2152151 0.4450849 -0.49164435 2.1840482
1.704748 0.1566821 -0.16377455 1.3815508 2.7944038 1.1930784 0.03891572 -0.68310934
-0.18821427 0.37643182 -1.5639968 2.6153414 -0.092227936 -1.7186717 -0.9365762 -1.354824
-1.630611 -0.11692153 -0.80880296 -0.05234673 1.0393964 -1.1916474 0.09698336 -0.607035
-0.7879225 0.13241205 -0.8221113 0.3927731 -1.032179 0.3815187 -1.1821917 1.5696747
0.16775948 -1.2189548 0.88473123 0.24109922 3.1503117 -2.9455838 0.03616854 -0.6553249
-0.07895876 -0.76483697 -0.106264755 0.52328056 -0.487399 -0.21652704 -0.3706783 -0.1941889
0.4983124 -0.09369104 -0.28150502 -0.55728567 0.24542475 -0.06266983 -0.19831039 0.8310779
0.93395364 0.82620484 -0.11377732 -0.7126398 -0.43790856 -0.30468452 0.48964062 -0.63875026
3.6539931 -0.39599144 0.993686 5.044925 -1.5269003 1.9412856 1.9712514 1.1645422
0.5071518 0.23237182 -0.0067740353 -0.20419584 -0.26676205 -0.32939655 0.42563203 0.6009653
-3.600194 0.23918281 -0.23821813 4.8855987 -0.43546283 1.9820375 1.7953335 0.6081776
0.49029163 -0.28969407 -0.54996836 0.2027371 0.20890318 0.696732 0.8945647 0.5151622
-1.172767 -0.22744966 0.10623386 2.4072773 2.9412525 1.8753641 1.8997995 0.049699616
0.0033502174 0.12527603 0.37511835 -0.27039504 0.0688332 0.5855208 0.1037546 -0.14777327
-0.3808385 -0.13519748 0.22663079 -0.6875192 -0.12664047 -0.27636385 0.47749314 0.89324546
0.13820747 0.58110243 -0.75713915 1.187537 -0.53643143 -0.109796 0.23673978 -2.5352168
-1.0745809 0.48362938 -2.0743568 4.374862 0.13951369 0.4580649 -0.2591432 -0.36808506
-1.1059426 1.3455867 -0.53109235 0.20876285 0.3946245 -0.52977103 -0.22713399 2.4418917
-0.05145864 2.2425938 -2.4739337 3.7177794 0.18611582 0.41469854 -0.14681654 0.23666534
0.18532114 1.462438 -0.7314107 0.027339399 -0.63929063 -0.87238526 0.9896237 -0.31532952
-0.0536685 -2.2605977 -2.4250157 0.013724243 0.15508576 0.54204035 0.067446455 -0.67632926
-0.008575472 1.0295585 -0.7900166 0.063164175 -0.010845206 0.07187105 -0.71105677 0.4754994
-0.33696166 -0.20709017 0.38287386 0.56550735 0.2026195 -0.44748613 -0.7797952 -0.24934754
-3.9637449 1.4611901 0.03907783 -2.0019038 -0.0027833895 1.2407078 0.46386045 0.8190945
-1.1855242 -2.6246722 -0.515686 1.8813428 0.32579273 0.41223958 0.6448424 -0.2251226
-0.92324644 1.309729 -2.6007204 -0.43625918 -1.8472112 -1.0745841 -0.51258034 -0.19371174
1.5300574 -1.6559691 3.4708211 1.834606 0.39895254 0.38503084 0.73625076 -0.2973994
-2.3727567 0.15730508 -0.9175333 -1.3098798 -0.30178502 -0.76480275 1.054255 0.29206336
-1.4393594 0.6493254 0.17157616 1.8952459 0.41081345 0.49638972 -0.8342739 -0.28839734
-0.31773326 0.5139063 0.30521393 0.7531078 0.8512275 0.14657488 0.31735724 -0.67994523
-0.5288841 -0.14456414 -0.33465707 2.5954192 -0.87506855 0.07109339 -0.106523775 -0.34425005
00000000: cab7 ebbe c0fc 543e 4934 8bbf 685f 56bd
00000010: 2b8c 9bbf 2be2 e33e cfb8 fbbe 72c7 0b40
00000020: 2f35 da3f 4671 203e 84b4 27be a8d6 b03f
00000030: 83d7 3240 cbb6 983f 1766 1f3d 41e0 2ebf
00000040: 3ebb 40be acbb c03e 0c31 c8bf c161 2740
00000050: 00e2 bcbd 6ffd dbbf 75c3 6fbf df6a adbf
00000060: dcb7 d0bf 8e74 efbd b60d 4fbf 8669 56bd
00000070: f10a 853f e787 98bf 369f c63d a566 1bbf
00000080: 4ab5 49bf 0697 073e e375 52bf 8e19 c93e
00000090: 711e 84bf 6b56 c33e 0f52 97bf 1aeb c83f
000000a0: 24c9 2b3e b606 9cbf bf7d 623f b7e2 763e
000000b0: b59e 4940 7284 3cc0 7725 143d 5fc3 27bf
000000c0: 21b5 a1bd 5bcc 43bf 56a1 d9bd b7f5 053f
000000d0: 5d8c f9be 44b9 5dbe 8cc9 bdbe 74d9 46be
000000e0: ce22 ff3e 17e1 bfbd 6d21 90be 46aa 0ebf
000000f0: a050 7b3e 0a59 80bd e111 4bbe 85c1 543f
00000100: 9617 6f3f 2982 533f 1504 e9bd 906f 36bf
00000110: 8d35 e0be 9cff 9bbe 2db2 fa3e 2385 23bf
00000120: 06db 6940 64bf cabe 3562 7e3f 0770 a140
00000130: 7871 c3bf 0c7c f83f f751 fc3f b80f 953f
00000140: b3d4 013f e1f2 6d3e baf8 ddbb b718 51be
00000150: 0995 88be aaa6 a8be 71ec d93e ddd8 193f
00000160: 9469 66c0 57ec 743e 74ef 73be d356 9c40
00000170: fcf4 debe 68b3 fd3f 7dcd e53f 87b1 1b3f
00000180: 8107 fb3e c852 94be baca 0cbf 509a 4f3e
00000190: b7ea 553e 075d 323f 3102 653f ace1 033f
000001a0: 3b1d 96bf 90e8 68be 2391 d93d d510 1a40
000001b0: 7b3d 3c40 ee0b f03f a12c f33f d391 4b3d
000001c0: 528f 5b3b 5c48 003e 830f c03e 3871 8abe
000001d0: 6cf8 8c3d b1e4 153f 4b7d d43d e051 17be
000001e0: 44fd c2be 3571 0abe e711 683e 4201 30bf
000001f0: 0aae 01be 907f 8dbe fb79 f43e bcab 643f
00000200: 4286 0d3e 21c3 143f dfd3 41bf 3601 983f
00000210: 9253 09bf badc e0bd ea6b 723e fe40 22c0
00000220: de8b 89bf 459e f73e 43c2 04c0 dffe 8b40
00000230: addc 0e3e 7c87 ea3e 6bae 84be a575 bcbe
00000240: 878f 8dbf 2f3c ac3f abf5 07bf eec5 553e
00000250: 390c ca3e 139f 07bf d095 68be f447 1c40
00000260: 4bc6 52bd a886 0f40 ee54 1ec0 19f0 6d40
00000270: 2595 3e3e 5e53 d43e 1357 16be 6658 723e
00000280: d3c4 3d3e 2b31 bb3f bb3d 3bbf e0f6 df3c
00000290: 8da8 23bf a454 5fbf fb57 7d3f df72 a1be
000002a0: 80d3 5bbd a2ad 10c0 7533 1bc0 a6db 603c
000002b0: cdce 1e3e 28c3 0a3f 5e21 8a3d ea23 2dbf
000002c0: 2380 0cbc 93c8 833f 873e 4abf 385c 813d
000002d0: 17b0 31bc 2131 933d d107 36bf a874 f33e
000002e0: 3d86 acbe 720f 54be 0b08 c43e 17c5 103f
000002f0: 7c7b 4f3e e71c e5be a9a0 47bf f654 7fbe
00000300: ffad 7dc0 4708 bb3f 1310 203d 311f 00c0
00000310: 8769 36bb 83cf 9e3f 1e7f ed3e 2db0 513f
00000320: 42bf 97bf a1fa 27c0 ff03 04bf d7cf f03f
00000330: 4ece a63e 1111 d33e 6414 253f 8a86 66be
00000340: e159 6cbf 33a5 a73f 3472 26c0 5d5d dfbe
00000350: 6b71 ecbf f98b 89bf 7738 03bf 5f5c 46be
00000360: ecd8 c33f ccf6 d3bf ef21 5e40 5fd4 ea3f
00000370: 8243 cc3e c322 c53e ee7a 3c3f bc44 98be
00000380: 3fdb 17c0 9514 213e 76e3 6abf 24aa a7bf
00000390: 9183 9abe 1dca 43bf d4f1 863f 5489 953e
000003a0: ee3c b8bf 303a 263f a9b1 2f3e 6b97 f23f
000003b0: 2456 d23e cb26 fe3e f992 55bf d1a8 93be
000003c0: efad a2be 5d8f 033f 0045 9c3e accb 403f
000003d0: 0cea 593f ba17 163e a67c a23e e410 2ebf
000003e0: f364 07bf 9f08 14be 2c58 abbe 591b 2640
000003f0: 7e04 60bf 6999 913d 2329 dabd 8b41 b0be

fc1.bias f4 [64]
-18.29862 -7.3878036 -12.482445 -15.43118 -7.1663103 -10.88302 -0.29310834 -1.0541915
-6.635888 -6.5846252 -0.8609683 -0.49994466 -10.860845 -14.720513 -13.114439 -0.0763404
-0.58615726 -0.007092567 0.56650317 -1.5978118 -5.7425895 -6.2450128 -2.2758534 -7.1894827
4.4876695 -10.922811 -0.6825895 -1.4819758 0.13172425 -13.26363 -8.27442 -3.444485
-4.015791 -16.922594 -0.090740696 -9.748941 -12.25936 -0.8714311 -9.485214 14.794618
-5.3531265 -0.4819026 2.028778 -10.219526 0.1668853 0.15996298 -14.951694 -0.8653528
-10.418667 -8.007277 0.5988837 -0.44731453 -4.726846 -0.40509355 -8.21936 0.41553757
-1.4561131 -11.933186 0.4346568 -0.9732029 0.050199866 0.020095868 -0.06884932 0.03624368
00000000: 9363 92c1 e368 ecc0 18b8 47c1 1de6 76c1
00000010: 6a52 e5c0 da20 2ec1 4c12 96be bfef 86bf
00000020: 3259 d4c0 40b5 d2c0 6b68 5cbf bff8 ffbe
00000030: 05c6 2dc1 3987 6bc1 bed4 51c1 5b58 9cbd
00000040: 670e 16bf c468 e8bb 5a06 113f 1985 ccbf
00000050: 4bc3 b7c0 25d7 c7c0 95a7 11c0 3e10 e6c0
00000060: fd9a 8f40 d5c3 2ec1 2fbe 2ebf 62b1 bdbf
00000070: b9e2 063e d437 54c1 0664 04c1 7172 5cc0
00000080: 5c81 80c0 7961 87c1 42d6 b9bd aafb 1bc1
00000090: 5726 44c1 1c16 5fbf 70c3 17c1 c1b6 6c41
000000a0: d04c abc0 f0bb f6be 80d7 0140 2e83 23c1
000000b0: fbe3 2a3e 56cd 233e 233a 6fc1 c387 5dbf
000000c0: dcb2 26c1 ce1d 00c1 7150 193f 6906 e5be
000000d0: 5342 97c0 6c68 cfbe 8082 03c1 57c1 d43e
000000e0: ea61 babf 54ee 3ec1 568b de3e d323 79bf
000000f0: 609e 4d3d 17a0 a43c df00 8dbd 4174 143d

fc2.weight f4 [64, 64]
0.24297069 -0.06504183 -0.6262529 0.45433277 0.06812413 0.7878175 -0.10871741 -2.1753066
0.30812046 -1.4720724 -0.77229625 0.08994778 0.13663055 0.46219313 0.092338 -0.06499256
-0.84415114 -0.059555274 -1.3312589 -0.088705376 -0.88178647 -0.87179536 0.01951472 -0.41155759
-0.6802468 0.16752501 0.18671061 -0.80012476 0.34502733 -1.7321786 -0.06672972 -0.4902533
-0.4774253 0.1468899 -0.87157744 0.01443491 0.019361319 -0.23327842 0.19042082 -1.2110823
0.033574715 -1.4916031 -0.81878525 -0.7636017 0.019667743 0.52957535 -0.33622676 -0.14770325
-0.18411809 -0.8211666 -0.19571361 -1.8004516 0.6227879 0.11109118 0.086235374 -1.0281717
0.052554578 -0.51280355 -0.5753466 -0.12177661 -0.14215076 -0.060270604 -0.3350633 -1.0420994
-0.38780618 -1.3370858 -0.67752755 0.30352858 0.2697887 -0.7026951 -0.7693674 -0.11436449
0.101304166 -0.55748236 -0.09958168 -0.30157557 -0.3464496 -0.29652014 -0.23300225 0.026480408
-1.4088714 0.07895974 -2.0722516 -0.47994104 0.6425348 0.39054388 -0.19486664 -0.09260129
-0.33964038 0.30206314 -0.07808759 -1.2296305 -0.38129258 0.050311416 -0.34164461 -0.56814724
-1.3585397 0.43665162 -0.14488254 -0.6721862 0.2557154 -0.06698256 -0.8376916 -1.1251224
0.37184125 -0.19868399 -0.29996902 -0.24001683 0.4896131 -1.2411375 -0.95816046 0.019716017
0.19098015 0.4115546 -1.0374328 0.11263963 -0.12716074 -0.4332366 -0.5902548 -0.11278303
-0.7232743 0.8338013 -1.3276552 -0.101462305 -0.34786528 0.018057097 -0.4014457 -1.185096
-2.9103832 -2.816521 -0.9534193 -0.74458295 0.15684642 -3.168314 1.2531886 1.6005784
-1.2569056 -3.9985166 -0.9578752 0.104074895 0.33155796 -0.04680272 0.008628336 -0.8754699
-1.2050596 -1.4409001 -3.2976422 -0.9672031 -2.2721136 -1.209106 -1.426337 -4.503675
-2.7218888 -1.5269799 0.81410676 -0.8769044 -0.36403078 0.26099512 -0.87675524 -1.7327925
0.55849975 -0.95678574 0.6924907 0.03555814 0.8327739 -0.5454803 -0.013687766 -2.644829
-1.4307417 0.39637175 0.08629912 -3.9652233 0.6125288 -0.07602031 -0.4442379 -2.8597286
0.19518864 0.7154376 -2.7431412 0.31680578 -1.3835758 -0.87562245 -0.6007032 -0.5549114
-0.874716 -3.9619868 -3.9760828 1.5573531 -1.7313017 -0.85778886 0.7702832 -0.51846373
0.0433392 -0.14659223 -0.035918318 -0.23205969 -0.25531036 -0.60488826 0.15324171 -0.94172627
-0.4133007 -0.6760593 -0.14229792 0.11074136 -0.46873808 -0.18296136 -0.19111864 -0.29705045
-0.09440034 -0.01368478 0.018800367 -0.1855583 -0.13677049 -0.3500712 0.08254924 0.329518
-0.83662057 -0.5996846 -0.12657149 -0.8683427 0.17745242 -0.109591596 -0.17625974 -0.28928176
-0.8246773 -0.22891615 0.14509635 -0.37040004 0.0020972784 -0.61124676 -0.18939418 -1.0025684
0.09182981 -0.8078462 0.021971816 0.31473893 -1.0832021 -0.5392764 -0.4155282 -0.48694748
-0.082115784 -0.626297 -1.0223066 0.16910988 -0.5682674 -0.84263605 -0.8704991 -0.25617427
0.037410792 -0.32663882 -0.7104946 -0.5691536 -0.76317716 0.19080973 0.095166944 -0.7208369
00000000: 4fcd 783e a734 85bd 1c52 20bf 4e9e e83e
00000010: aa84 8b3d 68ae 493f 3ca7 debd 3938 0bc0
00000020: f7c1 9d3e de6c bcbf 35b5 45bf 8b36 b83d
00000030: e1e8 0b3e 94a4 ec3e b51b bd3d d21a 85bd
00000040: 4a1a 58bf 3bf0 73bd b166 aabf 2aab b5bd
00000050: c2bc 61bf fb2d 5fbf 56dd 9f3c adb7 d2be
00000060: a724 2ebf ad8b 2b3e 1131 3f3e fad4 4cbf
00000070: 6ca7 b03e 07b8 ddbf 97a9 88bd 7b02 fbbe
00000080: 1771 f4be 4e6a 163e b31f 5fbf 6780 6c3c
00000090: a19b 9e3c 8ae0 6ebe adfd 423e bf04 9bbf
000000a0: a485 093d daec bebf e99b 51bf 677b 43bf
000000b0: 3f1e a13c 4092 073f ea25 acbe 853f 17be
000000c0: 7489 3cbe f937 52bf 2669 48be 3375 e6bf
000000d0: 076f 1f3f c683 e33d 2c9c b03d 219b 83bf
000000e0: 7843 573d 1847 03bf ea49 13bf 0466 f9bd
000000f0: f88f 11be 4fde 76bd 6b8d abbe 8363 85bf
00000100: 888e c6be a125 abbf 7272 2dbf 1968 9b3e
00000110: bf21 8a3e d3e3 33bf 43f5 44bf ee37 eabd
00000120: 8f78 cf3d 2ab7 0ebf 7bf1 cbbd 1d68 9abe
00000130: d861 b1be 7dd1 97be 2498 6ebe 71ed d83c
00000140: e655 b4bf a5b5 a13d c59f 04c0 d5ba f5be
00000150: 297d 243f 5ef5 c73e 1f8b 47be bfa5 bdbd
00000160: 58e5 adbe 05a8 9a3e 63ec 9fbd 8864 9dbf
00000170: c838 c3be 5813 4e3d 0bec aebe 1972 11bf
00000180: a1e4 adbf cd90 df3e 175c 14be 6514 2cbf
00000190: 21ed 823e 272e 89bd f572 56bf 0304 90bf
000001a0: fa61 be3e d173 4bbe 8a95 99be f9c6 75be
000001b0: 91ae fa3e 98dd 9ebf 014a 75bf 7c83 a13c
000001c0: 4d90 433e 49b7 d23e 99ca 84bf 9baf e63d
000001d0: 6d36 02be 30d1 ddbe f01a 17bf cafa e6bd
000001e0: 8128 39bf 0174 553f 9bf0 a9bf 78cb cfbd
000001f0: 661b b2be 7aec 933c 4a8a cdbe 3ab1 97bf
00000200: b843 3ac0 e141 34c0 4a13 74bf fd9c 3ebf
00000210: 599c 203e a8c5 4ac0 7c68 a03f c1df cc3f
00000220: 48e2 a0bf b2e7 7fc0 4f37 75bf 3825 d53d
00000230: f7c1 a93e 35b4 3fbd dd5d 0d3c cc1e 60bf
00000240: 653f 9abf 6a6f b8bf 920c 53c0 9f9a 77bf
00000250: 4f6a 11c0 fcc3 9abf 3692 b6bf 1b1e 90c0
00000260: 6d33 2ec0 1474 c3bf 4d69 503f cf7c 60bf
00000270: 3e62 babe 27a1 853e 0873 60bf 25cc ddbf
00000280: d7f9 0e3f e9ef 74bf 1247 313f 6aa5 113d
00000290: ac30 553f 99a4 0bbf a742 60bc e144 29c0
000002a0: 8b22 b7bf 3df1 ca3e 98bd b03d 38c6 7dc0
000002b0: b0ce 1c3f 89b0 9bbd 2673 e3be cb05 37c0
000002c0: 88df 473e eb26 373f a08f 2fc0 5e34 a23e
000002d0: 0319 b1bf cb28 60bf afc7 19bf ac0e 0ebf
000002e0: 63ed 5fbf 3191 7dc0 2478 7ec0 5957 c73f
000002f0: 4b9b ddbf 0d98 5bbf 4831 453f 0aba 04bf
00000300: 7284 313d 461c 16be 161f 13bd 0ea1 6dbe
00000310: 0ab8 82be f5d9 1abf 65eb 1c3e f914 71bf
00000320: 269c d3be 3912 2dbf 8cb6 11be 5ecc e23d
00000330: 70fe efbe 395a 3bbe 9bb4 43be ff16 98be
00000340: f754 c1bd 2136 60bc 3a03 9a3c ff02 3ebe
00000350: 900d 0cbe 883c b3be 930f a93d 95b6 a83e
00000360: c42c 56bf ee84 19bf f59b 01be b54b 5ebf
00000370: 16b6 353e 8f71 e0bd 6f7d 34be bd1c 94be
00000380: 0d1e 53bf ff68 6abe 2394 143e 13a5 bdbe
00000390: 7e72 093b ab7a 1cbf 8cf0 41be 2954 80bf
000003a0: 4411 bc3d 02cf 4ebf 3dfe b33c 7625 a13e
000003b0: 5ea6 8abf 050e 0abf 1dc0 d4be 2e51 f9be
000003c0: 522c a8bd 0055 20bf f1da 82bf 242b 2d3e
000003d0: f979 11bf ffb6 57bf 07d9 5ebf 4629 83be
000003e0: 0f3c 193d 343d a7be f9e2 35bf 0db4 11bf
000003f0: 945f 43bf a063 433e e3e6 c23d c488 38bf

fc2.bias f4 [64]
3.8064709 -0.8035395 -0.5549495 0.9021869 -0.070709035 0.04668726 0.73646295 -3.2132676
0.9962925 0.04920738 -0.071343146 2.6541889 -1.3804495 -0.0102809975 -0.009833561 -1.3605528
-0.7807646 1.7658782 -1.90709 -0.8682399 -1.221459 -1.6374112 -0.6513867 0.24277483
0.736302 -0.5563391 -2.333908 -0.591203 -0.6619591 5.007898 -0.45015654 0.08272402
1.1120039 -1.5087498 0.20625722 3.0802448 2.762256 2.2738323 0.562863 11.424416
-0.83341664 -1.2133962 -0.42927888 -1.0909748 0.22843453 -4.060315 -0.15107237 -3.874402
-3.308603 -3.3463964 1.2144188 1.5700244 0.45639932 -1.6702005 3.0300982 1.251279
0.023699693 -1.0936601 2.0086179 4.1899023 -0.7059874 1.2804313 -1.2323276 0.13102919
00000000: 389d 7340 c4b4 4dbf 2c11 0ebf b8f5 663f
00000010: e6cf 90bd 243b 3f3d d688 3c3f 2da6 4dc0
00000020: 060d 7f3f ad8d 493d 5b1c 92bd 3bde 2940
00000030: 92b2 b0bf a171 28bc f21c 21bc 9826 aebf
00000040: 30e0 47bf 4c08 e23f 861b f4bf f844 5ebf
00000050: c558 9cbf b196 d1bf 47c1 26bf f799 783e
00000060: 4a7e 3c3f 3d6c 0ebf c05e 15c0 1459 17bf
00000070: 2776 29bf b340 a040 eb7a e6be 366b a93d
00000080: 2556 8e3f b71e c1bf 1835 533e bb22 4540
00000090: cdc8 3040 7886 1140 ca17 103f 68ca 3641
000000a0: cb5a 55bf 9150 9bbf 71ca dbbe 10a5 8bbf
000000b0: beea 693e 1aee 81c0 b7b2 1abe 34f6 77c0
000000c0: 27c0 53c0 5c2b 56c0 1372 9b3f 8ff6 c83f
000000d0: 2cad e93e 21c9 d5bf 21ed 4140 e929 a03f
000000e0: dc25 c23c 0efd 8bbf 328d 0040 ae13 8640
000000f0: 97bb 34bf 2ce5 a33f e9bc 9dbf 842c 063e

fc3.weight f4 [64, 64]
-1.1432936 -0.2489046 1.2802136 1.0214114 0.4582774 1.9459227 0.4262583 -0.76127976
-0.0039272313 -0.43389112 -1.0514375 2.0628252 1.1060417 -0.3771748 -0.46417004 -0.9040366
-1.7208046 0.4302831 -0.5483265 0.21254319 -0.72146416 -0.59440196 -0.29197645 1.7897595
0.35113493 2.0778077 -1.6710621 -1.6823995 0.57709455 0.53457564 0.09673607 0.98234385
1.26764 0.005825777 0.18373089 -0.9246652 -1.3487809 -1.4526466 -0.64859486 -1.0933301
0.0440091 0.059073124 -0.48255277 -1.6254936 -1.547905 0.13610849 -0.4886224 -0.0026388327
0.6605522 -2.247133 -0.27121255 0.6305574 -0.94087917 0.31727743 0.33338165 1.5582035
2.2406957 -0.41787493 -0.85116935 -0.22324769 1.2711757 -0.5536376 1.2911627 -2.234298
0.09158284 -0.07163506 -0.6931997 1.6326357 1.2919265 3.2548337 1.2545904 0.5294657
-0.9813965 0.6137498 -1.9852704 -0.23313247 -0.98575616 1.3049073 -3.5196173 -1.3852613
0.38317293 -1.5656655 -2.2551577 -0.40732223 -1.1727873 -0.59743184 -2.599208 0.9264575
-2.8390143 0.39956483 -0.7382389 -1.8820794 2.8498852 -1.297057 0.8680279 -3.0179036
2.3690937 -0.08869599 1.973493 -1.873786 -3.892622 0.79984856 -1.6941708 -2.092339
1.726365 -1.2934861 -1.6222498 0.04669108 1.949064 0.3530052 -0.32862255 0.31725147
-1.350003 -0.981045 0.13756184 0.4013012 -0.90793514 0.7478334 -1.6414518 0.10421956
-0.13311149 -1.0775856 -0.3438188 0.20574196 1.764209 1.7607634 -0.6465811 -1.2596115
-5.0573177 0.49833217 1.0730168 3.2275076 2.1408162 -1.2577738 -1.8859473 1.8128629
-1.4040123 -0.710527 -0.16438903 1.1491208 0.5304601 1.1462079 0.8521339 0.02223619
0.6306626 0.10474912 0.6014904 0.87174076 -0.35899353 0.046254944 1.2631019 0.74438435
0.012554694 -0.66283613 0.15264991 1.0354744 1.0629985 0.6255149 0.32794425 -1.0589752
2.8474307 -2.0575645 1.107934 1.6489886 -1.6539714 -0.12330224 -0.086175844 -0.6362394
1.4326246 0.9864309 0.95623964 0.3826991 1.4772431 -0.2530485 -0.84640664 0.06351515
0.053648457 0.08758105 0.07468118 -1.6234858 -0.30150804 1.0616589 1.3186104 1.7302849
-0.21894388 0.38096076 0.16737483 -1.4769117 -1.1782933 0.5724495 0.34339288 2.1287262
-1.3550556 -0.28820273 -0.32643485 0.63759196 2.0814688 -0.23644911 -1.5722799 1.9727304
-0.33620256 -0.13157885 1.2721488 0.8576894 2.2572756 0.44135717 0.67682654 -5.4017124
-1.6172689 -0.7904906 0.03370165 -1.1769972 0.17967646 0.8645854 1.7327399 0.7117964
-2.0412846 0.25028417 1.0356187 2.6784015 -2.004263 -1.6527902 0.7247921 2.2987852
0.97564703 -2.2058632 -0.29968354 -1.5746462 0.84966296 -0.42966595 -0.75334823 -1.3007703
-0.2618035 3.1444917 0.010353498 -0.4355921 -1.5780596 0.8742409 -0.6779765 -0.43157834
1.4059191 -0.23301724 1.1230912 -3.0210216 0.03989881 -3.0763264 1.811173 -0.4525386
-4.0827017 -0.26922184 -1.498847 -3.4798782 -0.41391182 -1.1643883 -0.88467455 -0.14931764
00000000: 7257 92bf d9e0 7ebe 0ade a33f 9cbd 823f
00000010: 56a3 ea3e ff13 f93f 873e da3e 3be3 42bf
00000020: 01b0 80bb fa26 debe 8195 86bf 5405 0440
00000030: c692 8d3f 0e1d c1be b2a7 edbe f16e 67bf
00000040: 5343 dcbf 114e dc3e 205f 0cbf eca4 593e
00000050: e0b1 38bf ba2a 18bf f07d 95be d716 e53f
00000060: f5c7 b33e cdfa 0440 5de5 d5bf de58 d7bf
00000070: 78bc 133f f3d9 083f 901d c63d e37a 7b3f
00000080: 0742 a23f 29e6 be3b f323 3c3e dcb6 6cbf
00000090: daa4 acbf 53f0 b9bf 500a 26bf 3ef2 8bbf
000000a0: e342 343d a9f6 713d 2811 f7be 2d10 d0bf
000000b0: c021 c6bf 0660 0b3e b72c fabe 44f0 2cbb
000000c0: f319 293f 07d1 0fc0 5fdc 8abe 366c 213f
000000d0: 75dd 70bf 3072 a23e 00b1 aa3e 3673 c73f
000000e0: 8f67 0f40 b4f3 d5be 3ce6 59bf 0b9b 64be
000000f0: e3b5 a23f 32bb 0dbf d244 a53f bdfe 0ec0
00000100: c98f bb3d 67b5 92bd 8975 31bf 35fa d03f
00000110: d95d a53f 324f 5040 6b96 a03f 108b 073f
00000120: cd3c 7bbf b51e 1d3f 571d febf 47ba 6ebe
00000130: 845a 7cbf 3407 a73f 6941 61c0 3e50 b1bf
00000140: 3e2f c43e ba67 c8bf 8154 10c0 8a8c d0be
00000150: e51d 96bf 4bf1 18bf 6d59 26c0 522c 6d3f
00000160: 69b2 35c0 c393 cc3e 39fd 3cbf fae7 f0bf
00000170: 8564 3640 f705 a6bf 1437 5e3f 5525 41c0
00000180: 3b9f 1740 3ea6 b5bd 6b9b fc3f 38d8 efbf
00000190: b820 79c0 e0c2 4c3f 97da d8bf e2e8 05c0
000001a0: 87f9 dc3f f490 a5bf e2a5 cfbf 253f 3f3d
000001b0: ee7a f93f 19bd b43e 3741 a8be c96e a23e
000001c0: e6cc acbf c425 7bbf 03dd 0c3e 5a77 cd3e
000001d0: 706e 68bf 0272 3f3f 181b d2bf 1171 d53d
000001e0: 614e 08be 53ee 89bf 0509 b0be 05ae 523e
000001f0: 9ad1 e13f b260 e13f 5786 25bf f33a a1bf
00000200: 8cd5 a1c0 6525 ff3e 9d58 893f 7c8f 4e40
00000210: 2203 0940 bbfe a0bf b966 f1bf e40b e83f
00000220: adb6 b3bf 19e5 35bf 9955 28be 6416 933f
00000230: 3ccc 073f f1b6 923f 7325 5a3f ac28 b63c
00000240: 1b73 213f b586 d63d 46fb 193f 672a 5f3f
00000250: 00ce b7be d375 3d3d 53ad a13f f98f 3e3f
00000260: 34b2 4d3c a1af 29bf 4250 1c3e 6d8a 843f
00000270: 5610 883f bf21 203f 4fe8 a73e 808c 87bf
00000280: 4e3c 3640 23af 03c0 c8d0 8d3f 0f12 d33f
00000290: 56b5 d3bf e385 fcbd f67c b0bd 96e0 22bf
000002a0: 3e60 b73f bc86 7c3f 1fcc 743f 23f1 c33e
000002b0: 4d16 bd3f 938f 81be 1bae 58bf 3b14 823d
000002c0: 7cbe 5b3d b25d b33d 72f2 983d 62ce cfbf
000002d0: 435f 9abe 70e4 873f 3ac8 a83f fa79 dd3f
000002e0: d332 60be 4a0d c33e 4f64 2b3e 710b bdbf
000002f0: 51d2 96bf 0d8c 123f 31d1 af3e 0d3d 0840
00000300: 7672 adbf 4f8f 93be 7822 a7be 3a39 233f
00000310: c936 0540 b71f 72be 7840 c9bf 6e82 fc3f
00000320: be22 acbe 9bbc 06be c6d5 a23f 8891 5b3f
00000330: 3477 1040 91f9 e13e 8144 2d3f d4da acc0
00000340: ab02 cfbf 985d 4abf be0a 0a3d d8a7 96bf
00000350: 1bfd 373e 7855 5d3f 6cca dd3f 4a38 363f
00000360: 68a4 02c0 3f25 803e 278f 843f ee6a 2b40
00000370: d845 00c0 a18e d3bf fa8b 393f 4c1f 1340
00000380: 01c4 793f dd2c 0dc0 1f70 99be 028e c9bf
00000390: 8383 593f 2dfd dbbe 6edb 40bf a47f a6bf
000003a0: 1c0b 86be 5a3f 4940 b8a1 293c ed05 dfbe
000003b0: dbfd c9bf 40ce 5f3f de8f 2dbf d6f7 dcbe
000003c0: 28f5 b33f 129c 6ebe 74c1 8f3f 6b58 41c0
000003d0: ef6c 233d 88e2 44c0 84d4 e73f 24b3 e7be
000003e0: 7ea5 82c0 72d7 89be 38da bfbf 53b6 5ec0
000003f0: 40ec d3be ad0a 95bf 087a 62bf b9e6 18be

fc3.bias f4 [64]
-8.012273 7.2977195 -10.257035 1.5735313 -1.8587505 -0.0035149546 13.808531 7.2920303
-9.632642 7.602837 -4.7517443 -6.5181065 -7.969014 2.8936157 1.2048006 -10.378064
-9.268853 8.947678 1.6748217 14.360408 -7.8377433 -7.1178102 -1.0928795 -10.153107
5.6298447 -4.48967 1.294541 -3.2792337 -1.2194117 -4.375538 -9.393927 -5.1552486
6.588122 1.6315314 -0.45209026 -4.480321 -10.670268 -9.785255 13.819913 2.608747
8.4059105 -9.616302 -3.9888206 -4.555086 -0.7120418 11.647572 -10.439458 1.2990819
0.87520224 -8.432546 -6.3829045 -2.9191504 -2.521665 -1.9773005 3.3507216 -9.123019
2.5950842 -4.5600247 1.9257002 -0.70908374 2.4456089 0.60551107 -2.9194155 -0.2861185
00000000: 4532 00c1 eb86 e940 d11c 24c1 7969 c93f
00000010: 89eb edbf 275b 66bb beef 5c41 5058 e940
00000020: 4d1f 1ac1 714a f340 4a0e 98c0 5494 d0c0
00000030: 2a02 ffc0 0031 3940 e836 9a3f 8d0c 26c1
00000040: 394d 14c1 b029 0f41 8f60 d63f 3bc4 6541
00000050: cbce fac0 1ac5 e3c0 7ae3 8bbf 2073 22c1
00000060: b027 b440 60ab 8fc0 85b3 a53f f7de 51c0
00000070: af15 9cbf 6804 8cc0 864d 16c1 ccf7 a4c0
00000080: e5d1 d240 05d6 d03f 6078 e7be ca5e 8fc0
00000090: 6bb9 2ac1 6890 1cc1 5d1e 5d41 b6f5 2640
000000a0: 9c7e 0641 5fdc 19c1 d648 7fc0 44c3 91c0
000000b0: 5f48 36bf 745c 3a41 0508 27c1 5148 a63f
000000c0: 410d 603f b5eb 06c1 c140 ccc0 5cd3 3ac0
000000d0: f662 21c0 2f18 fdbf 3972 5640 e3f7 11c1
000000e0: dc15 2640 b9eb 91c0 587d f63f 8386 35bf
000000f0: db84 1c40 c602 1b3f b4d7 3ac0 207e 92be

q_out.weight f4 [1, 64]
-0.40034452 0.9729195 -0.21178949 0.053174682 0.16257042 -0.22681938 2.0790808 2.6703732
-0.18212278 0.22779864 -1.2480752 0.11723547 -0.261603 0.4651866 0.62918407 -0.23084463
-0.5670695 1.6576467 0.34509736 0.5062278 -0.22201702 -0.3837538 -0.3332626 -0.24401152
0.523316 0.21538085 0.021275327 0.71398574 1.0782814 1.080391 -0.30545905 -0.25345972
0.24299046 -0.27692744 0.24976547 -0.38344705 -0.23439875 -0.90589017 2.1428945 0.17122707
2.142991 -1.0088408 0.4483975 -0.8648161 0.03658486 0.27000356 -0.24704935 0.16094913
2.9994202 -0.642204 -0.5908165 -0.0643396 0.4378252 -0.25610033 -1.8236039 -0.69411206
-0.39355767 0.3272585 1.0953773 -0.310284 0.69201565 0.46300718 -0.25904992 0.018657176
00000000: f5f9 ccbe 4111 793f 58df 58be b2cd 593d
00000010: dc78 263e 5743 68be a90f 0540 65e7 2a40
00000020: 657e 3abe 0c44 693e eec0 9fbf 2619 f03d
00000030: d4f0 85be f02c ee3e 3512 213f 8962 6cbe
00000040: 772b 11bf c42d d43f 9ab0 b03e 2598 013f
00000050: 6e58 63be 617b c4be 65a1 aabe 28de 79be
00000060: 0af8 053f cc8c 5c3e 9849 ae3c c5c7 363f
00000070: 2005 8a3f 414a 8a3f 2165 9cbe 79c5 81be
00000080: 7ed2 783e 6fc9 8dbe 85c2 7f3e 2c53 c4be
00000090: 3a06 70be 6be8 67bf 2f25 0940 2656 2f3e
000000a0: c426 0940 b221 81bf 5b94 e53e 9764 5dbf
000000b0: 02da 153d e83d 8a3e 81fa 7cbe d9cf 243e
000000c0: 80f6 3f40 7b67 24bf c03f 17bf 7bc4 83bd
000000d0: a02a e03e 951f 83be da6b e9bf 54b1 31bf
000000e0: 6480 c9be 6d8e a73e 5335 8c3f 8bdd 9ebe
000000f0: f027 313f 470f ed3e 31a2 84be efd6 983c
