maddpg/MADDPG-master/model/simple_tag/agent_1/359_critic_params.pkl (torch, 52175 bytes, 7 tensors)

fc1.weight f4 [64, 63]
0	0xbec37197	-0.381726
1	0x3f20820f	0.62698454
2	0x3f92e4e1	1.1476098
3	0x3f0f059f	0.5586795
4	0xbff82e07	-1.9389046
5	0x3fd94fbe	1.697746
6	0x403d568b	2.9584072
7	0xbe4a1ffd	-0.19738765
8	0x3fe7769d	1.8083073
9	0xbeea6d3f	-0.45786473
10	0xbdc3ac9e	-0.095544085
11	0x3f9e599c	1.2371097
12	0x3f9c6afd	1.222015
13	0x4020a4fd	2.51007
14	0x3b90bbf8	0.004416939
15	0x3d8fef9f	0.07028126
16	0xbeb20044	-0.34765828
17	0xbea4314b	-0.32068858
18	0x3f95c4ea	1.1700718
19	0x40180382	2.375214
20	0xbfbd514a	-1.4790432
21	0x3f21f083	0.63257617
22	0x4006d30c	2.1066313
23	0xc0173faf	-2.363262
24	0xbfddf93f	-1.7341689
25	0x3efec8a8	0.49762464
26	0xc017725f	-2.3663557
27	0x3eec9306	0.4620592
28	0xbfb02959	-1.3762618
29	0x3e388cc7	0.18022452
30	0x3d7ff5b5	0.062490184
31	0x3e15dd74	0.14635259
32	0x3f8a4a85	1.0803992
33	0xbf7c5153	-0.9856159
34	0xbe12fba0	-0.143538
35	0x3f332f05	0.6999362
36	0xbfa5ff13	-1.2968467
37	0x4010061f	2.2503736
38	0x3fdcec8d	1.725969
39	0xbd1d38da	-0.038384296
40	0x3dcbd232	0.09952201
41	0xbf8989be	-1.074516
42	0x401c4e57	2.4422815
43	0xbe8bf040	-0.27331734
44	0x40212bbe	2.5182948
45	0xbfc2bd23	-1.521397
46	0x3ada7699	0.0016667425
47	0x3dc8d4ad	0.0980619
48	0x3f1c4abf	0.61051553
49	0xbed25a41	-0.41084483
50	0x3db9968f	0.0906192
51	0xbe610b56	-0.2197698
52	0x3f53b67e	0.82700336
53	0x3e492538	0.19643104
54	0x3f137cf1	0.5761252
55	0xbf994aaf	-1.1975917
56	0x3cef9442	0.0292455
57	0x3f3bdfad	0.7338818
58	0x3d1e982d	0.038719345
59	0xbfa4508a	-1.2837079
60	0xbd988cae	-0.074487075
61	0xbe0602cf	-0.13087009
62	0xbf02fc07	-0.51165813
63	0x3ea055e1	0.3131552
64	0x3f3afc7b	0.73041505
65	0x3f021c91	0.5082484
66	0x3ec7ed7a	0.39048368
67	0xbf35f26e	-0.71073043
68	0xbeec6110	-0.46167803
69	0xbf2ad204	-0.6672671
70	0xbe90c01f	-0.28271577
71	0xc08b639c	-4.3559093
72	0x4046d653	3.1068313
73	0xc03f24d4	-2.9866228
74	0xc02b24d2	-2.6741223
75	0x40488f3a	3.1337419
76	0xc04b7d99	-3.1795409
77	0x3e83d26a	0.2574647
78	0x3f4e5bba	0.80608714
79	0x3db14b86	0.08656983
80	0x3fadb9e1	1.3572351
81	0xbeedbc97	-0.46432945
82	0x3f07298c	0.5279777
83	0x3e9fba03	0.31196603
84	0xbeb37c63	-0.35055837
85	0xbe3ca06e	-0.18420574
86	0xbeed739b	-0.46377262
87	0x408a2e42	4.3181467
88	0xc04364d9	-3.0530303
89	0x3fa2016c	1.2656684
90	0xc0615f1e	-3.5214305
91	0x40c49fb7	6.1444964
92	0xbfeecb2b	-1.8655752
93	0x3e98aee6	0.29820937
94	0x3f21543e	0.6301917
95	0x3f081292	0.53153336
96	0x3f053751	0.5203753
97	0xbf22adf3	-0.63546675
98	0xbf3c34ae	-0.7351788
99	0x3eae0e60	0.33995342
100	0x3f61aa08	0.8815007
101	0x3edaa855	0.42706552
102	0x3f39768d	0.7244652
103	0x4046c5a8	3.105814
104	0x401faef8	2.4950542
105	0xbfa080cc	-1.2539306
106	0x4058ece4	3.3894587
107	0x4055a285	3.3380444
108	0x408de0ed	4.4337068
109	0x3e442401	0.1915436
110	0x3f3c121a	0.7346512
111	0x3e64dd0d	0.22349949
112	0x3e963bc8	0.29342484
113	0xbebc7eff	-0.3681564
114	0x3f539a8d	0.826577
115	0xbe697e5c	-0.22802109
116	0xbe600c8e	-0.21879789
117	0xbd1e901d	-0.038711656
118	0xbd92befd	-0.071653344
119	0x3e57fd09	0.21092619
120	0xbed4c39c	-0.41555488
121	0x3db9e7b4	0.09077397
122	0xbe076b03	-0.13224415
123	0xbe33bfd4	-0.17553645
124	0x3ea8e80d	0.3298954
125	0xbf057ac6	-0.5214046
126	0x3ea3aa7b	0.31966004
127	0x3e386b7b	0.1800975
128	0x3f170cb9	0.5900379
129	0xc001663e	-2.0218654
130	0xbdcd2985	-0.10017685
131	0x3f819148	1.0122461
132	0xbf6e3b55	-0.93059283
133	0xbfb55c06	-1.4168708
134	0x3f1c9322	0.61162007
135	0xbf9a248e	-1.2042406
136	0xbf64543f	-0.8919105
137	0xbf94ab34	-1.1614747
138	0x4036be79	2.8553755
139	0x402eec12	2.7331586
140	0x3bddf315	0.0067733624
141	0xbe267d4d	-0.16258736
142	0x3d89356a	0.06699641
143	0xbb16bbe0	-0.0023000166
144	0xbeb4ad61	-0.35288528
145	0xbfb7e091	-1.4365407
146	0xbe76c5ed	-0.2409894
147	0x3eee48b6	0.4653985
148	0xbe93a7b2	-0.2883888
149	0xbfd7611c	-1.682651
150	0xbf1a1d48	-0.6020093
151	0x3f8e32b6	1.1109226
152	0xbdc2891b	-0.09498807
153	0xbfe58538	-1.793128
154	0x3f690ce9	0.91035324
155	0x3faa7cab	1.3319296
156	0x3d5a9cd1	0.053372208
157	0xbe52e82b	-0.20596378
158	0x3c86a4cd	0.016436005
159	0xbec46830	-0.3836074
160	0x3f0eb71e	0.55748165
161	0xbfe918e3	-1.821072
162	0xbe94bd86	-0.29050845
163	0x3f25f2a2	0.64823353
164	0xbf90c49f	-1.1310004
165	0xbfd05771	-1.6276685
166	0x3f4e9348	0.80693483
167	0x3faa3620	1.3297768
168	0xbc25e9b5	-0.010126521
169	0x3fe33792	1.7751334
170	0x3f3e91fa	0.7444149
171	0x3f84f713	1.0387901
172	0x3cb70a74	0.022343852
173	0xbda0fe7f	-0.07861041
174	0x3dcff754	0.10154596
175	0x3d92b3cd	0.071632005
176	0xbe757024	-0.2396856
177	0x3da2d274	0.07950297
178	0xbc158e82	-0.009128215
179	0xbd995136	-0.07486193
180	0x3d53b081	0.051682
181	0xbe112be0	-0.14176893
182	0x3ccc34c7	0.02492751
183	0x3d69234f	0.05691844
184	0x3d7c7b45	0.061640996
185	0x3d9449ab	0.072406135
186	0xbc193e12	-0.009353178
187	0xbe69a5ef	-0.22817205
188	0x3e582b0c	0.21110171
189	0xbe83461c	-0.25639427
190	0xbdf501d8	-0.11963242
191	0xbe82a571	-0.25516847
192	0xc06824b3	-3.62724
193	0x3f9a3408	1.2047129
194	0xbde9e197	-0.11419981
195	0xc0016ba3	-2.0221946
196	0xbd1d39e6	-0.038385294
197	0x3f8a3cf9	1.0799857
198	0xbd89867e	-0.067151055
199	0x3f7f904f	0.9982957
200	0xbfd78b62	-1.6839411
201	0xc014f322	-2.3273396
202	0xbf9ab28a	-1.2085736
203	0x3fbb3470	1.4625378
204	0x3e3446c5	0.17605121
205	0x3f818ee2	1.0121729
206	0x3d72695c	0.05918251
207	0xbed9bb4c	-0.4252571
208	0xbe98f044	-0.29870808
209	0x3f941935	1.1570193
210	0xc02ff9dc	-2.7496252
211	0xbe344c26	-0.17607173
212	0xbffc5bf6	-1.9715564
213	0xbf69f2a0	-0.9138584
214	0x3c96fd46	0.018431317
215	0xbde58a4e	-0.1120802
216	0x3f802fd3	1.0014595
217	0xbfaca760	-1.3488579
218	0x405a0b2e	3.4069324
219	0x3fb538f8	1.415801
220	0x3e7f3120	0.24921083
221	0x3f6b081f	0.91809267
222	0x3ed88051	0.42285398
223	0xbeee5f14	-0.46556914
224	0xc00720f6	-2.1113868
225	0xbde323fc	-0.11090848
226	0xbf53916f	-0.8264379
227	0xbfa1a54c	-1.262857
228	0xbe986033	-0.29760894
229	0xbf71aa34	-0.94400334
230	0x3fc6bdee	1.5526712
231	0x3e577baa	0.21043268
232	0xbf69277f	-0.9107589
233	0x3f4964df	0.7866954
234	0x3f35d7a0	0.7103214
235	0x3fbcfc04	1.4764409
236	0x3e85ab71	0.26107362
237	0x3f122404	0.57086205
238	0xbf3a5aa1	-0.7279454
239	0xbef68012	-0.48144585
240	0xbee5c86f	-0.4487948
241	0x3f0db483	0.55353564
242	0x3e1b800c	0.15185565
243	0x3e929230	0.28627157
244	0x3ea2db57	0.31807968
245	0x3ed46f43	0.41491136
246	0x3e84e514	0.25956023
247	0xbf23d620	-0.63998604
248	0xbe58a5b4	-0.2115696
249	0xbf4c8d2a	-0.799029
250	0xbe7ec1e0	-0.24878645
251	0x3fe8ef5c	1.8198047
252	0xbf60047e	-0.87506855
253	0x3d919969	0.07109339
254	0xbdda2923	-0.106523775
255	0xbeb0418b	-0.34425005

fc1.bias f4 [64]
0	0xc1ab15d9	-21.385668
1	0xc0a5ee62	-5.1853495
2	0xc164e8e0	-14.306854
3	0xc1832b7a	-16.396229
4	0xc0e5526a	-7.1663103
5	0xc163d767	-14.240088
6	0x3fa752f1	1.3072187
7	0xbfc7f241	-1.5620805
8	0xc0dea341	-6.9574285
9	0xc10993d6	-8.598593
10	0xbfb2c7d9	-1.3967239
11	0xbf74a1c5	-0.9555934
12	0xc12dc605	-10.860845
13	0xc183521b	-16.41509
14	0xc151d4be	-13.114439
15	0x3f833db8	1.025321
16	0xbf16487d	-0.5870436
17	0xbebc22d2	-0.36745316
18	0x4015dbe2	2.3415456
19	0xbffc92b5	-1.9732271
20	0xc0e9c9f1	-7.305901
21	0xc0e44ba6	-7.1342344
22	0xbfe5585e	-1.7917593
23	0xc0be0c10	-5.9389725
24	0x408c4c06	4.38428
25	0xc12ec3d5	-10.922811
26	0xc042415b	-3.035239
27	0xc10bda57	-8.740806
28	0xbfd381dc	-1.6524005
29	0xc15437d4	-13.26363
30	0xc12fd739	-10.990045
31	0xc0a01ea2	-5.0037394
32	0xc132afcc	-11.167919
33	0xc1965ba3	-18.794744
34	0x3de208fc	0.1103687
35	0xc11bfbaa	-9.748941
36	0xc1442657	-12.25936
37	0xc07fa6ba	-3.9945512
38	0xc117c370	-9.485214
39	0x417cc03c	15.796932
40	0xbf8998ef	-1.0749797
41	0xbee861da	-0.45387155
42	0x4007d1c2	2.1221776
43	0xc15cd3fc	-13.801754
44	0xbf03b6f7	-0.5145106
45	0xbee0234c	-0.4377693
46	0xc16f3a23	-14.951694
47	0xbf2d5f1a	-0.6772324
48	0xc126b2dc	-10.418667
49	0xc0f9c0db	-7.804792
50	0x3f541553	0.8284504
51	0xbd1d91a1	-0.03846896
52	0xc0417743	-3.0229042
53	0xbea79a6c	-0.32735002
54	0xc1038280	-8.21936
55	0x3ee7964a	0.4523185
56	0xbff359ee	-1.9011819
57	0xc16c6ede	-14.777067
58	0xbea83b56	-0.3285777
59	0x3f05f55f	0.5232753
60	0x3e876ef4	0.26451838
61	0x3e718bec	0.23588532
62	0x3f8aeefb	1.0854181
63	0x3e5dfbba	0.21678057

fc2.weight f4 [64, 64]
0	0x3e78cd4f	0.24297069
1	0xbd8534a7	-0.06504183
2	0xbf20521c	-0.6262529
3	0x3ee89e4e	0.45433277
4	0x3d8b84aa	0.06812413
5	0x3f49ae68	0.7878175
6	0xbddea73c	-0.10871741
7	0xc00b3839	-2.1753066
8	0x3e9dc1f7	0.30812046
9	0xbfbc6cde	-1.4720724
10	0xbf45b535	-0.77229625
11	0x3db8368b	0.08994778
12	0x3e0be8e1	0.13663055
13	0x3eeca494	0.46219313
14	0x3dbd1bb5	0.092338
15	0xbd851ad2	-0.06499256
16	0xbf581a4a	-0.84415114
17	0xbd73f03b	-0.059555274
18	0xbfaa66b1	-1.3312589
19	0xbdb5ab2a	-0.088705376
20	0xbf61bcc2	-0.88178647
21	0xbf5f2dfb	-0.87179536
22	0x3c9fdd56	0.01951472
23	0xbed2b7ad	-0.41155759
24	0xbf2e24a7	-0.6802468
25	0x3e2b8bad	0.16752501
26	0x3e3f3111	0.18671061
27	0xbf4cd4fa	-0.80012476
28	0x3eb0a76c	0.34502733
29	0xbfddb807	-1.7321786
30	0xbd88a997	-0.06672972
31	0xbefb027b	-0.4902533
32	0xbef47117	-0.4774253
33	0x3e166a4e	0.1468899
34	0xbf5f1fb3	-0.87157744
35	0x3c6c8067	0.01443491
36	0x3c9e9ba1	0.019361319
37	0xbe6ee08a	-0.23327842
38	0x3e42fdad	0.19042082
39	0xbf9b04bf	-1.2110823
40	0x3d0985a4	0.033574715
41	0xbfbeecda	-1.4916031
42	0xbf519be9	-0.81878525
43	0xbf437b67	-0.7636017
44	0x3ca11e3f	0.019667743
45	0x3f079240	0.52957535
46	0xbeac25ea	-0.33622676
47	0xbe173f85	-0.14770325
48	0xbe3c8974	-0.18411809
49	0xbf5237f9	-0.8211666
50	0xbe486926	-0.19571361
51	0xbfe67533	-1.8004516
52	0x3f1f6f07	0.6227879
53	0x3de383c6	0.11109118
54	0x3db09c2c	0.086235374
55	0xbf839b21	-1.0281717
56	0x3d574378	0.052554578
57	0xbf034718	-0.51280355
58	0xbf1349ea	-0.5753466
59	0xbdf96604	-0.12177661
60	0xbe118ff8	-0.14215076
61	0xbd76de4f	-0.060270604
62	0xbeab8d6b	-0.3350633
63	0xbf856383	-1.0420994
64	0xbec68e88	-0.38780618
65	0xbfaf3683	-1.3688511
66	0xbf2d7272	-0.67752755
67	0x3e9b6819	0.30352858
68	0x3e8a21bf	0.2697887
69	0xbf33e3d3	-0.7026951
70	0xbf44f543	-0.7693674
71	0xbdea37ee	-0.11436449
72	0x3d8e6a24	0.069538385
73	0xbf0eb72a	-0.55748236
74	0xbe067ff4	-0.13134748
75	0xbeaaabb4	-0.33334124
76	0xbeb161d8	-0.3464496
77	0xbe97d17d	-0.29652014
78	0xbe6e9824	-0.23300225
79	0xbbad313c	-0.00528541
80	0xbfb455e6	-1.4088714
81	0x3d414e6f	0.04719394
82	0xc0049fc5	-2.0722516
83	0xbef5bad5	-0.47994104
84	0x3f1c5b60	0.6107693
85	0x3eb7b1c7	0.3587782
86	0xbe681259	-0.22663249
87	0xbdfeb42a	-0.12436707
88	0xbebe28ef	-0.37140605
89	0x3e9aa805	0.30206314
90	0xbde0fad0	-0.10985339
91	0xbfa1756a	-1.2613957
92	0xbed37c5f	-0.41305825
93	0x3d4e1358	0.050311416
94	0xbeaeec0b	-0.34164461
95	0xbf117219	-0.56814724
96	0xbfade4a1	-1.3585397
97	0x3edf90cd	0.43665162
98	0xbe34e351	-0.1766484
99	0xbf2c1465	-0.6721862
100	0x3e82ed21	0.2557154
101	0xbd892e27	-0.06698256
102	0xbf5672f5	-0.8376916
103	0xbf9414e5	-1.1568877
104	0x3ebe61fa	0.37184125
105	0xbe4b73d1	-0.19868399
106	0xbea9d921	-0.3317347
107	0xbe75c6f9	-0.24001683
108	0x3eea6afa	0.45784742
109	0xbf9edd98	-1.2411375
110	0xbf754a01	-0.95816046
111	0x3ca1837c	0.019716017
112	0x3e43904d	0.19098015
113	0x3ec273b2	0.37978894
114	0xbf84ca99	-1.0374328
115	0x3de6af9b	0.11263963
116	0xbe02366d	-0.12716074
117	0xbeddd130	-0.4332366
118	0xbf171af0	-0.5902548
119	0xbde6faca	-0.11278303
120	0xbf392881	-0.7232743
121	0x3f557401	0.8338013
122	0xbfa9f09b	-1.3276552
123	0xbe086cf5	-0.13322814
124	0xbeb21b66	-0.34786528
125	0x3c93ec7a	0.018057097
126	0xbecd8a4a	-0.4014457
127	0xbf97b13a	-1.185096
128	0xc03a43b8	-2.9103832
129	0xc03441e1	-2.816521
130	0xbf74134a	-0.9534193
131	0xbf3e9cfd	-0.74458295
132	0x3e209c59	0.15684642
133	0xc04ac5a8	-3.168314
134	0x3fa0687c	1.2531886
135	0x3fccdfc1	1.6005784
136	0xbfa0e248	-1.2569056
137	0xc07fe7b2	-3.9985166
138	0xbf75374f	-0.9578752
139	0x3dd52538	0.104074895
140	0x3ea9c1f7	0.33155796
141	0xbd3fb435	-0.04680272
142	0x3c0d5ddd	0.008628336
143	0xbf601ecc	-0.8754699
144	0xbf9a3f65	-1.2050596
145	0xbfb86f6a	-1.4409001
146	0xc0530c92	-3.2976422
147	0xbf779a9f	-0.9672031
148	0xc0116a4f	-2.2721136
149	0xbf9ac3fc	-1.209106
150	0xbfb69236	-1.426337
151	0xc0901e1b	-4.503675
152	0xc02e336d	-2.7218888
153	0xbfc37414	-1.5269799
154	0x3f50694d	0.81410676
155	0xbf607ccf	-0.8769044
156	0xbeba623e	-0.36403078
157	0x3e85a127	0.26099512
158	0xbf607308	-0.87675524
159	0xbfddcc25	-1.7327925
160	0x3f0ef9d7	0.55849975
161	0xbf74efe9	-0.95678574
162	0x3f314712	0.6924907
163	0x3d11a56a	0.03555814
164	0x3f5530ac	0.8327739
165	0xbf0ba499	-0.5454803
166	0xbc6042a7	-0.013687766
167	0xc02944e1	-2.644829
168	0xbfb7228b	-1.4307417
169	0x3ecaf13d	0.39637175
170	0x3db0bd98	0.08629912
171	0xc07dc638	-3.9652233
172	0x3f1cceb0	0.6125288
173	0xbd9bb089	-0.07602031
174	0xbee37326	-0.4442379
175	0xc03705cb	-2.8597286
176	0x3e47df88	0.19518864
177	0x3f3726eb	0.7154376
178	0xc02f8fa0	-2.7431412
179	0x3ea2345e	0.31680578
180	0xbfb11903	-1.3835758
181	0xbf6028cb	-0.87562245
182	0xbf19c7af	-0.6007032
183	0xbf0e0eac	-0.5549114
184	0xbf5fed63	-0.874716
185	0xc07d9131	-3.9619868
186	0xc07e7824	-3.9760828
187	0x3fc75759	1.5573531
188	0xbfdd9b4b	-1.7313017
189	0xbf5b980d	-0.85778886
190	0x3f453148	0.7702832
191	0xbf04ba0a	-0.51846373
192	0x3d318472	0.0433392
193	0xbe161c46	-0.14659223
194	0xbd131f16	-0.035918318
195	0xbe6da10e	-0.23205969
196	0xbe82b80a	-0.25531036
197	0xbf1ad9f5	-0.60488826
198	0x3e1ceb65	0.15324171
199	0xbf7114f9	-0.94172627
200	0xbed39c26	-0.4133007
201	0xbf2d1239	-0.6760593
202	0xbe11b68c	-0.14229792
203	0x3de2cc5e	0.11074136
204	0xbeeffe70	-0.46873808
205	0xbe3b5a39	-0.18296136
206	0xbe43b49b	-0.19111864
207	0xbe9816ff	-0.29705045
208	0xbdc154f7	-0.09440034
209	0xbc603621	-0.01368478
210	0x3c9a033a	0.018800367
211	0xbe3e02ff	-0.1855583
212	0xbe0c0d90	-0.13677049
213	0xbeb33c88	-0.3500712
214	0x3da90f93	0.08254924
215	0x3ea8b695	0.329518
216	0xbf562cc4	-0.83662057
217	0xbf1984ee	-0.5996846
218	0xbe019bf5	-0.12657149
219	0xbf5e4bb5	-0.8683427
220	0x3e35b616	0.17745242
221	0xbde0718f	-0.109591596
222	0xbe347d6f	-0.17625974
223	0xbe941cbd	-0.28928176
224	0xbf531e0d	-0.8246773
225	0xbe6a68ff	-0.22891615
226	0x3e149423	0.14509635
227	0xbebda513	-0.37040004
228	0x3b09727e	0.0020972784
229	0xbf1c7aab	-0.61124676
230	0xbe41f08c	-0.18939418
231	0xbf805429	-1.0025684
232	0x3dbc1144	0.09182981
233	0xbf4ecf02	-0.8078462
234	0x3cb3fe3d	0.021971816
235	0x3ea12576	0.31473893
236	0xbf8aa65e	-1.0832021
237	0xbf0a0e05	-0.5392764
238	0xbed4c01d	-0.4155282
239	0xbef9512e	-0.48694748
240	0xbda82c52	-0.082115784
241	0xbf205500	-0.626297
242	0xbf82daf1	-1.0223066
243	0x3e2d2b24	0.16910988
244	0xbf1179f9	-0.5682674
245	0xbf57b6ff	-0.84263605
246	0xbf5ed907	-0.8704991
247	0xbe832946	-0.25617427
248	0x3d193c0f	0.037410792
249	0xbea73d34	-0.32663882
250	0xbf35e2f9	-0.7104946
251	0xbf11b40d	-0.5691536
252	0xbf435f94	-0.76317716
253	0x3e4363a0	0.19080973
254	0x3dc2e6e3	0.095166944
255	0xbf3888c4	-0.7208369

fc2.bias f4 [64]
0	0x40739d38	3.8064709
1	0xbf55d68c	-0.835305
2	0xbf0e112c	-0.5549495
3	0x3f66f5b8	0.9021869
4	0xbdd1de49	-0.10247476
5	0x3d3f3b24	0.04668726
6	0x3ee7b750	0.45257044
7	0xc04da62d	-3.2132676
8	0xbe494394	-0.19654685
9	0x3d498dad	0.04920738
10	0xbd921c5b	-0.071343146
11	0x401a2add	2.4088662
12	0xbfb0b292	-1.3804495
13	0xbc2871a1	-0.0102809975
14	0xbc211cf2	-0.009833561
15	0xbfae2698	-1.3605528
16	0xbf47e030	-0.7807646
17	0x402cf06e	2.7021747
18	0xbfbf0cd4	-1.492579
19	0xbf5e44f8	-0.8682399
20	0xbf9c58c5	-1.221459
21	0xbfd196b1	-1.6374112
22	0xbf26c147	-0.6513867
23	0x3e7899f7	0.24277483
24	0x3f363bfd	0.71185285
25	0xbf0e6c3d	-0.5563391
26	0xc0155ec0	-2.333908
27	0xbf175914	-0.591203
28	0xbf297627	-0.6619591
29	0x4093029d	4.594069
30	0xbee67aeb	-0.45015654
31	0x3f28cc70	0.65936947
32	0x3f8e5625	1.1120039
33	0xbfc11eb7	-1.5087498
34	0x3e533518	0.20625722
35	0x40754311	3.8322184
36	0x401eb472	2.4797635
37	0x3f9d7ac9	1.2303096
38	0x3f1017ca	0.562863
39	0x4148e11b	12.554957
40	0xbf555acb	-0.83341664
41	0xbf9b5091	-1.2133962
42	0xbedbca71	-0.42927888
43	0xbf8ba510	-1.0909748
44	0x3e69eabe	0.22843453
45	0xc081ee1a	-4.060315
46	0xbe1ab2b7	-0.15107237
47	0xc077f634	-3.874402
48	0xc05fa9c6	-3.4947371
49	0xc05833d0	-3.3781624
50	0x3f9b7213	1.2144188
51	0x3f9fb285	1.2476355
52	0x3ec925fe	0.39286798
53	0xbfd5c921	-1.6702005
54	0x40289f17	2.63471
55	0x3fa029e9	1.251279
56	0xbc0427a7	-0.0080660945
57	0xbf8bfd0e	-1.0936601
58	0x40008d32	2.0086179
59	0x4085d68b	4.1824393
60	0xbf34bb97	-0.7059874
61	0x3fa3e52c	1.2804313
62	0xbf9dbce9	-1.2323276
63	0x3e062c84	0.13102919

fc3.weight f4 [64, 64]
0	0xbf925772	-1.1432936
1	0xbe5e5b10	-0.21714425
2	0x3fa3de0a	1.2802136
3	0x3f82bd9c	1.0214114
4	0x3efae6e7	0.4900429
5	0x3ff913ff	1.9459227
6	0x3f0a2833	0.5396759
7	0xbf42e33b	-0.76127976
8	0x3ee8e087	0.454838
9	0xbede26fa	-0.43389112
10	0xbf869581	-1.0514375
11	0x40090588	2.1409626
12	0x3f8d92c6	1.1060417
13	0xbec11d0e	-0.3771748
14	0xbeeda7b2	-0.46417004
15	0xbf676ef1	-0.9040366
16	0xbfdc4353	-1.7208046
17	0x3f78ee47	0.9723858
18	0x3eff3f10	0.498528
19	0x3e59a4ec	0.21254319
20	0xbf38b1e0	-0.72146416
21	0xbf182aba	-0.59440196
22	0xbe957df0	-0.29197645
23	0x3fe516d7	1.7897595
24	0x3ce7f109	0.028313177
25	0x4004facd	2.0778077
26	0xbfd5e55d	-1.6710621
27	0xbfd758de	-1.6823995
28	0x3f13bc78	0.57709455
29	0x3edcb72b	0.43108496
30	0x3dc61d90	0.09673607
31	0xbf8a92d1	-1.0826055
32	0x3fa24207	1.26764
33	0x3bbee629	0.005825777
34	0x3e3c23f3	0.18373089
35	0x3f738310	0.9512186
36	0xbe9de535	-0.30838934
37	0xbf69d52e	-0.9134091
38	0xbf260a50	-0.64859486
39	0xbf9d8560	-1.2306328
40	0x3d3442e3	0.0440091
41	0x3d71f6a9	0.059073124
42	0xbef71128	-0.48255277
43	0xbfd0102d	-1.6254936
44	0xbfc621c0	-1.547905
45	0x3e0b6006	0.13610849
46	0xbefa2cb7	-0.4886224
47	0xbb2cf044	-0.0026388327
48	0x3ee4d922	0.4469691
49	0xc00fd107	-2.247133
50	0xbe8adc5f	-0.27121255
51	0x3ef7e851	0.4841943
52	0xbf6099fb	-0.87734956
53	0x3ea27230	0.31727743
54	0x3edb9934	0.42890322
55	0x3fc77336	1.5582035
56	0x400d5f21	2.2089312
57	0xbed5f3b4	-0.41787493
58	0xbf59e63c	-0.85116935
59	0x3ece3bb8	0.40279937
60	0x3fa2b5e3	1.2711757
61	0xbf0dbb32	-0.5536376
62	0x3fa544d2	1.2911627
63	0xc00efebd	-2.234298
64	0x3dbb8fc9	0.09158284
65	0xbd92b567	-0.07163506
66	0xbf317589	-0.6931997
67	0x3fd0fa35	1.6326357
68	0x3fa55dd9	1.2919265
69	0x40504f32	3.2548337
70	0x3fa0966b	1.2545904
71	0x3f078b10	0.5294657
72	0xbf7b3ccd	-0.9813965
73	0x3f1d1eb5	0.6137498
74	0xbffe1d57	-1.9852704
75	0xbe6eba47	-0.23313247
76	0xbf7c5a84	-0.98575616
77	0x3fa70734	1.3049073
78	0xc0614169	-3.5196173
79	0xbfb1503e	-1.3852613
80	0x3ec42f3e	0.38317293
81	0xbfc867ba	-1.5656655
82	0xc0105481	-2.2551577
83	0xbed08c8a	-0.40732223
84	0xbf961de5	-1.1727873
85	0xbf18f14b	-0.59743184
86	0xc026596d	-2.599208
87	0x3f6d2c52	0.9264575
88	0xc035b269	-2.8390143
89	0x3ecc93c3	0.39956483
90	0xbf3cfd39	-0.7382389
91	0xbff0e7fa	-1.8820794
92	0x40366485	2.8498852
93	0xbfa605f7	-1.297057
94	0x3f5e3714	0.8680279
95	0xc0412555	-3.0179036
96	0x40179f3b	2.3690937
97	0xbdb5a63e	-0.08869599
98	0x3ffc9b6b	1.973493
99	0xbfefd838	-1.873786
100	0xc07920b8	-3.892622
101	0x3f4cc2e0	0.79984856
102	0xbfd8da97	-1.6941708
103	0xc005e8e2	-2.092339
104	0x3fdcf987	1.726365
105	0xbfa590f4	-1.2934861
106	0xbfcfa5e2	-1.6222498
107	0x3d3f3f25	0.04669108
108	0x3ff97aee	1.949064
109	0x3eb4bd19	0.3530052
110	0xbea84137	-0.32862255
111	0x3ea26ec9	0.31725147
112	0xbfaccce6	-1.350003
113	0xbf7b25c4	-0.981045
114	0x3e0cdd03	0.13756184
115	0x3ecd775a	0.4013012
116	0xbf686e70	-0.90793514
117	0x3f3f7202	0.7478334
118	0xbfd21b18	-1.6414518
119	0x3dd57111	0.10421956
120	0xbe084e61	-0.13311149
121	0xbf89ee53	-1.0775856
122	0xbeb00905	-0.3438188
123	0x3e52ae05	0.20574196
124	0x3fe1d19a	1.764209
125	0x3fe160b2	1.7607634
126	0xbf258657	-0.6465811
127	0xbfa13af3	-1.2596115
128	0xc0a1d58c	-5.0573177
129	0x3f07b3cb	0.5300872
130	0x3f89589d	1.0730168
131	0x404e8f7c	3.2275076
132	0x40090322	2.1408162
133	0xbfa0febb	-1.2577738
134	0x3ec27beb	0.37985167
135	0x3fe80be4	1.8128629
136	0xbf74763a	-0.954929
137	0xbf35e519	-0.710527
138	0xbe285599	-0.16438903
139	0x3f8ac8ab	1.0842489
140	0x3f07cc3c	0.5304601
141	0x3f92b6f1	1.1462079
142	0x3f5a2573	0.8521339
143	0x3cb628ac	0.02223619
144	0x3f21731b	0.6306626
145	0x3e760fe2	0.24029496
146	0x3f1cac35	0.6120027
147	0x3f5f2a67	0.87174076
148	0xbeb7ce00	-0.35899353
149	0x3d3d75d3	0.046254944
150	0x3fa1ad53	1.2631019
151	0x3f3e8ff9	0.74438435
152	0xbe4697fe	-0.19393918
153	0xbf29afa1	-0.66283613
154	0x3e1c5042	0.15264991
155	0x3f848a6d	1.0354744
156	0x3f881056	1.0629985
157	0x3cc2a2b7	0.02375923
158	0x3ea7e84f	0.32794425
159	0x3f41e341	0.75737387
160	0x40363c4e	2.8474307
161	0xc003af23	-2.0575645
162	0x3f8dd0c8	1.107934
163	0x3ff34677	1.9005879
164	0xbfb5b583	-1.4196018
165	0x3f1b4af4	0.60661244
166	0xbdb07cf6	-0.086175844
167	0xbe1cb469	-0.15303196
168	0x3fb7603e	1.4326246
169	0x3f7c86bc	0.9864309
170	0x3f74cc1f	0.95623964
171	0x3ec3f123	0.3826991
172	0x3fbd164d	1.4772431
173	0xbe818f93	-0.2530485
174	0xbf58ae1b	-0.84640664
175	0x3d82143b	0.06351515
176	0xbd25e913	-0.04050548
177	0x3df46b2e	0.119345054
178	0x3d98f272	0.07468118
179	0xc0865384	-4.197695
180	0xbe73b084	-0.23797804
181	0x3f87e470	1.0616589
182	0x3f93d445	1.1549155
183	0x3fdd79fa	1.7302849
184	0xbe805cbb	-0.25070748
185	0x3ec30d4a	0.38096076
186	0x3e2b644f	0.16737483
187	0xc01b3074	-2.4248323
188	0xbf96d251	-1.1782933
189	0x3f128c0d	0.5724495
190	0x3eafd131	0.34339288
191	0x40083d0d	2.1287262
192	0xbfad7276	-1.3550556
193	0xbe938f4f	-0.28820273
194	0xbea72278	-0.32643485
195	0x3f23393a	0.63759196
196	0x400536c9	2.0814688
197	0xbe721fb7	-0.23644911
198	0xbf5ef76f	-0.87096304
199	0x3ffc826e	1.9727304
200	0xbeb89c5f	-0.36056802
201	0xbe06bc9b	-0.13157885
202	0x3fa2d5c6	1.2721488
203	0xbf345824	-0.7044699
204	0x40107734	2.2572756
205	0x3ee1f991	0.44135717
206	0x3f2d4481	0.67682654
207	0xc0acdad4	-5.4017124
208	0xbfcf02ab	-1.6172689
209	0xbf50d5be	-0.81576145
210	0xbf05454c	-0.52058864
211	0xbf96a7d8	-1.1769972
212	0x3e37fd1b	0.17967646
213	0x3f5d5578	0.8645854
214	0x3fddca6c	1.7327399
215	0x3f36384a	0.7117964
216	0xbd1bddc4	-0.03805329
217	0x3e80253f	0.25028417
218	0x3f848f27	1.0356187
219	0x402b6aee	2.6784015
220	0xc00045d8	-2.004263
221	0xbe47495b	-0.19461577
222	0x3f398bfa	0.7247921
223	0x40952e21	4.661881
224	0x3f79c401	0.97564703
225	0xc00d2cdd	-2.2058632
226	0xbe99701f	-0.29968354
227	0xc0a83ecc	-5.2576656
228	0xbe403dd3	-0.18773584
229	0xc0138483	-2.3049629
230	0xbf40db6e	-0.75334823
231	0xbfa72ee0	-1.306118
232	0xbe860b1c	-0.2618035
233	0x40493f5a	3.1444917
234	0x3c29a1b8	0.010353498
235	0xbedf05ed	-0.4355921
236	0xbfc9fddb	-1.5780596
237	0x3f5fce40	0.8742409
238	0xbf2d8fde	-0.6779765
239	0xbedcf7d6	-0.43157834
240	0x3f68ff56	0.9101461
241	0xbe6e9c12	-0.23301724
242	0x3f8fc174	1.1230912
243	0x3f3a60e6	0.72804105
244	0x3d236cef	0.03989881
245	0xc044e288	-3.0763264
246	0x3f421c6c	0.7582462
247	0xbee7b324	-0.4525386
248	0xc082a57e	-4.0827017
249	0xbe89d772	-0.26922184
250	0xbfbfda38	-1.498847
251	0xbe4d1868	-0.20028841
252	0xbed3ec40	-0.41391182
253	0xbf950aad	-1.1643883
254	0xbf627a08	-0.88467455
255	0xbe18e6b9	-0.14931764

fc3.bias f4 [64]
0	0xc10bc3c3	-8.735293
1	0x40e986eb	7.2977195
2	0xc12cbfb2	-10.796801
3	0x3f89f74a	1.0778592
4	0xc06ad396	-3.6691642
5	0xbfdb7dc8	-1.714776
6	0x416afa8d	14.68617
7	0x40d2ae6d	6.583792
8	0xc126d33e	-10.426573
9	0x410d579a	8.833887
10	0xc0a75387	-5.228946
11	0xc0e32c6e	-7.0991735
12	0xc11b1652	-9.692949
13	0x4035f55c	2.8431005
14	0x3f8897e0	1.0671349
15	0xc13c6a5d	-11.775968
16	0xc118208e	-9.507948
17	0x410f29b0	8.947678
18	0x3fed524c	1.854074
19	0x41788431	15.532273
20	0xc0e8d096	-7.275462
21	0xc0fcd09d	-7.9004655
22	0xc011da7b	-2.27896
23	0xc138b664	-11.544529
24	0x40adaac9	5.427098
25	0xc089cccd	-4.30625
26	0x3fa5b385	1.294541
27	0xc04bc8af	-3.1841238
28	0xbf9c15af	-1.2194117
29	0xc08c0468	-4.375538
30	0xc12eae8d	-10.917615
31	0xc0d9faa5	-6.8118463
32	0x41059d64	8.350925
33	0x4019f361	2.4054797
34	0x3f185d54	0.5951741
35	0xc0996aba	-4.794278
36	0xc13d1973	-11.818713
37	0xc1276074	-10.461048
38	0x416b3325	14.699986
39	0xbf1d0add	-0.613447
40	0x40ff5267	7.978809
41	0xc1244215	-10.266133
42	0xc091870b	-4.5477347
43	0xc0aeab2a	-5.458394
44	0xbed45c94	-0.41476882
45	0x413313a3	11.192294
46	0xc13010f4	-11.004139
47	0x40068ffa	2.1025376
48	0x3f4c25fe	0.7974547
49	0xc11495a4	-9.286533
50	0xc0b79800	-5.7373047
51	0xc03ad35c	-2.9191504
52	0xbfacd84d	-1.350351
53	0xc037c2d2	-2.871266
54	0x40526151	3.2871897
55	0xc126443e	-10.391661
56	0x3fc4092b	1.5315298
57	0xc0a6fea4	-5.218584
58	0x3fe7decf	1.8114871
59	0xbfdf2867	-1.7434205
60	0x409b0adc	4.8450756
61	0x3f3262c9	0.69681984
62	0xc05d4eae	-3.4579272
63	0xbe927e20	-0.2861185

q_out.weight f4 [1, 64]
0	0xbe9c5816	-0.30535954
1	0x3f791141	0.9729195
2	0xbdea46bf	-0.11439275
3	0xbf18810b	-0.59571904
4	0x3fcd9819	1.6062042
5	0x3f924986	1.1428688
6	0x3fed5d78	1.8544149
7	0x40382e5e	2.87783
8	0xbe474e71	-0.19463517
9	0x3eb813bd	0.3595256
10	0xbf2b3602	-0.66879284
11	0xbe804707	-0.2505419
12	0xbe882432	-0.26590115
13	0x3f7d1ad8	0.98869085
14	0x3f0321e6	0.512236
15	0xbe3d8328	-0.18507063
16	0xbec2ec3f	-0.38070866
17	0x3fd42dc4	1.6576467
18	0x3e628899	0.2212242
19	0x3f0e4fde	0.5559062
20	0xbec28b9a	-0.37997133
21	0xbf4a7dce	-0.7909821
22	0xbedeec82	-0.43539816
23	0xbe72c3b2	-0.23707464
24	0x3ecc341e	0.39883512
25	0x3f18db0c	0.5970924
26	0x3cae4998	0.021275327
27	0x3f4e7570	0.80647945
28	0x3f8a0520	1.0782814
29	0x3f8a4a41	1.080391
30	0xbeca7588	-0.39542794
31	0x402be94d	2.6861145
32	0x3ead8c84	0.33896267
33	0x3e29ecc1	0.1659422
34	0x3eb3934e	0.35073322
35	0xbe7cc570	-0.24684691
36	0xbe99bfa9	-0.30029038
37	0xbf48b790	-0.78405094
38	0x3ff9be06	1.9511116
39	0x3f631f58	0.887197
40	0x3feaaf01	1.8334657
41	0xbf6c592b	-0.9232356
42	0xbc78a4d0	-0.015176013
43	0xbf5a427f	-0.85257715
44	0x3e61e375	0.22059424
45	0x3e8f7aa2	0.2802325
46	0xbebe5815	-0.37176576
47	0x3e86eb18	0.26351237
48	0x4033ef08	2.8114643
49	0xbea5cf39	-0.3238466
50	0xbedf2658	-0.4358394
51	0xbd83c47b	-0.0643396
52	0x3f289e28	0.6586633
53	0xbe8bf736	-0.27337044
54	0xbfe14a17	-1.7600735
55	0xbe920340	-0.28518105
56	0xbf65cb55	-0.89763385
57	0xbf014c1f	-0.50506777
58	0x3f1f8503	0.62312335
59	0xbebdbfd6	-0.37060422
60	0x3e2a52b8	0.16633117
61	0x3f069a7c	0.52579474
62	0xbe85679f	-0.2605562
63	0x3c98d6ef	0.018657176
