maddpg/MADDPG-master/model/simple_tag/agent_1/bst_actor_params.pkl (torch, 41167 bytes, 8 tensors)

fc1.weight f4 [64, 16]
-0.026561765 -0.099318594 0.0399982 0.079793274 0.17267103 -0.0065219756 -0.13150068 0.08748868
1.3464602 0.6597911 0.68903077 0.24148422 -0.9285791 -2.2873323 -2.0645757 -0.31395254
-0.016849475 -0.21699429 -0.15701385 -0.21197267 0.11271222 -0.10021165 -0.26708344 -0.11857445
1.6207082 -0.81318074 2.3437178 0.43182075 0.20558423 -0.2544532 -0.2234505 0.1925062
0.25113532 -0.28938502 -0.025074735 -0.17961308 -0.04733098 -0.12338671 0.03375272 -0.021322373
-0.38586593 1.0090328 1.1636989 -2.3685522 -1.4202493 1.4810108 -0.12348999 0.76405936
-0.018025238 -0.08031016 -0.17806114 -0.3888923 -0.22794732 -0.081250586 0.054994587 -0.30218786
-1.029964 -0.47170958 -1.2884357 -0.64741135 2.2894473 -1.9237411 -0.16156858 0.19846947
0.08196455 0.1215211 -0.11369783 0.1287464 -0.083593346 0.08905863 -0.03312292 0.033096183
-3.274032 -0.51058424 0.6967802 -0.38062087 2.5398839 -0.94118613 0.32679105 0.10730198
-0.13448904 0.06283645 -0.1351189 0.15587546 -0.12721753 0.088622235 -0.0036781188 0.0659535
1.3351564 -1.9561065 0.62141895 0.62456524 -0.6160674 -2.3130214 0.0380984 0.020719305
-0.023514146 -0.17579696 -0.53499657 -0.31775683 -0.19467956 0.15046582 -0.3164613 -0.44082177
-0.23471203 -0.035007957 0.2402712 0.09624134 2.929858 2.796907 0.2997241 0.62172675
0.263913 0.3090012 -0.37102023 0.07259955 -0.4580448 0.42027244 0.098504156 -0.31073186
0.60035545 1.3958619 -0.08500563 -0.23671502 0.36418667 -1.3681034 0.26251197 -0.18824404
-0.207672 0.03248221 0.4675491 -0.15469219 -0.10293608 0.1411237 0.5739511 -0.27964526
1.0206686 -2.1665344 0.2822824 0.8917496 0.65264475 1.4178535 0.5879905 0.17574511
0.5274564 0.13573638 0.24573396 -0.31023008 0.057347976 -0.14103745 0.19388469 -0.15227327
-1.3108004 0.22314376 -2.6605072 2.465668 -0.43379474 0.40013307 1.0670924 0.3003816
-0.23854366 0.2804364 -0.101766855 0.042697147 -0.076856025 0.06455702 -0.04518937 -0.023418881
0.2139346 0.60578936 0.4968584 0.12218767 -2.7201872 2.5781105 -1.08991 -0.100159675
0.22545296 -0.087212965 -0.27281004 0.263282 -0.1933011 0.16529562 -0.101531714 0.09227466
1.582463 0.62308997 -1.8818007 -1.6619797 2.4536476 0.1024089 1.2820988 0.63785505
0.8272488 -0.2683222 0.15229318 0.20230027 0.12381002 0.06561002 0.0051361574 0.1176342
0.43380746 -0.4693545 -1.7184775 2.1008518 -0.31684238 -0.4288761 -0.780055 0.36027136
0.018915672 -0.52125645 -0.008550769 -0.04796596 0.055304203 -0.12099612 -0.055994116 0.06045913
0.67309654 -1.8737875 -0.92003214 2.1395931 2.7031517 2.3088493 0.051312547 0.7373855
-0.3007115 0.031175772 0.1445776 -0.29675558 0.42716643 -0.55137795 -0.32164288 0.28339782
0.3400764 -0.08020208 -0.45509186 -0.6436271 4.306904 -0.18490474 0.0672691 -0.16066812
0.15763019 -0.0787981 0.012149477 -0.04063513 0.028689757 -0.025771433 -0.021411583 -0.05176725
-0.7349796 0.9228479 -0.48700082 0.010340543 3.6766307 0.47121656 0.57902724 -0.29929182
00000000: 0f98 d9bc 8c67 cbbd 27d5 233d a86a a33d
00000010: add0 303e 4cb6 d5bb 1da8 06be 442d b33d
00000020: cf58 ac3f 12e8 283f 5264 303f a447 773e
00000030: 5cb7 6dbf a763 12c0 0222 04c0 63be a0be
00000040: e907 8abc c033 5ebe 3dc8 20be 5d0f 59be
00000050: aad5 e63d c43b cdbd 29bf 88be 29d7 f2bd
00000060: 5e73 cf3f 9d2c 50bf 79ff 1540 9c17 dd3e
00000070: ac84 523e b147 82be 35d0 64be 5820 453e
00000080: cf94 803e 462a 94be 8869 cdbc 7eec 37be
00000090: 21de 41bd 2cb2 fcbd 4b40 0a3d 42ac aebc
000000a0: 3890 c5be fd27 813f 16f4 943f 5c96 17c0
000000b0: bbca b5bf c391 bd3f 52e8 fcbd 6599 433f
000000c0: aaa9 93bc a779 a4bd a955 36be e41c c7be
000000d0: 066b 69be b566 a6bd 0142 613d 5eb8 9abe
000000e0: dcd5 83bf eb83 f1be 76eb a4bf c0bc 25bf
000000f0: 4e86 1240 263d f6bf 3c72 25be 953b 4b3e
00000100: 08dd a73d 0ee0 f83d 68da e8bd 19d6 033e
00000110: fd32 abbd 5f64 b63d e6ab 07bd dd8f 073d
00000120: be89 51c0 a6b5 02bf 3060 323f bde0 c2be
00000130: 758d 2240 93f1 70bf 2851 a73e 24c1 db3d
00000140: 7fb7 09be 66b0 803d 9c5c 0abe d19d 1f3e
00000150: 5045 02be 937f b53d 980c 71bb a112 873d
00000160: 68e6 aa3f b361 fabf 5015 1f3f 82e3 1f3f
00000170: 98b6 1dbf 8b08 14c0 110d 1c3d 88bb a93c
00000180: bda0 c0bc 1e04 34be 89f5 08bf 06b1 a2be
00000190: 145a 47be b613 1a3e 3707 a2be 64b3 e1be
000001a0: 5a58 70be 8164 0fbd a709 763e 2e1a c53d
000001b0: cb82 3b40 8600 3340 7075 993e 7c29 1f3f
000001c0: 9b1f 873e 6835 9e3e 5df6 bdbe 13af 943d
000001d0: d984 eabe f32d d73e 8cbc c93d 3f18 9fbe
000001e0: e5b0 193f 9aab b23f 6f17 aebd 6c65 72be
000001f0: ad76 ba3e 031e afbf f867 863e 0cc3 40be
00000200: f8a7 54be 110c 053d 9862 ef3e a167 1ebe
00000210: 27d0 d2bd bb82 103e 76ee 123f aa2d 8fbe
00000220: 45a5 823f 80a8 0ac0 5287 903e b449 643f
00000230: ba13 273f 397c b53f 8c86 163f 87f6 333e
00000240: 6207 073f 7afe 0a3e afa1 7b3e 7ad6 9ebe
00000250: b6e5 6a3d 1f6c 10be b589 463e 86ed 1bbe
00000260: 4fc8 a7bf cc7f 643e c045 2ac0 81cd 1d40
00000270: 581a debe 3ede cc3e 7c96 883f 9ecb 993e
00000280: ca44 74be 5c95 8f3e 246b d0bd 34e3 2e3d
00000290: b166 9dbd 7936 843d 7d18 39bd f4d8 bfbc
000002a0: ac11 5b3e 0315 1b3f 3964 fe3e 873d fa3d
000002b0: 8c17 2ec0 c3ff 2440 2c82 8bbf 8420 cdbd
000002c0: 24dd 663e b69c b2bd c2ad 8bbe e6cc 863e
000002d0: b9f0 45be 4143 293e dcef cfbd 7ffa bc3d
000002e0: 268e ca3f d382 1f3f d8de f0bf c0bb d4bf
000002f0: 9008 1d40 c2bb d13d d01b a43f 784a 233f
00000300: 94c6 533f 8761 89be bef2 1b3e cd27 4f3e
00000310: 1c90 fd3d 8c5e 863d 364d a83b 33ea f03d
00000320: 031c de3e 3c4f f0be 12f7 dbbf 5b74 0640
00000330: 2a39 a2be a695 dbbe afb1 47bf 7d75 b83e
00000340: 0af5 9a3c 1071 05bf 8618 0cbc f477 44bd
00000350: a986 623d d0cc f7bd 165a 65bd fea3 773d
00000360: 0e50 2c3f 45d8 efbf 3a87 6bbf 18ef 0840
00000370: 7000 2d40 30c4 1340 1b2d 523d 4cc5 3c3f
00000380: dcf6 99be 5564 ff3c 260c 143e 59f0 97be
00000390: 8fb5 da3e 1b27 0dbf 60ae a4be 8519 913e
000003a0: 7e1e ae3e fd40 a4bd cd01 e9be bfc4 24bf
000003b0: 28d2 8940 ab57 3dbe 62c4 893d 2f86 24be
000003c0: cf69 213e e660 a1bd 9a0e 473c 0671 26bd
000003d0: c806 eb3c 9d1e d3bc 5867 afbc e509 54bd
000003e0: a027 3cbf c33f 6c3f 2c58 f9be 626b 293c
000003f0: eb4d 6b40 4c43 f13e 213b 143f c73c 99be

fc1.bias f4 [64]
-1.0528554 -0.2624554 0.71533984 0.6541978 -0.17553288 0.112610735 1.630661 1.4406378
0.93654275 -0.77010316 -0.9106537 -0.618237 -1.1050667 0.8425779 1.0418432 -0.49753636
0.76702887 0.15455864 0.68874305 1.2618364 1.1640855 -0.81745416 1.3825742 -1.5540259
-0.10301336 0.4947653 0.91767836 0.16008647 -0.17295165 0.20027456 0.36710808 0.33860114
1.0800865 1.3966508 1.3936032 0.18232235 1.0160241 0.52445245 -1.0488516 0.9078725
-0.3155555 1.4422101 -1.1001519 -0.81237864 -0.72836363 -1.1712505 1.7063015 0.7465179
1.6109681 -0.8606891 0.32317913 0.9457665 1.2524884 1.5725706 1.6864312 1.7961756
-1.3214185 0.6537109 0.9903556 0.8671698 0.08208127 0.8649661 1.184664 0.075426124
00000000: f7c3 86bf 8e60 86be 8320 373f 8279 273f
00000010: e4be 33be 75a0 e63d 80b9 d03f d266 b83f
00000020: 44c1 6f3f 7b25 45bf 9a20 69bf c844 1ebf
00000030: d372 8dbf 2fb3 573f 1e5b 853f 16bd febe
00000040: 015c 443f 9f44 1e3e 7751 303f db83 a13f
00000050: c100 953f ad44 51bf 31f8 b03f 52ea c6bf
00000060: abf8 d2bd e151 fd3e f8ec 6a3f b5ed 233e
00000070: 3d1a 31be c614 4d3e 97f5 bb3e 215d ad3e
00000080: 4640 8a3f 74c5 b23f 9761 b23f b6b2 3a3e
00000090: 140d 823f 8442 063f c540 86bf 556a 683f
000000a0: 7e90 a1be 579a b83f c7d1 8cbf 0cf8 4fbf
000000b0: 0a76 3abf 89eb 95bf 1668 da3f cc1b 3f3f
000000c0: 3434 ce3f 1f56 5cbf bc77 a53e c11d 723f
000000d0: 8a51 a03f fe49 c93f fadc d73f 15e9 e53f
000000e0: 3e24 a9bf 9959 273f f287 7d3f d7fe 5d3f
000000f0: 3a1a a83d 6b6e 5d3f 12a3 973f 0379 9a3d

fc2.weight f4 [64, 64]
-0.16178422 -0.100868344 -0.45214513 -0.033241715 0.059087906 0.5745805 -0.55755967 0.2697154
-0.14820412 -0.00018946502 -1.2861911 0.025033534 -0.7493702 -0.4690393 -0.36977875 -0.43994966
0.34136048 0.013970863 0.6713665 0.019760225 0.096162476 -0.7482372 0.29119074 0.17112535
-0.30244488 0.36987117 0.66633976 -0.09769592 1.1951925 0.015259394 -0.39317885 0.318823
0.18796732 0.34876025 -1.0040659 0.5620622 0.40448323 -0.04635227 -0.48224008 0.98927003
0.43799123 -0.68296504 -0.5715246 -0.28414965 0.3976042 -0.31721818 -0.110482976 -0.43657348
0.6767359 -0.30321363 0.8869094 0.105447344 0.8988686 2.490265 0.5391947 1.3740766
-0.47814086 -0.31804195 -0.4374487 -0.7653673 0.06595945 -0.31860656 -2.1157546 0.13666673
0.09699472 -0.7420346 -0.14364836 -0.54746336 0.3323388 0.9186554 0.83404577 -0.054624576
0.13095862 0.30483222 -0.21118976 0.054347523 -0.5397028 0.03641972 -0.5168526 -0.39808095
-0.26870388 0.06294913 0.3752208 0.68946713 -0.7410956 -0.16924807 -0.41648299 0.7162579
-0.69408303 -0.46381652 0.27134112 -0.5226115 -0.614621 0.48194614 0.44422233 -0.27121404
-0.9759207 -0.077422984 0.49656683 0.36937043 -0.5522608 -0.12763411 -0.013357773 0.0945856
-0.0045680646 0.44762588 -0.21680681 -0.5338279 0.31454453 -0.30008942 -0.18106769 1.0906309
-1.0699314 0.50410193 0.3229332 0.6926765 0.47453898 -0.5074713 0.20534803 -0.54849344
1.0957625 0.38612193 -0.2580122 0.06278361 1.6089921 -0.5912385 1.6807938 0.490801
0.18418965 0.18497953 0.30531153 0.8813552 -0.051660206 0.17629988 -0.024468971 -0.42086518
-0.24035926 0.3695558 0.3962178 0.065156125 -0.12603362 -1.4287634 -0.3568963 -0.17209819
-0.7115009 0.41963682 0.0269406 -0.07075209 0.45943016 -0.37342304 0.30273128 -0.55359507
0.21252696 -0.13150027 0.22619946 1.1140432 0.28171012 0.1727916 0.09523147 0.7030972
0.73050827 0.1665392 -0.13168298 -0.058517415 0.77300173 -0.9948624 0.2367304 1.4381616
1.3686436 -1.1967022 -0.5978088 0.9026601 -0.9721552 0.08476171 -0.1331393 -0.9733707
0.48768133 0.5644268 -0.03123896 -0.5169054 -0.3311897 0.8057758 0.5616202 0.733233
0.6082661 0.65031326 -0.13612475 0.032179635 -0.042099204 -0.53140527 -1.3164738 -0.50413054
-0.40670455 0.44275686 0.037998956 -0.18976294 -0.3703701 0.4921692 -0.3492933 0.6255384
-0.32212976 -0.21135059 0.28902906 0.3529122 0.9702595 1.2050565 0.9182964 -0.54785055
1.3384777 0.2758772 -0.3721638 0.634134 -1.2540836 0.3766935 0.84157604 -0.06734707
0.22137356 0.15944901 -0.4060664 -0.34523833 2.1773157 -1.5459216 -0.4899865 -0.41094324
-1.7913802 0.88294363 0.27295837 -0.39127606 0.34871876 -0.065468274 -1.2509692 0.2746401
-0.2201448 0.2792414 -0.8010857 0.037838627 -0.10156417 0.96583045 -0.011597473 0.5179014
-0.14090542 0.90126854 0.53209275 0.1736171 0.096775934 0.76818186 0.010604915 0.05319269
-0.01579634 0.11973192 0.097612485 0.31553757 1.0398076 0.06617936 -0.5384848 -0.008342036
00000000: c3aa 25be 1094 cebd 917f e7be 7728 08bd
00000010: 2906 723d b517 133f 3bbc 0ebf 2318 8a3e
00000020: d2c2 17be 21ab 46b9 e9a1 a4bf 2013 cd3c
00000030: bad6 3fbf eb25 f0be a453 bdbe 1541 e1be
00000040: cdc6 ae3e 0ce6 643c adde 2b3f 32e0 a13c
00000050: d5f0 c43d 798c 3fbf f416 953e 7c3b 2f3e
00000060: 0eda 9abe c15f bd3e 3e95 2a3f cc14 c8bd
00000070: 11fc 983f 8a02 7a3c bd4e c9be c53c a33e
00000080: 817a 403e b490 b23e 3b85 80bf 4fe3 0f3f
00000090: 6d18 cf3e e1db 3dbd 2ce8 f6be cd40 7d3f
000000a0: 6340 e03e ccd6 2ebf 704f 12bf 107c 91be
000000b0: c792 cb3e 6c6a a2be e644 e2bd 8f86 dfbe
000000c0: 903e 2d3f d13e 9bbe 7f0c 633f c7f4 d73d
000000d0: 411c 663f 8060 1f40 aa08 0a3f bee1 af3f
000000e0: e1ce f4be 65d6 a2be 47f9 dfbe 1def 43bf
000000f0: c015 873d 6620 a3be 8668 07c0 5df2 0b3e
00000100: 2ba5 c63d fbf5 3dbf 8e18 13be 8f26 0cbf
00000110: 5028 aa3e 002d 6b3f 0684 553f 05be 5fbd
00000120: 041a 063e f812 9c3e 2142 58be 829b 5e3d
00000130: f629 0abf d82c 153d 7450 04bf 44d1 cbbe
00000140: 8e93 89be 79eb 803d f11c c03e eb80 303f
00000150: 71b8 3dbf 5e4f 2dbe 423d d5be ae5c 373f
00000160: 6daf 31bf 5c79 edbe 39ed 8a3e dec9 05bf
00000170: cd57 1dbf a5c1 f63e 1c71 e33e 91dc 8abe
00000180: f0d5 79bf f18f 9ebd 023e fe3e 1f1e bd3e
00000190: f760 0dbf 84b2 02be 90da 5abc 18b6 c13d
000001a0: b4af 95bb 382f e53e 9b02 5ebe f2a8 08bf
000001b0: fb0b a13e 52a5 99be cf69 39be cb99 8b3f
000001c0: 83f3 88bf d30c 013f 8057 a53e 3f53 313f
000001d0: c6f6 f23e a4e9 01bf c146 523e 116a 0cbf
000001e0: f241 8c3f c6b1 c53e 2d1a 84be b194 803d
000001f0: 74f3 cd3f 685b 17bf 4024 d73f 454a fb3e
00000200: 369c 3c3e 466b 3d3e cb51 9c3e 7fa0 613f
00000210: a799 53bd f587 343e 2773 c8bc a47b d7be
00000220: bd20 76be 6b36 bd3e 0fdd ca3e 9370 853d
00000230: f50e 01be b8e1 b6bf 1dbb b6be 823a 30be
00000240: ec24 36bf a3da d63e 88b2 dc3c 79e6 90bd
00000250: 6e3a eb3e 4e31 bfbe 98ff 9a3e 68b8 0dbf
00000260: aba0 593e 02a8 06be d5a0 673e f898 8e3f
00000270: 4f3c 903e 48f0 303e b808 c33d 2efe 333f
00000280: 9702 3b3f 4189 2a3e e7d7 06be f5af 6fbd
00000290: 71e3 453f 4daf 7ebf 7469 723e ae15 b83f
000002a0: b72f af3f 8a2d 99bf ff09 19bf bb14 673f
000002b0: 2adf 78bf 8c97 ad3d ab55 08be d22e 79bf
000002c0: 5eb1 f93e 467e 103f d9e8 ffbc ea53 04bf
000002d0: b291 a9be 5347 4e3f 57c6 0f3f 28b5 3b3f
000002e0: 54b7 1b3f ee7a 263f 4964 0bbe cbce 033d
000002f0: 3770 2cbd 2d0a 08bf 3782 a8bf b30e 01bf
00000300: 943b d0be 07b1 e23e cba4 1b3d 3751 42be
00000310: 26a1 bdbe 9afd fb3e 92d6 b2be 4923 203f
00000320: 31ee a4be 4a6c 58be 9efb 933e e8b0 b43e
00000330: ed62 783f 4b3f 9a3f 7915 6b3f ef3f 0cbf
00000340: 3d53 ab3f c73f 8d3e 418c bebe 9b56 223f
00000350: d085 a0bf f8dd c03e 8771 573f 43ed 89bd
00000360: c0af 623e 9a46 233e efe7 cfbe 14c3 b0be
00000370: 2459 0b40 c2e0 c5bf 83df fabe 2767 d2be
00000380: f24b e5bf 9808 623f 33c1 8b3e 5655 c8be
00000390: 448b b23e 3b14 86bd c21f a0bf a19d 8c3e
000003a0: a36d 61be bbf8 8e3e f413 4dbf adfc 1a3d
000003b0: e000 d0bd aa40 773f 5403 3ebc 3095 043f
000003c0: 8349 10be 89b9 663f 3b37 083f aec8 313e
000003d0: 7632 c63d 91a7 443f 3dc0 2d3c 94e0 593d
000003e0: 5367 81bc 0236 f53d 0ee9 c73d 248e a13e
000003f0: 6a18 853f 0b89 873d 24da 09bf 09ad 08bc

fc2.bias f4 [64]
0.4087799 -0.114203304 0.6698554 -0.009842988 -0.56398135 0.44677195 0.33861056 0.31706366
0.070357025 -0.3150743 0.83010364 -0.05093961 -0.13434473 -0.42427498 0.11339244 0.51370895
-0.5616452 0.350418 0.08967071 -0.115150996 1.1171457 0.14105155 -1.0029024 -0.23645945
0.38732308 0.10726178 0.29550526 -0.36604333 -0.17839329 0.029685076 1.1810824 -0.7651579
-0.31256774 0.96998394 -0.30947638 -0.14498866 0.31171206 -0.47298488 -0.3472438 -0.7896622
0.12069194 1.0253631 -0.21309184 -0.78277266 -0.41202465 -0.92437124 0.72805595 0.6157452
0.6815137 0.84204924 0.7262147 0.4837695 -0.17478898 -0.13483812 -0.44760752 1.0248893
-0.5718617 -0.9115641 -1.0337077 -0.16092099 -0.12379995 0.08349285 -0.30691886 -0.32846522
00000000: 994b d13e 6ce3 e9bd a57b 2b3f 7c44 21bc
00000010: 1561 10bf 4bbf e43e 5d5e ad3e 2b56 a23e
00000020: 5817 903d 6b51 a1be ac81 543f 0da6 50bd
00000030: aa91 09be 923a d9be 4c3a e83d 6e82 033f
00000040: fbc7 0fbf fd69 b33e 47a5 b73d 49d4 ebbd
00000050: a1fe 8e3f d16f 103e 1b5f 80bf 6d22 72be
00000060: 364f c63e 10ac db3d 774c 973e 086a bbbe
00000070: bbac 36be 1e2e f33c b52d 973f 63e1 43bf
00000080: e108 a0be de50 783f b073 9ebe e877 14be
00000090: b998 9f3e 132b f2be f0c9 b1be 4d27 4abf
000000a0: 562d f73d 193f 833f bf34 5abe ca63 48bf
000000b0: e5f4 d2be 98a3 6cbf e061 3a3f 7aa1 1d3f
000000c0: af77 2e3f 8a90 573f 35e9 393f a3b0 f73e
000000d0: e2fb 32be 0113 0abe d02c e5be 932f 833f
000000e0: 8765 12bf 445c 69bf 8950 84bf 79c8 24be
000000f0: d48a fdbd 4dfe aa3d 7824 9dbe 982c a8be

fc3.weight f4 [64, 64]
0.0569656 -0.090785 0.5796397 0.4396507 0.61070925 -0.00089295785 0.8842518 0.12841663
0.48283407 -1.010155 -1.5201542 0.25558668 0.40726608 0.18826413 0.89931947 -0.8649319
-1.0150073 0.33838633 -0.33953026 0.47284365 -1.4138572 -1.103188 0.13999382 -0.43627498
-0.28589258 0.011831432 0.15835887 1.1720492 0.14179257 1.1160889 -0.43888038 -0.25329065
0.63972116 -2.4229083 -0.5858909 -0.13916682 -0.38370943 0.37732053 -0.041249607 -0.27854177
0.3837325 -0.34289572 0.060004 -0.14794315 -0.18109083 1.3955333 -0.20429413 0.7243938
-0.20817462 0.31462035 0.6859368 0.516708 0.057306126 -0.01081907 1.151908 -1.3495051
0.5586576 -0.6842873 -0.99383396 0.68192995 0.4577423 1.2939202 0.5812438 -0.16282746
-0.017926672 0.062781535 -0.06013237 -0.15862787 -0.14138985 0.047408126 -0.019807529 -0.095814005
-0.11708482 -0.14463818 -0.10789887 -0.098136775 -0.15348215 -0.032210816 0.019833509 0.023274964
0.026424784 0.050076563 -0.032591842 -0.020363085 -0.04870923 -0.11959817 0.0017887084 -0.16630769
-0.10135475 -0.1537322 -0.10553813 -0.033858746 -0.097041145 -0.03020344 -0.09920472 0.045221318
-0.1502887 0.05273868 0.04959541 -0.065399565 -0.013149978 0.013657284 -0.06656343 0.016607994
0.029765109 -0.05076784 -0.17264009 -0.1839147 0.041773196 0.02869199 -0.003057135 -0.02680739
-0.10897825 0.021410244 -0.14966421 0.05066173 -0.1642539 -0.10368625 -0.10370577 0.07182719
-0.12789243 -0.14865899 -0.06563642 0.006511251 -0.13153249 -0.21596538 -0.07571293 -0.0026993623
0.7824316 -1.5961217 -0.03822654 -1.8486104 -0.3734137 -0.4823574 -0.8208564 -0.023893462
-1.0090151 0.4864043 1.5771769 0.5705353 0.3429991 0.1168601 -0.75561935 -0.88241214
-1.1593684 -0.67604977 -1.059841 0.8367932 -0.44151857 0.50975317 -2.5243752 0.29482043
-0.41470683 0.56778544 -0.26690868 -0.9424928 0.10317456 0.34069496 0.36817935 0.23853008
-0.5633279 0.38220903 -1.5400658 -0.044274475 0.17451549 -0.8089625 0.5232532 0.349426
0.14323556 -0.5261379 -0.06831249 -0.096279934 -1.6193751 0.019364962 -0.101831466 0.52489424
0.11687844 -1.0517683 -1.2026861 0.0048082382 0.53284156 0.035602324 -0.25867411 0.8473502
-0.25295258 -1.0345186 0.62370723 -0.2672745 0.18880259 0.07067106 -0.07931665 -0.5533652
-0.34425896 -0.4430078 0.8870773 -0.4642746 0.0032691741 -0.46715683 0.8993517 0.31503126
-0.52861226 -0.021980463 0.195791 1.0874565 -0.2636615 0.46282852 0.21692748 0.6888685
-0.40422788 -0.22593428 -0.30312404 0.20511399 -0.8638487 -0.09780526 0.22241607 -0.76830107
0.2383557 1.895401 -0.22781807 0.031962115 0.009753288 0.453401 1.326337 0.6120051
0.5852751 1.3568878 -0.9133344 0.22297876 0.37751293 -0.52917683 -0.82312465 0.17193279
0.72035766 0.7839083 0.13084808 -0.06574618 -1.1067959 -1.0777805 -0.6263968 0.7259355
0.86681205 0.73573947 0.4637257 1.2925651 -0.15035042 0.10965405 -0.8621427 0.8065538
-0.094817005 0.361019 -1.524599 -0.8067645 0.39343542 1.3527514 0.68677413 -0.10230443
00000000: c354 693d 7ced b9bd 4463 143f e619 e13e
00000010: 7157 1c3f 6315 6aba 535e 623f a67f 033e
00000020: 0736 f73e c24c 81bf 6a94 c2bf 42dc 823e
00000030: 2e85 d03e 50c8 403e cd39 663f 2d6c 5dbf
00000040: c2eb 81bf f940 ad3e e9d6 adbe 9018 f23e
00000050: 46f9 b4bf 4435 8dbf 8a5a 0f3e 6f5f dfbe
00000060: 8360 92be 9fd8 413c d428 223e b505 963f
00000070: 1232 113e 00dc 8e3f eeb4 e0be 50af 81be
00000080: c4c4 233f ee10 1bc0 f2fc 15bf bf81 0ebe
00000090: 9075 c4be 2830 c13e 59f5 28bd 079d 8ebe
000000a0: 9678 c43e 0790 afbe c1c6 753d 697e 17be
000000b0: e06f 39be d6a0 b23f 7b32 51be df71 393f
000000c0: ba2b 55be eb15 a13e 8e99 2f3f fa46 043f
000000d0: d4b9 6a3d 7842 31bc b971 933f 95bc acbf
000000e0: 2f04 0f3f 742d 2fbf e76b 7ebf f692 2e3f
000000f0: 335d ea3e 2d9f a53f 65cc 143f 3ebc 26be
00000100: f5da 92bc 9b93 803d 5c4d 76bd 586f 22be
00000110: 80c8 10be 062f 423d 6643 a2bc 223a c4bd
00000120: 2bca efbd 081c 14be 15fa dcbd effb c8bd
00000130: 6d2a 1dbe 7def 03bd e279 a23c 23ab be3c
00000140: ca78 d83c 151d 4d3d 067f 05bd 7cd0 a6bc
00000150: 5483 47bd e3ef f4bd 1873 ea3a 904c 2abe
00000160: 1493 cfbd f96b 1dbe 6024 d8bd 78af 0abd
00000170: 82bd c6bd 346d f7bc d82b cbbd fd39 393d
00000180: 48e5 19be 8404 583d 8e24 4b3d 35f0 85bd
00000190: 0173 57bc cdc2 5f3c 6852 88bd 7d0d 883c
000001a0: f5d5 f33c f0f1 4fbd 90c8 30be 2354 3cbe
000001b0: 5f1a 2b3d 770b eb3c 375a 48bb 2c9b dbbc
000001c0: fd2f dfbd 8964 af3c 9341 19be ad82 4f3d
000001d0: 2d32 28be 7559 d4bd b163 d4bd 221a 933d
000001e0: 3cf6 02be 103a 18be 636c 86bd 555c d53b
000001f0: 74b0 06be 0726 5dbe 610f 9bbd c9e7 30bb
00000200: 704d 483f b74d ccbf 6f93 1cbd 449f ecbf
00000210: 1530 bfbe 8df7 f6be a523 52bf 39bc c3bc
00000220: 6827 81bf fc09 f93e efe0 c93f 9a0e 123f
00000230: 949d af3e 5954 ef3d 4570 41bf c3e5 61bf
00000240: 2f66 94bf 9911 2dbf dfa8 87bf 1438 563f
00000250: b90e e2be 2f7f 023f 5d8f 21c0 b4f2 963e
00000260: 7454 d4be 635a 113f 41a8 88be 3547 71bf
00000270: 2f4d d33d 926f ae3e 0182 bc3e 3b41 743e
00000280: 4236 10bf e7b0 c33e e020 c5bf 2759 35bd
00000290: 30b4 323e 2b18 4fbf ecf3 053f f7e7 b23e
000002a0: 58ac 123e f9b0 06bf 6be7 8bbd 6a2e c5bd
000002b0: af47 cfbf 45a3 9e3c 048d d0bd 785f 063f
000002c0: f75d ef3d 58a0 86bf 9ef1 99bf 6d8e 9d3b
000002d0: 4e68 083f bed3 113d ef70 84be f1eb 583f
000002e0: 0083 81be 1b6b 84bf 47ab 1f3f 34d8 88be
000002f0: 7755 413e fdbb 903d c570 a2bd 57a9 0dbf
00000300: b642 b0be ebd1 e2be 7f17 633f 66b5 edbe
00000310: a43f 563b 2e2f efbe ea3b 663f c74b a13e
00000320: 2253 07bf 5f10 b4bc 707d 483e c631 8b3f
00000330: a4fe 86be dcf7 ec3e 3d22 5e3e b059 303f
00000340: f5f6 cebe 515b 67be 1333 9bbe 6709 523e
00000350: 3025 5dbf 204e c8bd 0ac1 633e 61af 44bf
00000360: 8413 743e 809c f23f 2449 69be b5ea 023d
00000370: 41cc 1f3c 2d24 e83e 69c5 a93f 5eac 1c3f
00000380: 97d4 153f 80ae ad3f 49d0 69bf 8b54 643e
00000390: 6049 c13e 2278 07bf 4cb8 52bf 260f 303e
000003a0: 5c69 383f 37ae 483f 0afd 053e efa5 86bd
000003b0: 7dab 8dbf b6f4 89bf 8a5b 20bf e9d6 393f
000003c0: 65e7 5d3f 6c59 3c3f 746d ed3e c672 a53f
000003d0: 76f5 19be 4d92 e03d 62b5 5cbf 4f7a 4e3f
000003e0: 6b2f c2bd 7bd7 b83e 0f26 c3bf 1e88 4ebf
000003f0: 5e70 c93e f526 ad3f 6ed0 2f3f fc84 d1bd

fc3.bias f4 [64]
-0.42438284 -0.21496056 -0.19811982 1.0843855 -0.22362217 -0.23507348 0.70973337 1.0099198
0.54498655 0.040440384 -0.3071097 -0.5287533 0.09106277 -1.0182863 -0.36520442 0.103643544
0.51015776 -0.36744046 1.1165748 -0.5259288 0.48042804 -1.1618882 -0.99651325 1.0498165
0.28297988 0.4810195 0.11239231 0.27667043 1.0417495 -0.1814399 0.29622513 -0.2993888
-0.2556421 -0.49477375 0.21948111 0.65580434 0.3513496 -0.012257321 0.20315892 0.4258115
0.34486863 0.08641833 -0.78120315 0.03714341 -0.422173 0.13773385 0.5074845 -0.5142334
-1.4969624 0.7019495 -0.026880018 -0.015444996 0.14699987 0.59937507 0.35157266 0.33582518
-0.5305411 0.08329224 -0.06067315 0.17178878 0.23053104 0.32453033 0.93025714 -1.0450745
00000000: b548 d9be 9f1e 5cbe ecdf 4abe 25cd 8a3f
00000010: 36fd 64be 1ab7 70be 16b1 353f 0d45 813f
00000020: 3d84 0b3f d1a4 253d 7c3d 9dbe 605c 07bf
00000030: 1e7f ba3d 3557 82bf 13fc babe 1143 d43d
00000040: b399 023f 2821 bcbe eceb 8e3f 45a3 06bf
00000050: aafa f53e c1b8 94bf 7e1b 7fbf 6360 863f
00000060: bde2 903e 3048 f63e f02d e63d bfa7 8d3e
00000070: 0c58 853f 62cb 39be d2aa 973e 7d49 99be
00000080: 85e3 82be fc52 fdbe a8bf 603e cbe2 273f
00000090: 18e4 b33e eed2 48bc e408 503e f703 da3e
000000a0: 9f92 b03e 18fc b03d eefc 47bf b023 183d
000000b0: 0f27 d8be 1a0a 0d3e 81ea 013f cda4 03bf
000000c0: 779c bfbf f6b2 333f 7c33 dcbc 020d 7dbc
000000d0: 2287 163e a570 193f 5501 b43e 47f1 ab3e
000000e0: 8bd1 07bf 1f95 aa3d 6984 78bd 66e9 2f3e
000000f0: 5410 6c3e d728 a63e 5525 6e3f 00c5 85bf

action_out.weight f4 [5, 64]
0.79208183 -0.04073105 -0.6373797 -0.31256625 -1.0193155 -0.14286232 -0.77073765 0.22025055
0.49425954 -2.8479102 -0.04908058 1.3078449 0.17257418 0.35497382 -0.06199158 -0.44073814
0.32332298 -0.0683552 1.0448303 0.9920138 -0.775031 -0.047029883 0.7185894 -0.37519604
-0.6625613 0.7814656 0.25199768 0.13957912 0.8960377 -0.02947805 -0.5849771 -0.40306133
0.5167131 1.6873429 -0.23665904 -0.6083659 1.5108163 -0.079858266 1.315593 -0.9502669
-0.8673762 -0.29020515 -0.83067816 -0.11596229 1.9160773 -1.3647629 -0.34332278 0.35223752
1.6392312 -1.758572 0.6057873 1.0839273 0.47859597 0.4589353 0.7863821 -0.06094864
-0.5188045 -0.5286248 0.88154596 -0.22274971 0.8257857 -0.04078246 -1.0812817 -0.008761633
-0.51513153 -0.0059127426 -0.36491725 -0.46646374 -0.44120818 -0.06742037 0.81994265 0.9375529
0.2827859 -1.2628032 1.1509718 -0.7134427 -0.047241163 0.17895283 -0.34805775 0.32593265
-0.6597063 0.24839726 -0.083962426 -1.2123046 0.7504383 -1.4300755 -0.08528238 0.79791963
-0.6414158 -0.010177023 0.59486616 -0.07464996 0.27617976 -0.026246576 -0.19984838 -0.06483333
0.8409746 0.14856961 -0.889979 0.2480368 -0.20924796 0.10875509 0.5342404 0.12762064
-0.5567241 0.4208469 -1.1044406 1.3463631 0.53853583 0.34416017 -0.9185773 -0.10169658
-1.3242954 -0.096875876 -0.92809856 -0.29872015 -1.3298699 0.549081 -0.30292094 -0.35564476
0.47804633 -0.29255247 -0.96065533 1.4483289 0.60201716 0.8386983 -0.34598124 0.9440604
0.16431217 -0.0041979663 0.6737416 0.0006271321 -0.19078015 0.016427444 -0.31115487 -0.31731725
-0.23538949 -0.26070675 0.07484818 0.24811445 0.0499197 0.089799024 0.31652275 0.25476635
1.234459 -0.37143856 0.10942771 0.8606269 -0.53151315 0.7507141 0.31406146 -0.5939684
0.31250772 -0.20180003 -0.24558045 -0.005560337 -0.59845114 -0.029807752 0.21915719 0.12552589
-0.18252727 -0.2048281 0.259742 -0.49966633 0.099903226 -0.10856198 -0.36840153 -0.51224273
0.5572721 -0.8400713 -0.69539136 -0.2726579 -0.033924103 -0.5080219 0.19212762 0.23533723
0.46848378 0.048776984 0.24593058 0.0719052 0.5954198 -0.20826903 0.41160798 0.47424474
-0.06991056 -0.77412814 0.89865434 -1.0118828 -0.11018428 -0.353362 0.27437496 -0.32426617
-0.641022 -0.009847782 0.10362401 0.14842345 -0.34167922 -0.088665284 -0.07974221 -0.08258647
0.9824478 0.120626114 0.6451554 0.09067102 -0.19316952 0.90835506 1.1065195 0.4684158
0.23911314 0.24064602 0.03581624 1.134042 0.086094104 0.9590845 0.59747297 -0.09561653
0.44664487 -0.5918835 0.3325004 -0.26889056 -0.7332642 -0.04043989 -0.27996343 -1.1229782
-0.24130484 0.12631962 -0.33985782 -0.24348278 -0.7727994 0.00088443456 1.8883187 0.031904124
-0.11780078 -0.7685156 0.2940989 0.28254348 0.44958186 0.035928473 -0.33757177 -0.088148855
-0.34858307 -0.15184094 0.54268205 0.7652649 -0.4747198 -0.045948073 0.028383898 0.7713506
0.63014853 -0.75413394 -0.7081552 -0.2130805 0.13610718 0.683572 -0.6774607 -0.16291311
00000000: e0c5 4a3f 9ad5 26bd 512b 23bf af08 a0be
00000010: ee78 82bf 804a 12be 104f 45bf 5c89 613e
00000020: 960f fd3e 2944 36c0 b808 49bd 7667 a73f
00000030: 49b7 303e 21bf b53e e2ea 7dbd 6ea8 e1be
00000040: 978a a53e d0fd 8bbd 00bd 853f 9ef4 7d3f
00000050: 6e68 46bf 68a2 40bd 7af5 373f b219 c0be
00000060: 9e9d 29bf 210e 483f d705 813e d4ed 0e3e
00000070: ba62 653f f47b f1bc 0fc1 15bf 0e5e cebe
00000080: 4f47 043f dafa d73f bf56 72be debd 1bbf
00000090: 6e62 c13f bb8c a3bd 5a65 a83f b144 73bf
000000a0: 5e0c 5ebf c595 94be 53a7 54bf a37d edbd
000000b0: 0542 f53f 8db0 aebf 01c8 afbe 7a58 b43e
000000c0: 54d2 d13f e318 e1bf e014 1b3f 21be 8a3f
000000d0: 880a f53e 91f9 ea3e 5650 493f 48a5 79bd
000000e0: 5fd0 04bf f453 07bf ffac 613f 8018 64be
000000f0: b166 533f 820b 27bd 7067 8abf f48c 0fbc
00000100: a9df 03bf aebf c1bb 6fd6 babe 56d4 eebe
00000110: 0ae6 e1be b113 8abd c3e7 513f 7803 703f
00000120: 50c9 903e 89a3 a1bf 0b53 933f 2ea4 36bf
00000130: f37f 41bd 693f 373e a034 b2be a5e0 a63e
00000140: 83e2 28bf da5b 7e3e 7ef4 abbd cc2c 9bbf
00000150: b91c 403f b70c b7bf 87a8 aebd 7644 4c3f
00000160: d333 24bf 87bd 26bc 2649 183f 14e2 98bd
00000170: 6f67 8d3e 0f03 d7bc 0ea5 4cbe 56c7 84bd
00000180: 1d4a 573f a222 183e aad5 63bf 5cfd 7d3e
00000190: 1945 56be fdba de3d fbc3 083f fcae 023e
000001a0: 7885 0ebf 3f79 d73e 4f5e 8dbf a055 ac3f
000001b0: 7cdd 093f c335 b03e e227 6bbf 4c46 d0bd
000001c0: 8382 a9bf dc66 c6bd de97 6dbf d9f1 98be
000001d0: 2d39 aabf 9390 0c3f 7418 9bbe 1217 b6be
000001e0: 7dc2 f43e 70c9 95be 82ed 75bf d762 b93f
000001f0: cc1d 1a3f efb4 563f 7424 b1be f1ad 713f
00000200: 7341 283e 188f 89bb 547a 2c3f 1f66 243a
00000210: df5b 43be d992 863c b14f 9fbe 6877 a2be
00000220: f109 71be 5b7b 85be 014a 993d b711 7e3e
00000230: 9978 4c3d 8de8 b73d 450f a23e bc70 823e
00000240: c102 9e3f 322d bebe a31b e03d 0b52 5c3f
00000250: 3f11 08bf cd2e 403f aacc a03e 500e 18bf
00000260: 0301 a03e aba4 4ebe 7179 7bbe 7d33 b6bb
00000270: 1834 19bf 632f f4bc be6a 603e dc89 003e
00000280: 6ee8 3abe 75be 51be e7fc 843e 44d4 ffbe
00000290: 109a cc3d be55 debd 209f bcbe 5722 03bf
000002a0: 62a9 0e3f ea0e 57bf 2b05 32bf d199 8bbe
000002b0: 00f4 0abd b90d 02bf 1abd 443e 3efc 703e
000002c0: 1bdd ef3e 60ca 473d 3ad5 7b3e 0943 933d
000002d0: 6f6d 183f 7a44 55be 48be d23e 35d0 f23e
000002e0: 452d 8fbd 432d 46bf 360e 663f 6085 81bf
000002f0: 4ca8 e1bd ddeb b4be e07a 8c3e 3706 a6be
00000300: 051a 24bf 9758 21bc d338 d43d 51fc 173e
00000310: 94f0 aebe 2596 b5bd e24f a3bd 1823 a9bd
00000320: b381 7b3f d30a f73d e728 253f bab1 b93d
00000330: 3bce 45be f589 683f 6ea2 8d3f 32d4 ef3e
00000340: 13da 743e e96b 763e 0db4 123d 4a28 913f
00000350: 1b52 b03d 9086 753f fdf3 183f 99d2 c3bd
00000360: a3ae e43e ad85 17bf 7e3d aa3e 06ac 89be
00000370: 34b7 3bbf 4ca4 25bd 5e57 8fbe c0bd 8fbf
00000380: 9e18 77be ee59 013e d801 aebe 8d53 79be
00000390: 2ed6 45bf 66d9 673a 6db4 f13f e6ad 023d
000003a0: 8941 f1bd 70bd 44bf 2294 963e 8aa9 903e
000003b0: 982f e63e bc29 133d 35d6 acbe 6387 b4bd
000003c0: 7b79 b2be 317c 1bbe 36ed 0a3f 67e8 433f
000003d0: 790e f3be 0c34 3cbd 5985 e83c 3c77 453f
000003e0: 6a51 213f ec0e 41bf a949 35bf c631 5abe
000003f0: ae5f 0b3e 93fe 2e3f 106e 2dbf b2d2 26be

action_out.bias f4 [5]
-0.40236413 0.31991386 -0.54721826 -0.33077994 0.7366541
00000000: ac02 cebe c0cb a33e 7f16 0cbf fd5b a9be
00000010: 5d95 3c3f
