mpeEnvs/model/simple_tag/agent_0/1_actor_params.pkl (torch, 41167 bytes, 8 tensors)

fc1.weight f4 [64, 16]
00000000: cb60 df3e c46f 43bf 51a9 60be 134b 923e
00000010: be25 4c3e 30db 0c3f 0010 c6be cef3 7abe
00000020: 5053 4cc0 eda3 01c0 d9e7 a2bd 943f e73f
00000030: a07f 6b3d 85f9 c2bf 6a97 c4bf a6e1 733f
00000040: f7e9 d93e bbd3 8e3c b461 5dbc ac89 983e
00000050: 9297 db3e ba26 803d 8af5 e1be 31e5 873e
00000060: 2ff5 563d c89a 59be 9794 1e3f bd02 5a3d
00000070: 5d97 1340 7141 ecc0 27a4 16bf d8ca 92bd
00000080: dbc1 a6bf 5edd 47bf dabf 9d3e 2596 47bf
00000090: aafb 2f3f 3bde 3c3e ca70 b3be 29dd 79bf
000000a0: 80b1 d7be 2154 123e 7080 15be e5cf 21bf
000000b0: a8f8 f7bf 8b79 8ec0 9a66 fc3e d4e4 d73e
000000c0: c096 cf3f 0771 26bf 0c58 b33e 2468 8ebe
000000d0: 0d9d 993e bd61 e93d 99a0 e13c b3c6 e0be
000000e0: 8c11 11bf 5201 503f 04d1 10bf e09f f43c
000000f0: 731c 54c0 ace6 743f c02e 67bf 34cb 01bf
00000100: e42d 8ebe 7a3e 143e 9906 cdbe 3556 ecbe
00000110: 703f 23be 9e33 923f 25f0 a1be 4a38 b9bf
00000120: 8916 1c3f cc17 80bd aa35 23bf c282 5a3f
00000130: aa49 c03e f6cc 8dc0 6d11 a83e 6364 0dbf
00000140: 10af e33e c023 183f 7ca5 6bbf 59ba a03e
00000150: c594 7fbf e799 6f3e 2736 b23d 12e6 493a
00000160: fff4 a4bf 0f71 633f 2655 15bf 9a2a c03f
00000170: 7bb1 50c0 30f8 9540 d971 c13c 5ad5 94bf
00000180: ed5a 9bbe 5dac bcbd ad4a bd3c b55c 99be
00000190: a33f 42bf 1f51 ed3d 89a8 4b3f 44d1 c0be
000001a0: 422a 2a3f a954 553f 3a27 cf3e ed8b f6be
000001b0: 8468 21be 4bbf c63f 9323 21bf 712b 5c3f
000001c0: ad14 95bf f926 c7bf 4357 cebe bc44 36bf
000001d0: 9036 15bf 43b4 3abe 03aa 653e 1710 16bf
000001e0: 926e c23d cb3f c63f 4350 bc3f 1bdf fe3f
000001f0: fe86 f3bf 155e 07c0 ed3a b83d 2692 113c
00000200: 5d99 dfbe ff24 513b 70ff 14be de3f 96be
00000210: eee9 7ebe 4594 57be 9f82 2c3e e152 36bd
00000220: 8594 07bf bf8b b53e fb36 c43f 43b5 0a40
00000230: b132 d840 febe ab3f a084 b13e b3db c23e
00000240: 9b35 ea3e 1817 cfba 6fb6 bd3e 7c03 83be
00000250: 0c79 4b3e 2067 77bf 9b6e 613e fce6 243f
00000260: 0e3a c5be 2b1a 0e3f a696 943e 14af 5a3f
00000270: 6310 b8c0 bf77 2440 747b d5bd a12d 86bd
00000280: 61d0 b33e 3779 6bbb 67d0 143e 70e2 9abe
00000290: b625 2c3e 2295 d5be 84b3 82bd 110d c13d
000002a0: 13e6 df3f 0d16 603f c7ac 34c0 f0b6 2b3e
000002b0: a7ce 3bc0 f648 54c0 c63f ad3f 1a02 353f
000002c0: 1d24 3bbe 33e7 94be 6abf 653d 8c45 023e
000002d0: 5d34 b13e 4bd8 0fbe c2c6 adbe 7402 833e
000002e0: 69e6 0340 ad90 c43f 7000 5e3f ef1b 103f
000002f0: f0d1 29c0 5482 5fbf ac4c 6abf 2249 dd3d
00000300: 8161 c83e 4a8f 1abf 13b1 5ebe 712f a5bc
00000310: 88f9 243e 58d4 383f a527 bbbe 564f 29bf
00000320: e8c5 863f 6ff0 64bf 2c1e 6b3f 1d2a 72bf
00000330: 74a9 cc40 caaa 35c0 68ee 8dbf 7b1e e03e
00000340: 11e5 853f 678b 41bf 2162 fdbe 4bb5 8dbe
00000350: 4755 533d afd6 f8be a7b8 10bf fa04 783e
00000360: eb2e a6be 7489 6b3d 3a3e 93bd 3214 2f3f
00000370: a783 dc40 47cc 33c0 e3b4 c93e 1125 9cbf
00000380: 4835 7c3f 7ab8 323f 15ba a0bd ec00 633f
00000390: 9033 dd3e e331 003e 48eb 05bf 6a68 453f
000003a0: 3b8a b93f 1827 28bf f0f8 303f 1df3 34bf
000003b0: cc3d 0540 59bf 79c0 452f 743d 5292 20bf
000003c0: 3b33 0dbf b099 a6be 3de0 483f 9821 1f3f
000003d0: cdf7 853e abcf 983e 3a83 093f 5f67 963e
000003e0: 6e60 183f f6bb 3a3f 25c8 17bf bb9f ec3e
000003f0: e45c 91bf 555e 0641 5920 c43e d7d4 cbbd
0.43628535 -0.76342416 -0.21939589 0.28572902 0.19936273 0.55021954 -0.38684082 -0.24507067
-3.192585 -2.0256302 -0.07954378 1.8066278 0.05749476 -1.5232397 -1.5358708 0.9526619
0.42561314 0.017434945 -0.013512064 0.29792535 0.42889076 0.062573865 -0.44132644 0.26542047
0.05247992 -0.2125045 0.6194548 0.053225268 2.3061135 -7.3829885 -0.58844227 -0.071675956
-1.302791 -0.78072155 0.30810434 -0.7796348 0.68743384 0.18444149 -0.3504699 -0.9760309
-0.4212761 0.14289905 -0.14599776 -0.63207847 -1.9372759 -4.452337 0.4929703 0.4216677
1.621788 -0.65016216 0.35028112 -0.27813828 0.30002633 0.11395595 0.0275424 -0.43901595
-0.566674 0.81252015 -0.5656893 0.02986139 -3.3142364 0.9566448 -0.9030571 -0.5070069
-0.27769387 0.14476958 -0.40044096 -0.4615952 -0.15942168 1.1422002 -0.31628528 -1.4470303
0.60971886 -0.06254539 -0.6375376 0.8535577 0.375562 -4.4312696 0.32825795 -0.552313
0.444695 0.5942955 -0.92049384 0.31392172 -0.9983638 0.23398553 0.08701735 0.00077018247
-1.2887267 0.8884439 -0.5833305 1.5013001 -3.2608325 4.6865463 0.023613857 -1.162761
-0.30342808 -0.09212563 0.023106897 -0.29953542 -0.7587835 0.11587738 0.7955404 -0.37659657
0.6647073 0.83332306 0.40459615 -0.4815363 -0.15762526 1.5527128 -0.62944907 0.86003786
-1.1646935 -1.5558769 -0.4030095 -0.7119863 -0.5828638 -0.18232827 0.22428136 -0.586183
0.09493746 1.5488218 1.4711994 1.9911836 -1.9025571 -2.1151173 0.08995614 0.008884942
-0.43671694 0.003191292 -0.14550567 -0.29345602 -0.24893925 -0.21052654 0.16846703 -0.044512633
-0.52961 0.3545818 1.5329279 2.1673133 6.756188 1.3417661 0.34671497 0.38058242
0.45744023 -0.0015799729 0.37053248 -0.25588596 0.19870394 -0.9664173 0.22014849 0.64414954
-0.38520855 0.5550868 0.29021186 0.854234 -5.7520003 2.5698087 -0.104239374 -0.06551672
0.35119918 -0.0035930404 0.14532624 -0.30250883 0.1681126 -0.41715342 -0.06381896 0.0942632
1.7492088 0.87533647 -2.8230455 0.16769004 -2.934488 -3.3169532 1.3535087 0.7070633
-0.18275495 -0.2908264 0.05609075 0.12721843 0.34610263 -0.14047353 -0.33940703 0.2558781
2.0609381 1.5356652 0.8671942 0.56292623 -2.6534386 -0.8730824 -0.9152324 0.108049646
0.3913689 -0.6037489 -0.21747236 -0.020164223 0.16110814 0.7219901 -0.36553684 -0.6613668
1.0529146 -0.8942937 0.91842914 -0.9459551 6.395685 -2.8385491 -1.1088381 0.43773255
1.046053 -0.75603336 -0.4948893 -0.27677378 0.051595 -0.4860129 -0.5653176 0.24220648
-0.3245767 0.057504132 -0.07189603 0.6839019 6.891071 -2.809343 0.39395818 -1.2198812
0.985188 0.6981274 -0.07847992 0.8867328 0.43203402 0.1251903 -0.52312136 0.7711245
1.449531 -0.6568465 0.6912985 -0.7068346 2.0818968 -3.902304 0.059615392 -0.6272327
-0.55156296 -0.3253913 0.7846716 0.62160635 0.2616562 0.29845938 0.5371586 0.2937574
0.5952214 0.72943056 -0.5928977 0.46215615 -1.1356473 8.39803 0.3830593 -0.09952705

fc1.bias f4 [64]
00000000: 438f aebc 5979 ca3f d61b 9a3f 9883 bfbe
00000010: 8853 39bf 7d5f 603f 2571 9e3f 5130 86be
00000020: 5eb1 39be bbce 183e 3e4f 7f3e 4c5b bfbe
00000030: f2c6 8a3f cd86 af3f 8b71 053f 2df7 2d3f
00000040: 089d ba3f cf26 b23f 72af 863f 0989 973e
00000050: 28b5 2d3f 3399 6c3f cd1f 353f f173 2a3f
00000060: 94bb 183f 0b44 f13f 8acd 08bf dfbb 793f
00000070: a17e 493f 1989 b43f 2ebe df3f 3e19 76bf
00000080: 519f a93f 39fa b53f b3e2 9c3f a35c 3d3f
00000090: 246e 353f 9b86 b33f 8d04 5c3f 4d4f 413f
000000a0: 8f8a 82be bc22 a8bd face b13f eb80 d33e
000000b0: f36b 82bf 2b4e c0be a6c5 273f a62a 09bf
000000c0: 61c5 ca3f 5afe 913e 9bae 803f c1cc fcbc
000000d0: b10e 443f 093d d93e 8e83 553f e714 8d3e
000000e0: f100 8d3f 7524 f83e b9bf 9bbc 0fa1 a0bf
000000f0: c278 023f c996 113f 88e0 153f 9977 833f
-0.021308547 1.5818282 1.2039745 -0.37405086 -0.72393084 0.87645704 1.2378279 -0.26208737
-0.18134066 0.14922611 0.24932572 -0.3737434 1.0841963 1.3713013 0.5212638 0.67955285
1.4579172 1.3918093 1.0522292 0.29596737 0.6785455 0.92421263 0.7075165 0.6658316
0.5966122 1.884889 -0.5343863 0.97552294 0.78708845 1.4104339 1.7479913 -0.96132267
1.3251745 1.4216987 1.2256683 0.7396948 0.70871186 1.4025453 0.85944444 0.7551163
-0.25496337 -0.0820975 1.3891289 0.41309294 -1.0189193 -0.37559637 0.6553596 -0.535807
1.5841485 0.28514367 1.0053285 -0.030859353 0.7658492 0.4242938 0.8340386 0.2755501
1.1015912 0.48465315 -0.019012319 -1.2549151 0.5096551 0.56870705 0.5854573 1.0270873

fc2.weight f4 [64, 64]
00000000: 4796 f93e 2ea5 763f 4e4a ee3e b9be f2be
00000010: 1314 233f f2e8 1fbf f15b 983f c617 ecbe
00000020: 2b58 f7be 0a42 b5be 02b3 bf3e c078 ca3e
00000030: af70 623f 7eb5 973e a2b2 453e 1fe3 6dbf
00000040: a331 4b3f 9334 0c3f a0a7 0bbf cbd0 dd3d
00000050: 2872 52be 9ce0 c2be 31aa bdbd cef9 86bf
00000060: d2e5 78bf 0832 4cbd 160d 053f 6e5a 903f
00000070: 2ddb 2bbe 424e 9d3c 4a74 ef3e e3e0 f3be
00000080: cdd3 073f 7d55 a6be 7ac6 193f 0651 c0be
00000090: 1cc1 0abe b069 5a3e a7db 0d3f 01d9 1c3f
000000a0: 7cd1 5cbe 269e b73e c4d3 c73d 2f53 983e
000000b0: f0f1 02bf 2320 93be 80fc 81be ffe8 2b3e
000000c0: 2a11 cebe b779 0b3f ca13 d7bd c1ee 193d
000000d0: 5c80 d73e ef23 0a3e 0e2d bdbe 0717 3ebf
000000e0: 6741 3a3f 0b13 ae3c c9ed 9ebe ac42 c7be
000000f0: acee 733e 1556 41be f12f c43d 8ddb b03d
00000100: 0d84 f9bf 32f2 3c3f ec2b fcbe a5bc 5cbe
00000110: 59b0 7abe 9ea3 86bf 792b 0cbe 21fb f8be
00000120: 3626 7ebe 4041 59bf 0e16 653f 7d27 2b3f
00000130: ad65 fbbe f9b7 b73d 9940 15bd 2236 fa3d
00000140: 3d69 853e dd77 24bf 0e3c 633f 10af 7d3e
00000150: 2c87 5a3f e451 913e 5b65 2d3e b629 83be
00000160: 22b1 27bd fd1a ddbe 581c 7bbf a440 c83e
00000170: 8d13 b9be b9f7 c63d c831 45be 7909 96bf
00000180: 2d2d f23e 57b3 c6bd b39f ee3e df29 193d
00000190: e637 be3d 6613 e73e 1cc8 dfbd 3c6f 79bf
000001a0: 169c 023e e095 fbbe be46 193f 1d84 aebe
000001b0: 02d5 0a3c a2c4 2dbf ab1e 103f fd93 9abd
000001c0: afd6 b3bf 6a7c 803e facb 81bf 95ce 063e
000001d0: 3169 89be 60d9 b0be 3fd6 e2be 8117 aabe
000001e0: 6785 3b3f ef32 143f ff2c 00be 375f 19be
000001f0: 54a8 7abe 9448 b23e ea6f fe3e 3fc2 9e3e
00000200: 225b 243f 27a9 febe 9dfe 953d dea4 22be
00000210: 80c5 c13e 4cb9 f03d fa09 dc3e 1561 e03e
00000220: 1a4b ab3e e7b4 90bf bfbf a83e 82c8 45be
00000230: e058 313d 195c 003f a7ca 14bd dea7 923f
00000240: efa2 88be 4c6a bd3e 58a8 b43e 48a5 e13d
00000250: e949 27bf bf04 29bf a558 073f d4d6 0e3f
00000260: 82c0 d53e fdd9 703f 0776 36bf 359c 95be
00000270: 2bc0 3fbf 3cc8 acbf 67a7 a23e a630 b43e
00000280: 3ef3 983f 37df 8c3f 0355 10be 498b c43e
00000290: 8b7b 59be b996 363f c8b5 5bbe 7066 46be
000002a0: 7c85 bb3d eebb 8bbe 6ae4 d0bc 309a 10bd
000002b0: 8df0 103f 9882 833e dc2a 483e b4f3 49bf
000002c0: b5c4 b1be abe5 523e ed40 5d3b 157d 3e3f
000002d0: 7037 5c3d fcc5 c3bd 5dc9 90be f3c9 01bf
000002e0: 52fe b83e f22a de3e ce02 5a3f d913 0c3e
000002f0: ac7c 7e3e 7a43 cf3e a8ca 983d 50c7 733d
00000300: f1be bebf 8d02 473f 6743 fd3d 597b febe
00000310: 7c95 4f3e f1ba f0be b669 57bd f97a a83e
00000320: 64dd 01bf de83 53be 4e5a 513e 28d0 433f
00000330: 11f5 053f b296 0a3e 381d 313f 795a d3be
00000340: 5a49 14bf 6ff3 483f a790 5f3f f738 a5be
00000350: 4b78 57bb 4d96 463f fb80 59be 2e50 353f
00000360: edc3 1dbf 70df 28bf c159 4a3e 963d 163f
00000370: 82ae 47be e6ab 9cbd 96ad 023f b38d f4be
00000380: 1a81 ff3e fcaa 383e 85be 0dbf 5776 a03e
00000390: b376 b0bf a6bf 943f 56b2 c9be a50c 65bf
000003a0: ac84 7f3d 47a1 3a3f f54c 833d ee72 edbe
000003b0: 2d16 8dbd ceb6 c4be 0f90 a0bd 8d78 58bf
000003c0: 89d8 71bf 582c b03f 420d 123f aa8f 373f
000003d0: f4d1 38bf da1e 183f 30cf d23d ac6b f4be
000003e0: 5974 a53f 85fc 633d a14e 01bd 06e3 3e3e
000003f0: 2a8c b0bf df5f 013f 3eb0 073f e4a0 c33e
0.48747465 0.96345794 0.46541065 -0.47411135 0.63702506 -0.6246482 1.1903058 -0.46111888
-0.48309454 -0.35401946 0.3744126 0.3954525 0.8845319 0.29630655 0.19306424 -0.92924684
0.79372615 0.5476772 -0.5455265 0.1083084 -0.2055136 -0.38061988 -0.09260977 -1.0544984
-0.9722568 -0.0498524 0.5197309 1.1277597 -0.16782828 0.019202355 0.4676841 -0.47632512
0.5305756 -0.32487097 0.60068476 -0.37561816 -0.13550228 0.21329379 0.5541329 0.6126862
-0.21564287 0.35862845 0.09757188 0.29750964 -0.5115042 -0.28735456 -0.25387955 0.167881
-0.4024747 0.544826 -0.10501821 0.03758121 0.42090118 0.1349027 -0.36948436 -0.74253887
0.72756046 0.021249315 -0.3104079 -0.38918054 0.23821515 -0.18880494 0.095794566 0.08635626
-1.9493424 0.7380706 -0.4925226 -0.21556337 -0.24481334 -1.0518682 -0.13688459 -0.48629096
-0.24819264 -0.8486519 0.8948678 0.6685713 -0.4910101 0.08970637 -0.03643856 0.12217356
0.26056853 -0.64245397 0.8876351 0.24773812 0.85362506 0.2838279 0.16933195 -0.2561776
-0.04094041 -0.43184653 -0.98090124 0.39111817 -0.3614773 0.09715218 -0.19257271 -1.1721641
0.4730009 -0.09702175 0.46606216 0.037393447 0.092880055 0.45131987 -0.1092684 -0.97435355
0.12754855 -0.49137783 0.5987357 -0.3408517 0.008473637 -0.6787816 0.56296796 -0.07547758
-1.4049891 0.2509492 -1.0140374 0.13164742 -0.26838067 -0.34540844 -0.44304082 -0.33221057
0.7325043 0.5789022 -0.12517165 -0.14977728 -0.24478275 0.34820998 0.4969476 0.31007573
0.6420156 -0.49738428 0.07323954 -0.15883204 0.37845993 0.117540926 0.42976362 0.43824068
0.33455735 -1.1305207 0.3295879 -0.19314769 0.04329765 0.5014053 -0.036326077 1.1457479
-0.26686808 0.3699516 0.35284686 0.11017853 -0.6534715 -0.66022867 0.52869636 0.5579655
0.41748434 0.94082624 -0.71273845 -0.2922074 -0.749026 -1.3498607 0.31768343 0.35193366
1.1949232 1.100562 -0.1409493 0.38387516 -0.21238534 0.71323735 -0.21456063 -0.19375014
0.091563195 -0.27291816 -0.025499541 -0.035303295 0.5661705 0.25685573 0.195476 -0.78887486
-0.34720388 0.20595424 0.0033760623 0.7440961 0.053763807 -0.09559247 -0.28278628 -0.50698775
0.3613153 0.4339214 0.8516053 0.13679446 0.24852246 0.40481168 0.074605286 0.05951625
-1.4902021 0.7773827 0.123663716 -0.49703482 0.20271868 -0.47017625 -0.05259105 0.3290632
-0.5072844 -0.20655772 0.20444605 0.76489496 0.52327067 0.13534048 0.6918521 -0.41279963
-0.57924426 0.7849645 0.87330097 -0.32270023 -0.0032878097 0.7757309 -0.21240608 0.7082547
-0.61627084 -0.6596594 0.19760801 0.5868772 -0.19500163 -0.076499745 0.5104612 -0.47764358
0.49903184 0.18033975 -0.55368835 0.31340286 -1.3786224 1.1620986 -0.39393872 -0.8947242
0.062382385 0.7290234 0.06411163 -0.46376747 -0.06888995 -0.3842072 -0.07839977 -0.84558946
-0.9447103 1.3763533 0.5705148 0.7170359 -0.72195363 0.59422076 0.10293424 -0.47738397
1.2926131 0.055660743 -0.031569127 0.1864129 -1.3792775 0.5053691 0.530033 0.38208687

fc2.bias f4 [64]
00000000: 9886 523f 8623 ae3d 64b9 a23e cd06 f93e
00000010: e9a3 473e 6456 8bbf 0919 10bf 443a bd3e
00000020: 4eea 313f ff73 6d3b 8010 37be b51d 963e
00000030: ae98 c93e c3d5 a0bd 5fba 9cbe 1a35 3f3f
00000040: 44cd 473c 166d 48bf 18a7 15bf dcbd 81be
00000050: ecfe 003e 92b9 55bf 19c2 d63c be8b 93be
00000060: 0e69 103f c313 95be bde1 24be 1472 2ebf
00000070: f569 23bf ee5c 9e3e 1ef2 54bf c3d8 68be
00000080: 0033 4e3e 34ee e43e 281b 043f 1745 b3be
00000090: ef9d a5bd 162d 113f caf2 8abf 796a d13e
000000a0: 45dd c33e 40df 6d3f b50d 1cbd 7340 8b3e
000000b0: fe66 5ebc beab b4be d124 acbe b342 86be
000000c0: adf0 d33c 8fae 3fbe 39ab 9cbc 48bf 34bf
000000d0: 5d8e 64be 07ba 333e 9f4e 8dbe 63e8 4e3f
000000e0: c7c3 843c 8c20 69be 91ac 163f a348 1dbe
000000f0: 581d 1c3f 8ee7 7d3e 0338 b0be 702b 7a3e
0.82236624 0.08502869 0.31782067 0.48638 0.1949612 -1.0885739 -0.562882 0.36958516
0.69498146 0.003623247 -0.17877388 0.2931954 0.39374298 -0.07853272 -0.3061094 0.746904
0.012194935 -0.7829145 -0.5845809 -0.25340164 0.12597245 -0.8348628 0.0262156 -0.28817552
0.564103 -0.2911664 -0.16101737 -0.6814282 -0.6383355 0.30930275 -0.8318194 -0.22738938
0.20136642 0.44712985 0.5160394 -0.3501365 -0.08086764 0.5670942 -1.0855343 0.40901545
0.38254753 0.9291878 -0.03809901 0.27197608 -0.01357436 -0.3528728 -0.3362184 -0.26222762
0.0258716 -0.18718933 -0.019124614 -0.7060437 -0.22319932 0.17551433 -0.27599046 0.80823344
0.016206635 -0.22766322 0.58857065 -0.1535974 0.60982275 0.24795362 -0.34417734 0.24430633

fc3.weight f4 [64, 64]
00000000: 12d4 623f d49c 593e 92e5 aa3e 841e 0ebf
00000010: 651c 0840 3c7f 9cbf 797d f6bf f319 12bf
00000020: d4ff a43f a12d 083f e382 ec3e 16c3 7dbf
00000030: dddb 96bb 998f bf3e 91f3 623f dcdd ce3e
00000040: b8d1 f53e 3fff 89bc 3408 26bf baef 9abe
00000050: 69e6 f23e 62e8 11bf baa1 0e3e 410a 553f
00000060: 3466 3a3e 8e6e 8fbf af94 413e d345 b63e
00000070: e2a5 aabf 9b50 88be 9941 3ebe bd7c b3bf
00000080: 2c5b 6b3e 4dc6 24bf 8182 8abe 38e6 0cbd
00000090: 6865 b7bf 35bf 403e fd4b 073e 9e90 c13e
000000a0: c6d6 c13e 2d12 063f b2c1 00be c02a 67bf
000000b0: 28a8 15bc 3882 a7be fe24 aabe a493 93bf
000000c0: c51a e83e 2205 a53e f86d 053f 615e c2be
000000d0: 3685 963e b499 133e f589 21bf acb4 27bd
000000e0: 73dd 73bf 9812 4bbe fbe5 36be a533 1cbd
000000f0: 77b4 00bf 5ac7 643f 74f5 303d f55c a23f
00000100: 29fd a2bd c343 693c 0b2c 023c ddc9 1abe
00000110: 8c8c 3f3c ce8a 02be f044 c3bc c7d1 25be
00000120: f6e2 19be 173b 89bd 9c97 1fbd fc8f 7dbd
00000130: e76f ffbd efae c2bc 4e6b 86bc 54ec fcbc
00000140: d679 eaba d621 9dbd 8cee f7bc e69f 01be
00000150: ee9b 39bd dd69 0bbe 377a e7bd 8e2a fabd
00000160: 13ae b1bd bff0 f6bd f03b 77bc e576 17bd
00000170: 2e40 c4bd c4d1 30be 74f4 693c 8df8 d4bd
00000180: f9a1 333d eaa2 fdbd a1db 3ebe d77c 5ebd
00000190: a1c4 9ebd 3ffc 8cbd c189 31bd f397 363c
000001a0: 58d1 33be 3b0c f1bc 4ed9 b9bd 0873 15be
000001b0: 5d8f 9abb 80a3 303d fcb0 a7bd 3e4a 87bd
000001c0: 035a 7d3d 6ad1 c23d a882 793d fd74 98bd
000001d0: 1667 0cbd 0334 cfbd 9db9 f63c b3ef 1b3b
000001e0: 58be f3bd 696c 7e3c 1d2c 25bd e50d d23b
000001f0: 3ffe f13c 0502 70bd 3f76 23be 91b3 7bbc
00000200: 284a 71be 7256 823f 0be5 1c3f 7a40 e53e
00000210: 3ca4 f4bd 4669 86bf 35f2 a4be 2e92 7c3e
00000220: 39b3 e7be cec9 cf3f 5128 ebbd a33a 793e
00000230: 86f8 be3e 7f4f 4e3f 742b 193e 293f d43e
00000240: 0158 473f 45bc c53d 6c1d 5abf f441 143f
00000250: f163 8d3f c5d6 953e 0772 a6be 2054 a13f
00000260: 2088 74bf e0a2 5cbf ae48 1dbc bc28 46bf
00000270: d94a 99bf 091b 863c 30ed 5dbf 0cce dfbe
00000280: 7e39 d8be 516e bcbe da30 13bf eb34 d1be
00000290: adb4 45bf 3ce3 f53e 7048 b8be 5fc7 bc3e
000002a0: eb40 d53e 74f3 993e 8ec6 d4bf 8c06 4dbf
000002b0: d806 96be 77ed c33e df34 1dbf f9d0 083e
000002c0: 4eb5 78be eba5 06bf decf 223c da1d 87bf
000002d0: 9c7e 86bf c024 7e3f dd0f c03e e76c b9bf
000002e0: 997f 14bf bf2d 72bf 6650 c7bd 9ae5 38bf
000002f0: d26a 9bbd 1a79 f13e 0ea1 653f 236f febe
00000300: 707d 0b3f a24a 603f 9f95 36bf 4faa 8c3f
00000310: 13c7 a0bf 9e68 653e 1d13 e13e 792a 153e
00000320: 45d9 053d 254d c4bf 4b6e 87bd b5da 58bf
00000330: e75b 353f f892 63bf 27ae aa3e 4f13 7e3e
00000340: 0639 bcbf fcd0 b6bf fb44 b8be cb06 c5bf
00000350: f616 fe3e f539 09be acd5 febe dd00 de3e
00000360: f33a eabe c155 9abc bb14 27c0 22bf 893f
00000370: 7cf5 8abe e3e6 9bbf 018c 8bbf c4e3 fe3e
00000380: 5c3a bfbf 3c3b d6bf aa11 063f ac4f 0dbf
00000390: 1b83 293f 88b3 813d 0cdd 483f 1cbd ce3e
000003a0: c3f0 953f 6e4f 363f d232 28bf df47 4bbe
000003b0: e672 873e 27df 13bf 86e5 edbd f77c 603d
000003c0: e776 d6bf f801 e5be fb58 153c 3dad 4e3e
000003d0: 91f8 703f e438 153e cc9c e0bc 9d80 a6be
000003e0: e7ca 82bf f02d 11bf 5485 613d 37f2 603f
000003f0: c3af b23e 36d3 9dbe 8d85 ea3e 90f1 20bf
0.88604844 0.21251231 0.33378273 -0.55515313 2.126733 -1.2226329 -1.9257041 -0.57070845
1.2890573 0.53194624 0.4619361 -0.991258 -0.0046038465 0.37414244 0.886529 0.4040364
0.48011565 -0.016845344 -0.64856267 -0.30261022 0.47441414 -0.56995213 0.13928881 0.8321877
0.1820305 -1.1205614 0.18904375 0.35600147 -1.3331873 -0.26623997 -0.18579711 -1.4022442
0.22983998 -0.6436508 -0.27052692 -0.03439924 -1.4327822 0.1882294 0.13212581 0.37805647
0.37859172 0.52371484 -0.12573889 -0.90299606 -0.00913433 -0.32716537 -0.33231348 -1.1529431
0.45332924 0.3223048 0.52120924 -0.3796263 0.29398507 0.14414102 -0.6310113 -0.040943787
-0.9525978 -0.19831312 -0.17861168 -0.03813519 -0.5027537 0.89366686 0.043202832 1.2684618
-0.07958443 0.014237347 0.007945071 -0.15116067 0.011691224 -0.12748262 -0.023836583 -0.16193305
-0.15027985 -0.067007236 -0.038962945 -0.061904892 -0.124725156 -0.023765055 -0.016408589 -0.030874409
-0.0017889093 -0.07672469 -0.030265115 -0.12658653 -0.04531472 -0.13614602 -0.113026075 -0.12215148
-0.0867578 -0.120576374 -0.015089974 -0.03697862 -0.09582554 -0.17267519 0.014279474 -0.1039897
0.04385564 -0.12384589 -0.1863847 -0.054318275 -0.07752348 -0.068840496 -0.043344263 0.011144626
-0.17560327 -0.029424777 -0.09074651 -0.14594662 -0.0047167973 0.043124676 -0.08188054 -0.066059574
0.06185342 0.09512599 0.06091562 -0.07444189 -0.034277998 -0.10117342 0.030117804 0.0023793995
-0.119015396 0.015528777 -0.040325273 0.0064103478 0.02954018 -0.058595676 -0.15963076 -0.015362636
-0.23563445 1.0182631 0.6128699 0.44775754 -0.11945388 -1.0500877 -0.3221604 0.24665138
-0.45253924 1.6233461 -0.11482299 0.24338774 0.37298983 0.8059005 0.14957982 0.41454437
0.7786866 0.0965505 -0.85201144 0.57913136 1.1046125 0.2926542 -0.3250887 1.2603798
-0.9552021 -0.8618603 -0.009599848 -0.77405906 -1.1975967 0.016370313 -0.86690044 -0.4371189
-0.42231363 -0.36802915 -0.57496417 -0.40860686 -0.77228814 0.4802493 -0.35992765 0.36870858
0.4165109 0.30068552 -1.6623094 -0.80088115 -0.29302096 0.3826711 -0.614088 0.13360967
-0.24287912 -0.5259692 0.009937255 -1.0555985 -1.0507388 0.99274826 0.37512103 -1.4486359
-0.580072 -0.94601053 -0.09732132 -0.72225344 -0.07588734 0.47162706 0.89698875 -0.49694166
0.5448828 0.8761388 -0.71322054 1.0989474 -1.2560753 0.2240319 0.43959895 0.14566983
0.032677907 -1.5336043 -0.066128336 -0.8470872 0.70843357 -0.8889613 0.33335993 0.24812053
-1.4704902 -1.4282527 -0.35990128 -1.5392698 0.49626893 -0.13401015 -0.49772394 0.43360034
-0.457481 -0.018839719 -2.6106403 1.0761454 -0.27140415 -1.2179836 -1.0902101 0.49783146
-1.4939685 -1.6736827 0.52370703 -0.55199695 0.66215676 0.06333071 0.7846229 0.40378654
1.17141 0.7121495 -0.65702546 -0.19851635 0.26454848 -0.5776238 -0.11616044 0.054806676
-1.6755036 -0.44728065 0.009115453 0.20183273 0.9412928 0.14572483 -0.027418517 -0.3252
-1.0218171 -0.5671072 0.055058792 0.8786959 0.3489972 -0.30825204 0.45805016 -0.62868595

fc3.bias f4 [64]
00000000: 389b fa3d 8a03 55be bd12 8dbd aa51 5cbf
00000010: aa53 cd3e 2e7c 04bf 8b65 f33d 841e eabd
00000020: 4ff4 dcbd 5677 e23e 7c11 7fbd 59a6 f03e
00000030: 924c 953e 2ae4 3c3c 8253 e23e 01b5 973c
00000040: 29f4 543e 32ec 90be 7030 3dbc 1948 8fbe
00000050: 6286 60bd d963 c73e 08a6 d6bf 027d 0f3f
00000060: c9e7 a23e 872f c13e b481 233f c107 89bb
00000070: 1d4f 993e da12 ba3e fd82 a43c c370 82bf
00000080: c1a2 d0be 31b6 3abf 9a3f 58bf 9519 ce3e
00000090: c394 7dbe 1a14 07bd b443 5abd 563a 89be
000000a0: 77f8 a43b f3fb 11bf 5f91 0dbf 8858 bbbf
000000b0: ce92 c63e 72a4 ca3d 1407 a3be 233d 35bf
000000c0: 6e84 abbe dc83 aebf fd72 b53d 3e21 61bf
000000d0: a1ba 44bf 6b00 2dbf 9fd5 243f 0dce 30be
000000e0: 83e1 62bf c809 25bf eb89 5fbe 8015 8abf
000000f0: 40ca 643e dcee f0be 5670 5abe 8c77 cb3e
0.12236637 -0.20802131 -0.0688834 -0.8606211 0.40102893 -0.51751983 0.11884602 -0.11431602
-0.10788786 0.4423167 -0.062272534 0.47001913 0.2915998 0.011529008 0.44204336 0.018518927
0.20796265 -0.28305203 -0.011547193 -0.27984694 -0.054815657 0.38943365 -1.6769419 0.5605012
0.31817463 0.37731573 0.63869786 -0.0041818325 0.2994317 0.36342508 0.020081991 -1.0190662
-0.4074917 -0.7293425 -0.8447205 0.40253893 -0.2476378 -0.032978155 -0.053287223 -0.2680232
0.005034502 -0.5702507 -0.55299944 -1.4636393 0.38783878 0.09894647 -0.31841338 -0.7079641
-0.33499473 -1.363399 0.08859823 -0.8794135 -0.76847273 -0.6757876 0.6438846 -0.17266102
-0.88625354 -0.6446805 -0.21829955 -1.0787811 0.22342777 -0.47057235 -0.21331915 0.39739645

action_out.weight f4 [5, 64]
00000000: 242b 913e a5a3 de3d 4069 2ebe cbc5 f6bc
00000010: fc0f 40c0 13ea 353f be75 fb3f f4f7 46be
00000020: ea26 143f b896 1dbf 8c5a b2be 75d1 833e
00000030: aaa3 47bf 0c4d a5be 7bd8 75bf 3c23 70be
00000040: 319b f03d 5168 2940 d699 503f 4b33 a33e
00000050: 3f5d e3bd dd26 73bf 6abf 3abe f9d7 00bf
00000060: e234 adbe 37ec 29bf 9cbf f9bf ccf1 1d3d
00000070: f326 f5bf daff e13f 6b41 a3bf d4ec b73e
00000080: a53d 913d d5bf dbbf 13c5 a73f 8b4d 17bf
00000090: 649f 9ebf b08d 59bf b464 463e a776 fcbe
000000a0: a8ef 613f bb61 8c3f 4088 983f 6fa5 6e3f
000000b0: e804 263f 1c20 2dbd 7745 283f 954a 273f
000000c0: 5bf1 053e d5a8 2c3f b014 dc3e bfa0 8f3f
000000d0: ae54 3cbe 52e1 253f 176c 523f 8a0a ee3e
000000e0: f9eb 9abf 77fb 87be 8db0 3bbf 9ed0 213f
000000f0: 0949 7fbf 5611 26bd 8c4f a7bf ca94 333e
00000100: ee07 a1bf e5c1 49bc ca17 c33f 4ee9 823e
00000110: 9033 05bf f6a8 a0bf e86e 8bbe cb92 6c3e
00000120: 930b 03bf 3307 4abf 56d1 4e3e a921 f2bc
00000130: fb98 8abf 44f2 003f be0a 1d3f fc4e 9a3e
00000140: b95a 0dbf 578a 9e3e eeb8 d7bf 0198 cb3f
00000150: ff7a 2d3d 2a14 333e 8c65 8f3e 5a41 273f
00000160: 23cf 36be 6eca 42bf 58b7 233e aae8 a8bc
00000170: f780 a23c 8b40 b73f 7f40 00bf ff99 80bf
00000180: 269a e23e 4ab3 afbf 0b8c 983e 3f44 7f3e
00000190: cae7 0bbf 553a af3f c702 773e 72bd 4b3f
000001a0: 97ab 883f 7635 abbf 9dd9 f83f 23a6 85bf
000001b0: 2c21 0f3f aedd 38bf 7694 cebf 5c48 0fc0
000001c0: 76fc 7b3e 425c f03f 9265 af3f 6224 313e
000001d0: 310e edbd 3461 b6be 4cac ef3e da93 293f
000001e0: d2f7 be3f 23f3 fd3f 7b48 7e3f da1c b53f
000001f0: d40a 30bf ddd7 ca3d 78a5 213f 5ab8 eb3d
00000200: 048c 023f afa9 a83c 7173 cbbf a78e 833f
00000210: df2b d2bd 735c 0f3f e96f b3bd c465 4abf
00000220: 7629 34be c5e0 db3e 8a61 f7bd 158c d03f
00000230: 108c 883f 9b28 d5bf 680e 1dbf 2cd7 9fbe
00000240: c4fb 803f d462 abbe 6594 363f 8129 a9bf
00000250: bbbd 42bd 243e 9c3f 5ace b03f bc9c ccbe
00000260: 6493 553e b577 6a3f b1c9 0fbf e38e 32bf
00000270: 2fb4 cc3d c546 8dbf a2d5 073e 1422 7fbe
00000280: b8d5 f23e 0c58 bb3c 136e 00c0 2fe4 a93e
00000290: 645d 92bf faed b0bf d26d 973e 0133 6cbf
000002a0: 009f 6ebf 059a af3e 043c bbbf ad0b 8b3e
000002b0: 6b4f 1dbf aa14 3c3f 53d2 0140 514b a43f
000002c0: 8c7d 21bf e110 f1bf 3efd bcbf 451f b63f
000002d0: 9d58 bcbe 045a 943f b55a cd3e 03cc e03d
000002e0: 03bc 74bf aaea 7cbf 7d14 63bf 03e8 98bf
000002f0: a41d 883f 3f7b 83be 079e 9fbf 3bbe 43bf
00000300: f6d5 eb3e 7999 173d a0c8 643f 2e64 ab3f
00000310: b6b9 7cbe ba87 46bf f72a 52bf 2204 9c3f
00000320: c553 f73e a462 b93f 4d51 193f bc01 f83e
00000330: 2142 bd3e b1cb 553f c4e8 a23f d3ed 843f
00000340: 7b08 383f d1bb f2be 9859 5d3f 69c2 1a3f
00000350: 95ff 8abd 5b2f 03c0 503a a9be 3430 1e3f
00000360: 02ec cabf e6ab 8abd fe47 a13f 5c11 1ebf
00000370: 81f1 3cbd 7fe5 8fbf 5551 90bf 2123 b63d
00000380: 34ec 0140 662c a6bf 0903 663f 5ed1 1c3f
00000390: f85b cd3e 7131 7f3e 30bf e5bf a142 263f
000003a0: 4dfb 443e 3427 09bf dcb7 833f 00a5 15bf
000003b0: a756 58bf bdd3 663f a588 3c3f ef2c 1dbf
000003c0: 49e2 8fbf 8ea1 33bf 040d 5d3f 668b 0a40
000003d0: 8b44 abbf 8969 e6bf 56f3 d3bf cdd3 65be
000003e0: 4d7a c1be 195f 8d3f 245d 093f e76f 05bf
000003f0: 3631 99bf 5572 d1be 1e9c 173f adce d83f
0.28353226 0.108710565 -0.17032337 -0.030123612 -3.0009756 0.71060294 1.9645307 -0.19430524
0.5787188 -0.61558104 -0.34834707 0.2574574 -0.77984107 -0.32285345 -0.9603345 -0.23450941
0.117483504 2.646992 0.81484735 0.3187507 -0.1110177 -0.94981176 -0.18237081 -0.5032955
-0.3382941 -0.6637606 -1.95116 0.038560674 -1.9152511 1.7656205 -1.2754339 0.35922873
0.07091836 -1.7167917 1.3107017 -0.59102696 -1.2392392 -0.8498182 0.19374353 -0.49309275
0.8825631 1.0967325 1.191658 0.9322118 0.64851236 -0.04226695 0.65730995 0.6534818
0.13080351 0.6744512 0.42984533 1.1220931 -0.18391678 0.64796937 0.8219618 0.46492416
-1.2103263 -0.2655904 -0.7331627 0.6320895 -0.9972082 -0.040543877 -1.3071151 0.17537227
-1.2580545 -0.012314294 1.5241635 0.25568622 -0.52031803 -1.2551563 -0.27233052 0.23102872
-0.51189536 -0.78917235 0.20197043 -0.029557066 -1.0827936 0.5036967 0.61344516 0.30138385
-0.55216557 0.3096492 -1.6853311 1.5905763 0.042353626 0.1748816 0.28007162 0.65334094
-0.17852454 -0.76090133 0.15987909 -0.020618755 0.019836886 1.4316572 -0.50098413 -1.0046996
0.4425823 -1.372659 0.29794344 0.24928378 -0.5465056 1.3689677 0.24122153 0.79585946
1.0677365 -1.337569 1.944141 -1.0441326 0.5590999 -0.72213256 -1.6139057 -2.2387915
0.24608025 1.8778155 1.3702872 0.17299035 -0.115749724 -0.35621035 0.4681114 0.6624123
1.4919379 1.9839824 0.99329346 1.414943 -0.6876652 0.09904454 0.6314311 0.11509772
0.50994897 0.020588724 -1.5894605 1.0277909 -0.10262274 0.5600044 -0.087615795 -0.7906153
-0.17593941 0.42944923 -0.12079151 1.629275 1.0667744 -1.6653017 -0.6135011 -0.3121885
1.0076833 -0.33473837 0.7132018 -1.3215791 -0.047544222 1.2206464 1.3812973 -0.3996333
0.20857006 0.9158891 -0.5616713 -0.6974928 0.09995305 -1.1037222 0.13265088 -0.24915344
0.4742868 0.022869132 -2.0067184 0.33181903 -1.143475 -1.3822625 0.29575974 -0.92265326
-0.93211365 0.34297195 -1.462769 0.27157345 -0.6144931 0.7346903 2.0284622 1.2835485
-0.63082194 -1.8833276 -1.4764783 1.4228293 -0.36786357 1.158997 0.40108266 0.10976412
-0.95599383 -0.9879557 -0.8870314 -1.1945804 1.0634046 -0.25679967 -1.2470101 -0.76462144
0.46061677 0.037011597 0.8936863 1.3389947 -0.24680218 -0.7755085 -0.8209681 1.2188761
0.483061 1.4483228 0.5988968 0.48438823 0.36964515 0.83513933 1.2727284 1.0385078
0.7188794 -0.47408918 0.86464834 0.60452896 -0.0678703 -2.0497653 -0.330523 0.617923
-1.5853274 -0.06771068 1.2600095 -0.6174524 -0.046128754 -1.1241912 -1.127482 0.08893419
2.0300417 -1.2982299 0.8984838 0.6125697 0.4010923 0.24921204 -1.7948971 0.6494542
0.19236489 -0.53575444 1.0290484 -0.58454895 -0.8450722 0.90166837 0.73646003 -0.6139669
-1.1240932 -0.7016839 0.86347985 2.1647582 -1.3380293 -1.8000957 -1.6558635 -0.22444077
-0.3778862 1.1044647 0.53657746 -0.52123874 -1.1968143 -0.4090754 0.5922259 1.6938072

action_out.bias f4 [5]
00000000: 0baf c2be 6f3b 983d fa8d 623e 75b2 963e
00000010: 8dff 82be
-0.38024172 0.07433211 0.22124472 0.29433027 -0.25585595
