mpeEnvs/model/simple_tag/agent_0/1_critic_params.pkl (torch, 52175 bytes, 7 tensors)

fc1.weight f4 [64, 63]
000000 cc ae a6 bf 1a 5b 8e 3d d5 6b 58 be e2 f9 88 be
       -1.3022094 0.0695097 -0.21134885 -0.26753145
000010 ea ac 4d be bf 86 76 3e 17 95 f6 bc ba 48 06 3f
       -0.20085493 0.24074839 -0.030100388 0.5245472
000020 d4 4c 76 3f c3 58 3b be 21 66 46 3f 10 ce 0f 40
       0.9621098 -0.18295579 0.77499586 2.246952
000030 8d 46 4c c0 e8 8d 78 40 c1 22 13 c0 29 4c 14 40
       -3.191806 3.8836613 -2.2989962 2.3171484
000040 6b d6 25 3f c3 e9 03 3f d0 99 e2 be 79 12 36 3e
       0.647803 0.5152857 -0.44257975 0.17780484
000050 63 d1 1e 3e f2 31 66 bd 53 38 8c bd 6c bf 94 3e
       0.15509562 -0.056199975 -0.068466805 0.29052293
000060 4c 74 43 bf f5 81 8f 3c 7b 19 c9 3e dc 10 39 40
       -0.7634933 0.017518023 0.39277253 2.891654
000070 98 cc 3f c0 44 1e a7 40 ff ad 05 c0 1b 93 1c 40
       -2.9968624 5.2224445 -2.0887449 2.4464786
000080 52 6a c7 be 14 56 a7 3f e6 ef 4c 3b 46 c0 b7 3e
       -0.38948303 1.3073144 0.003127092 0.3588888
000090 eb bf 9f be c5 f1 ff be 2f 9f ad be a7 35 b2 be
       -0.3120111 -0.49989143 -0.3391051 -0.34806558
0000a0 e7 8a 40 bf 90 e3 16 c0 eb 2f 8a be 8c f1 2d c0
       -0.7521195 -2.3576393 -0.26989684 -2.7178679
0000b0 b2 d6 76 c0 fa 8d 50 40 a5 5c 0f c0 13 a5 11 40
       -3.856854 3.2586656 -2.2400296 2.2757003
0000c0 29 be d2 bd ab 56 57 bf a0 28 5a be 79 e0 ed 3d
       -0.102901764 -0.8411662 -0.2130456 0.116150804
0000d0 6c ab 7f be 10 28 f7 bd 04 d2 19 3f 2c 8b 0e 3e
       -0.24967736 -0.12068188 0.60086083 0.13920277
0000e0 b4 5f 14 3e 4d 06 b5 be 37 60 26 bd 17 2b 6c be
       0.14489633 -0.3535637 -0.0406191 -0.23063312
0000f0 cf b8 e3 3e a2 18 af 3e 82 e4 24 bf 3d 41 2f 3f
       0.44476935 0.3419848 -0.64411175 0.6845892
000100 c2 86 c9 3d e7 8a 07 be da 53 83 3f 64 b5 d0 3e
       0.09840156 -0.13236581 1.0259964 0.4076339
000110 0c 63 5a 40 2b 04 31 bf 4d 9e 52 c0 10 ad 18 3f
       3.4122953 -0.69146985 -3.290912 0.5963907
000120 8a a4 67 bd a3 14 f6 bf 17 56 33 bf 04 05 16 3f
       -0.0565534 -1.9225048 -0.7005324 0.58601403
000130 03 25 01 40 20 9b e0 3e 40 c9 7e be dd 20 7c 3e
       2.017884 0.4386835 -0.24881458 0.24621911
000140 96 4b 7f be be 86 41 be e3 6a 9e 3f 72 70 52 3f
       -0.24931177 -0.18899056 1.2376369 0.8220283
000150 8a 9c 59 40 02 06 58 bf 56 34 59 c0 1c 20 21 bf
       3.4001794 -0.8438417 -3.3938193 -0.6293962
000160 8e 46 18 3d e1 9d 1b c0 c2 da 6e bf e9 80 0c bf
       0.03717666 -2.4315112 -0.9330255 -0.548842
000170 94 e9 fd be 28 4f b4 3e 0f d4 86 bd 31 fd ba be
       -0.49592268 0.3521664 -0.06583416 -0.36521295
000180 46 dc 84 be 34 b0 3b bb 0f 35 e6 3e e4 5f a8 3e
       -0.25949305 -0.002863896 0.44962355 0.3288566
000190 c7 95 8e 40 9a dc 8a be b5 b3 34 c0 47 d2 e1 3f
       4.4557834 -0.2712143 -2.8234684 1.7642297
0001a0 f8 22 39 3f 29 1b 20 40 ca fe 8b 3f da 2e cd 3e
       0.72318983 2.5016577 1.093713 0.40074807
0001b0 dd e9 8c 3f a0 8c b1 3e 34 28 22 be 55 1a 08 bd
       1.100887 0.346776 -0.15835649 -0.033228237
0001c0 6f 62 6e 3e c4 5f ff bc db 84 bc be b3 33 48 3e
       0.23279737 -0.031173594 -0.3682011 0.19550972
0001d0 d8 19 c7 3e 75 2a 9f 3d ab 2e 91 bd 64 0a a7 be
       0.38886905 0.0777177 -0.07088979 -0.32625115
0001e0 4d 96 82 3d 8c f1 e1 3d cd 16 60 be 86 a4 be 3d
       0.06376324 0.110323995 -0.21883698 0.09308724
0001f0 76 28 06 3e 05 30 26 3e 89 bc d6 be 5b 32 51 3e
       0.13101372 0.16229255 -0.41940716 0.20429365
000200 56 47 3f bd 29 77 04 3f 2b e7 84 be 03 c1 bc be
       -0.04669889 0.51744324 -0.25957617 -0.36866006
000210 b8 dc 9e 3e 39 13 48 be c4 94 d7 be f2 c5 8e bc
       0.3102777 -0.19538583 -0.42105687 -0.017428372
000220 54 9d b8 40 6f ad 39 c0 45 55 26 c1 85 88 ba 40
       5.769205 -2.9012105 -10.395818 5.829165
000230 0b ed 01 3e 28 a2 a7 3e 32 d7 1a be a8 54 f2 bd
       0.12688081 0.32740903 -0.15121153 -0.11832553
000240 9c ef 69 be 46 b1 84 be ec 89 d1 3e 92 b8 ed 3d
       -0.2284531 -0.259165 0.4092554 0.116074696
000250 4c 31 a3 bd 59 88 b1 3e cc 66 0b 3f f1 d1 04 be
       -0.07968387 0.34674338 0.5445373 -0.12970711
000260 0c 22 82 40 d9 f6 48 c0 1c f1 04 c1 70 81 b4 40
       4.066656 -3.1400664 -8.308865 5.6408005
000270 fd 4a cb 3c 17 74 3b 3e 55 cd 1c 3e d5 b0 d3 be
       0.02481603 0.18306004 0.15312703 -0.4134585
000280 6d 40 3b 3e fa 74 fb be 48 03 17 bd 5b 0f 06 3f
       0.18286295 -0.49112684 -0.036868364 0.5236718
000290 79 41 72 bc 40 0c cc 3d c0 d5 bb c0 57 89 40 40
       -0.014786118 0.09963274 -5.8698425 3.0083826
0002a0 e4 17 88 c0 63 a3 55 40 84 52 a0 c1 d3 93 32 41
       -4.2529163 3.3380973 -20.04029 11.16109
0002b0 1a 17 25 3e 4f a8 52 3e c4 89 b5 3d 1b 3a b2 be
       0.16122094 0.20572017 0.08864167 -0.34809956
0002c0 e5 4d 53 3e f4 a0 dc bd a4 fa 0d bb 8a e5 2f 3d
       0.20635183 -0.10772887 -0.0021664286 0.042943515
0002d0 8f c4 89 bd 72 28 f5 3d e6 2a be 3d 04 e9 ea bd
       -0.06726944 0.11970605 0.09285526 -0.114702255
0002e0 ba bd b2 bc 55 c5 d1 3d 95 8f c9 bc 0c 99 a7 bd
       -0.021818984 0.10242716 -0.024604598 -0.08183488
0002f0 4d 14 ce 3d 11 41 ec 3e f7 ad 3e 40 db 2a e7 3d
       0.10062466 0.46143392 2.979368 0.11287471
000300 a6 13 2d 3f 58 66 df be d3 40 e2 be 75 2f 7f 3d
       0.67608106 -0.4363277 -0.44190082 0.062301118
000310 87 2c c9 bd ad ab 1d 3f e3 4c 49 3e 9d 35 8f bf
       -0.09822946 0.6159008 0.19658236 -1.1188236
000320 e0 64 5c bf 7b a3 cf be 3d 65 f2 3f 89 3a e3 bd
       -0.86091423 -0.40554413 1.8937145 -0.11095149
000330 68 26 0a 3f e9 42 5a bf 2e ad ce 3f 04 3d a1 bd
       0.53964853 -0.85258347 1.61466 -0.07872966
000340 92 41 29 bd ad 7a a2 3e 63 2a 77 3c 5b 4c 72 be
       -0.0413223 0.3173422 0.015085789 -0.2366194
000350 79 83 40 3e 3f 72 db be 13 a5 39 be be 94 ef 3d
       0.18800153 -0.428606 -0.18129377 0.11698292
000360 0e 46 ab 3e 20 fb be bd 8f 57 cc 40 7a 1a 2b bd
       0.33451885 -0.09325242 6.3856883 -0.041773297
000370 8e c7 2d 3f ff 89 d8 bf 3c 14 06 c1 4d 28 5d be
       0.6788262 -1.6917113 -8.37994 -0.21597405
000380 78 d9 5b bd f7 70 2b be c7 c5 1f 3f 08 12 46 3e
       -0.05367419 -0.16742311 0.6241116 0.19342816
000390 90 24 b1 bc 2b cd ad 3f 7c 09 42 3f c8 29 63 be
       -0.02162388 1.3578237 0.7579572 -0.22183907
0003a0 42 05 cc be 4f a9 2c bf fa e8 c8 40 e9 fd bb 3d
       -0.3984776 -0.67445844 6.2784395 0.09179289
0003b0 bc f3 24 3f a0 7c 25 3d c3 04 cd 3d 77 76 0f bf
       0.6443441 0.040402055 0.10010674 -0.5604014
0003c0 42 a9 ef 3f 56 76 b0 bf 13 d6 47 be bd 99 94 bd
       1.8723528 -1.3786113 -0.19515257 -0.07255886
0003d0 e0 b9 79 bd 61 c3 41 3d 78 a9 8f 3c 53 fe 77 3d
       -0.06096828 0.04730547 0.017536864 0.060545277
0003e0 82 eb a8 bf 50 e8 58 3f a7 cf 38 c0 72 d8 5e 40
       -1.3196871 0.8472948 -2.887674 3.4819608
0003f0 c8 6d 41 be 95 3d a3 be ff 56 0b bf af f1 85 3e
       -0.18889534 -0.3188292 -0.5442962 0.26160952

fc1.bias f4 [64]
000000 4e e2 dc c0 b3 0d ff c0 2e 7b 82 3f 56 22 0a c0
       -6.902625 -7.9704223 1.0193841 -2.1583457
000010 f6 c7 9d 3e 0b 4f 71 41 43 34 e6 bf ce 73 ae be
       0.3081662 15.081798 -1.7984699 -0.34072727
000020 58 40 8b 3e da 08 55 3f 86 03 b7 bf cc b7 3a 40
       0.27197528 0.8321663 -1.429795 2.917468
000030 cd 0a 7f 3f 7b b4 4a c0 5a 93 d2 3e 3a a9 50 41
       0.99625856 -3.1672657 0.41128045 13.041315
000040 6d e1 be 3e 6a da 79 bf 47 fc 6d bd 64 38 24 c1
       0.3728136 -0.975989 -0.05810192 -10.263767
000050 11 75 6b 3e 4c 75 e1 be c3 b9 2c 3e 06 0d 7d c0
       0.22993876 -0.44034803 0.16867737 -3.95392
000060 d0 25 22 c0 3f e4 2e 3f 8c 10 01 c1 57 c5 3a 41
       -2.533558 0.68317026 -8.06654 11.673179
000070 aa 6d 5e c1 6b 93 9d bf c5 1b ae 3e 12 d2 c4 bf
       -13.901773 -1.2310613 0.3400556 -1.5376608
000080 de eb 4a c0 5d fb 89 41 1b 32 63 be 87 b0 11 40
       -3.1706462 17.247736 -0.22187082 2.2763994
000090 9f 51 00 c1 6b 84 46 3e 3a 8f 17 bf 9f 53 fa 3d
       -8.019927 0.19386451 -0.5920292 0.12222981
0000a0 53 df 02 bf 4b 7f 00 bf 35 cf 03 c1 17 48 7d 41
       -0.51122016 -0.50194234 -8.238088 15.8301
0000b0 21 4c 2b c1 31 e0 d7 3e fa 15 16 c1 c7 31 4f 3f
       -10.706086 0.42163232 -9.380365 0.8093533
0000c0 a4 e5 34 c0 88 65 e5 c0 a5 07 da c0 d2 b9 b7 c0
       -2.8265162 -7.168644 -6.813433 -5.741433
0000d0 64 53 39 3c ad b4 d6 c0 75 e6 28 c1 ba fe af be
       0.011311386 -6.709555 -10.556264 -0.34374028
0000e0 dd ff 97 bf d1 7d e6 c0 59 ec 6c 40 fe 8a 44 be
       -1.1874958 -7.2028584 3.7019255 -0.19193646
0000f0 4d 53 c9 c0 94 70 57 c1 39 bc 08 c0 c0 42 89 bf
       -6.2914186 -13.464985 -2.1364882 -1.0723495

fc2.weight f4 [64, 64]
000000 ee 55 c8 bf f7 2e 29 3e 08 61 4c c0 55 52 22 bf
       -1.5651224 0.16521822 -3.1934223 -0.6340688
000010 eb 63 08 3f 8d 16 1d 3f 0e 35 cd bf 0f 6f 54 bf
       0.5327746 0.61362535 -1.6031816 -0.8298196
000020 ff 4d bc 3f a6 6d a2 3f 56 05 bd 3f e8 ce e7 3e
       1.4711303 1.2689712 1.4767253 0.45275044
000030 87 a5 01 c0 00 d7 d0 be 23 6f ed bd 2a 4f a0 3f
       -2.025728 -0.40789032 -0.11593463 1.2524159
000040 da 27 ad 3e a4 10 bc 3e 39 df 91 bf c3 b2 02 bf
       0.33819467 0.36731446 -1.1396247 -0.5105402
000050 7a b3 81 3f f3 01 58 40 be 0a 5b 3f 89 50 84 bf
       1.0132897 3.375119 0.85563266 -1.0337077
000060 6f 18 09 be a0 59 aa bf 8a c5 ff bf 7d 21 01 3f
       -0.13388227 -1.3308601 -1.9982159 0.50441724
000070 4f ae 4f 40 65 ec 6a 3f d0 84 0e 3f 09 58 10 c0
       3.245014 0.9176696 0.55671406 -2.2553732
000080 4a c3 d7 3e 13 fb a2 3e 0e 37 3d 3f 57 07 b4 be
       0.4214118 0.3183218 0.7391213 -0.3516185
000090 70 34 ea c0 72 82 10 c0 a5 97 e0 3f 5d 44 a9 3e
       -7.318901 -2.2579618 1.7546278 0.3305997
0000a0 e2 a5 20 40 f4 71 88 3f 94 7a 4a 3f 54 70 6c be
       2.5101247 1.0659776 0.7909329 -0.23089725
0000b0 f0 c6 34 c0 6f 61 04 bf 9e 04 11 40 09 88 2d bf
       -2.8246422 -0.5171117 2.2659068 -0.677857
0000c0 34 bd b8 3f 09 b7 64 be eb fb b9 bf 53 ed 6e 3f
       1.443274 -0.22335447 -1.4530004 0.9333088
0000d0 e8 70 31 c0 89 92 aa 3f f9 25 27 c0 5d bb 93 3f
       -2.7725163 1.3325969 -2.6116927 1.1541554
0000e0 cd 47 c0 bf b7 38 63 3f 52 c5 44 c0 10 59 08 3e
       -1.5021912 0.88758415 -3.0745435 0.13315225
0000f0 0f 44 8f 3d 36 9d 34 3f 74 8a 03 c0 10 29 66 bf
       0.06995403 0.70552385 -2.0553255 -0.89906406
000100 18 8d 6f be 50 a3 5d 3f 15 7a 16 3f c8 4e 21 3f
       -0.23393667 0.8657732 0.5878003 0.63010836
000110 cb 5c 7e be a9 ec 09 c0 cb d8 9d be 4a 05 0d 3f
       -0.24840085 -2.1550696 -0.30829462 0.55086195
000120 7e 47 13 3e bb b6 7e bf 28 d2 26 3d 4e 53 1c c0
       0.14382741 -0.99497575 0.040727764 -2.4425845
000130 60 30 91 bd 5c b3 8d 3f 5f 7c 2f bf 59 3f 2b c0
       -0.07089305 1.1070361 -0.6854915 -2.6757414
000140 17 7f 12 3f 6b 6f 9f be 5f ab d4 3e e3 ef 64 bf
       0.57225174 -0.31139693 0.41536996 -0.8942854
000150 b7 2c 9b be 4c a4 66 bf 39 09 c2 3c cc 12 1d c0
       -0.30307552 -0.9009445 0.023686038 -2.4542723
000160 e6 7f 89 bf b7 32 4a 3f 34 72 4b bf 96 db ca bf
       -1.0742157 0.78983635 -0.79471135 -1.5848262
000170 4c 96 4b bf c1 9e 17 3f 05 c5 da 3e 6b 85 ce be
       -0.7952621 0.59226614 0.4272844 -0.40336165
000180 28 65 98 bd 4c 2d a1 c0 3f 7a 09 3d a0 22 fd bf
       -0.07441169 -5.0367794 0.03356385 -1.9776192
000190 73 a1 91 bf 88 41 28 3f 80 bc 71 3f aa df d9 3e
       -1.1377395 0.6572499 0.94428253 0.42553455
0001a0 12 27 9e 3d 77 a7 d8 be 4a f3 30 bf 36 c8 8d c0
       0.07722296 -0.42315266 -0.6912123 -4.43069
0001b0 07 95 c8 3e 55 e2 ce bf 40 54 31 bf a4 1e 98 bf
       0.391762 -1.6162821 -0.6926918 -1.1884351
0001c0 5c bc 40 bf d1 a7 68 bf 85 93 e0 3e b4 18 e2 be
       -0.75287414 -0.9088107 0.43862548 -0.44159472
0001d0 ad a1 29 3f 6b f2 bf be dc 01 a4 bc a5 0d 9f be
       0.6626232 -0.37489638 -0.020020418 -0.31065097
0001e0 09 7c 23 3f 1c 32 ef 3e af c5 1d bf b3 0d 63 be
       0.6386114 0.46717918 -0.61629766 -0.22173195
0001f0 b7 20 b8 bf 43 97 89 3f d8 05 77 bf c8 73 ad be
       -1.4384984 1.0749286 -0.9649329 -0.33877397
000200 4c bc 17 bf 04 87 c2 be 2a d8 7a be 01 dc 1d bf
       -0.59271693 -0.37993634 -0.24496523 -0.61663824
000210 ed 8c 4e 3f f6 3f 4d 40 54 00 9d bd 4b a1 46 be
       0.80683786 3.2070289 -0.07666078 -0.19397466
000220 32 9b 5f 3d 51 3b c3 be 82 3f d5 3c 24 d5 27 3e
       0.054591365 -0.38131192 0.02603126 0.163899
000230 f3 a7 aa be 91 f8 84 bf 28 5e 54 3e 5d 19 99 3f
       -0.3333126 -1.0388356 0.20739043 1.1960865
000240 8f 86 e9 bd 19 b3 c9 bd 6c 21 4a bf bf 44 cb be
       -0.11402618 -0.09848613 -0.7895725 -0.39700887
000250 1d ba 3d 3e 2a fe 61 be 18 6d 3f 3f f4 71 94 bf
       0.18528028 -0.22069612 0.7477584 -1.1597276
000260 b2 8b 76 3e df 46 d2 3e 82 fc 83 3c 21 da b9 3e
       0.24076727 0.41069695 0.016111616 0.36299232
000270 45 8c 46 40 64 62 29 3f 29 79 94 be eb 2f 3c bf
       3.1023114 0.6616576 -0.28998688 -0.73510617
000280 1d 5b 86 bf 29 1e f2 3f 91 2e b5 be c8 7e 5c 3e
       -1.0496556 1.8915454 -0.3538709 0.21532738
000290 57 73 37 3f 5a 65 e0 3c 22 e1 81 bf 5b ae 83 be
       0.7166037 0.027392078 -1.014683 -0.2571896
0002a0 a3 e5 21 3f 5d f9 84 3f a9 71 84 3e 1f 36 ee 3f
       0.6324102 1.03886 0.25867966 1.8610266
0002b0 87 c9 b4 3f 9a eb 82 be 86 b7 8a be 28 4d 8f bf
       1.4124001 -0.25570375 -0.27093142 -1.1195421
0002c0 7b 09 93 be 4c 9c 99 bd ca 73 00 c0 3d 3d 5f be
       -0.2871817 -0.075005144 -2.0070672 -0.21800704
0002d0 f9 b4 ec be 97 31 76 bf fc 46 9f 3f 25 6b 28 3f
       -0.4623182 -0.9616942 1.2443538 0.6578849
0002e0 b3 bb ec be dd 33 f5 3d d4 73 82 be 30 d3 f4 3d
       -0.46236953 0.11972783 -0.25478995 0.11954343
0002f0 b7 32 2b 3e fa 55 a0 3f 41 d6 0c bf 19 cc f3 3e
       0.16718565 1.2526238 -0.55014426 0.47616652
000300 a2 3a b2 c0 5c b9 09 bf 22 e6 8e 3f 76 77 b9 c0
       -5.5696573 -0.5379846 1.1163981 -5.7958326
000310 72 06 30 3f e5 0f 9f bf 26 02 32 c0 92 cb 37 c0
       0.68759835 -1.2426726 -2.7813811 -2.8718
000320 2f c3 13 c0 22 88 da bf cf fa aa bf 23 e3 da bf
       -2.308788 -1.7072794 -1.3357791 -1.7100567
000330 d9 8f b7 bf ea 34 82 3f e8 09 be bf 32 75 dc c0
       -1.4340774 1.0172398 -1.4846773 -6.889306
000340 fd e4 c2 3e 27 1f 6b c0 9c 63 bb 3e 0a 51 26 3f
       0.3806533 -3.6737764 0.36599433 0.64967406
000350 0b 0f e5 3e da 5b 6b bf 4d f7 cb 3f a9 01 14 bf
       0.4473804 -0.9193703 1.5934845 -0.57815033
000360 9a 27 c5 c0 09 7f 77 c0 7b 19 ca 3f 4d 3a bc bf
       -6.161084 -3.8671286 1.5789026 -1.4705292
000370 2a 27 c9 3f 90 d8 28 bf 25 f4 90 be 9a 5f 9a bf
       1.5715077 -0.6595545 -0.28311267 -1.2060425
000380 15 ca 58 c0 cf 09 84 bf 89 7a 10 bf 17 60 c2 bf
       -3.387334 -1.0315493 -0.56436974 -1.5185574
000390 07 6d 20 c0 46 e0 bd bf 52 b8 2f 3f c5 95 88 3f
       -2.5066545 -1.4834068 0.68640625 1.0670706
0003a0 d4 d1 98 c0 7d 55 c5 be 69 b4 a9 3e b9 92 e9 bf
       -4.775614 -0.38541785 0.33145455 -1.8247901
0003b0 22 bb ed bf 37 52 94 3e 85 7c 99 be fd 6e d6 be
       -1.8572733 0.28968975 -0.29977813 -0.41881552
0003c0 09 b6 60 bf 26 71 4e bf 2f fe 84 3f 35 ed d3 c0
       -0.87777764 -0.806414 1.0390071 -6.622706
0003d0 21 11 1d 40 82 26 9c 3f dc 6f af bf f0 e5 06 bf
       2.4541705 1.2199252 -1.3706012 -0.52694607
0003e0 a4 96 21 bf 8e af 07 c0 1c 98 8f 3e ad 9e 65 3f
       -0.63120484 -2.12009 0.28045738 0.89695245
0003f0 5c 66 71 c0 0d c3 ec bf 43 00 38 c0 5e aa 82 c0
       -3.7718725 -1.8497025 -2.875016 -4.083297

fc2.bias f4 [64]
000000 2d 64 73 bf 94 8c a4 c0 2b d9 3a 41 8c c1 95 40
       -0.9507473 -5.1421604 11.67802 4.6798763
000010 a6 27 32 be 05 8e aa c0 56 e1 ee 3f 56 48 94 c0
       -0.17397937 -5.3298364 1.8662517 -4.63383
000020 dc f9 6f c0 99 65 7a c0 77 14 e9 40 49 0e 7d c0
       -3.7496252 -3.912451 7.283748 -3.953997
000030 84 cd 85 41 73 93 79 c0 7e b7 a0 bf 1e 4a 09 3f
       16.72535 -3.8996246 -1.2555997 0.5362872
000040 1a 44 05 c0 c5 2e ed 3b 67 e2 94 bf 78 72 04 c0
       -2.0822816 0.0072382414 -1.1631593 -2.0694866
000050 19 26 98 c0 a6 b8 b7 be 46 fb 1c 41 2e 46 f7 bf
       -4.7546506 -0.35883063 9.811346 -1.9318292
000060 cf 77 c2 3f 6f 30 88 c0 05 a9 ab 40 47 dc 8a c0
       1.5192813 -4.2559123 5.3643823 -4.3393893
000070 84 9e 25 c0 10 f9 e8 3e bd b0 83 c0 51 b0 c5 40
       -2.5878 0.4550252 -4.1153245 6.177773
000080 cd 30 2f c1 a7 cf b0 40 53 61 56 3e db a1 66 40
       -10.949414 5.525348 0.20935564 3.6036289
000090 4c 0f ca 40 f4 5d 46 40 49 91 dd bf 67 35 de 3f
       6.3143673 3.0994844 -1.7309963 1.7360047
0000a0 30 5f b7 c0 99 b0 ea 40 f5 7d b3 3e 0c da 1e c0
       -5.7303696 7.3340573 0.35057035 -2.4820585
0000b0 a3 9d b9 40 17 27 8b c0 fb b1 af c0 59 13 b6 40
       5.800493 -4.3485217 -5.490476 5.689862
0000c0 86 db 4c bf d0 dc 35 40 96 f4 62 40 92 13 9f bd
       -0.80022466 2.8416023 3.5461783 -0.077674046
0000d0 b5 08 39 c0 67 ac 4b c0 27 53 ea 40 10 de a6 3f
       -2.8911564 -3.1823976 7.3226504 1.3036518
0000e0 0d 4d b8 bf ca 93 c2 40 ee 70 d3 3e 5c 66 30 3e
       -1.4398514 6.0805407 0.41297096 0.17226547
0000f0 c5 03 80 c0 c5 c6 53 c0 a2 f3 00 be 4c 8f d1 bf
       -4.00046 -3.309007 -0.12592939 -1.6371856

fc3.weight f4 [64, 64]
000000 3a 0e 44 3f 4f 0c cd bd 5d bc 5a bf 7d 3b 48 c0
       0.7658421 -0.10012113 -0.8544367 -3.1286309
000010 10 ae 53 bd 49 2f 3a c0 af f5 5f bf 34 d2 04 bf
       -0.05167967 -2.909136 -0.8748426 -0.51883245
000020 e5 84 d7 3e ce d4 a2 bf be c3 80 bf a1 b6 56 3f
       0.42093578 -1.2721193 -1.0059736 0.8387242
000030 cb 7b 91 bf cd 00 83 3f c7 03 92 40 39 34 f1 be
       -1.1365904 1.0234619 4.562961 -0.47110155
000040 4d de 5b 40 6b ab 46 bf 58 2f 20 40 9b 81 8a 40
       3.4354432 -0.77605313 2.5028896 4.328321
000050 60 17 09 3f 8e 79 4c be 32 d6 c0 be 29 07 95 3f
       0.5355129 -0.19968244 -0.37663418 1.164281
000060 2e e2 44 c0 92 99 17 bf 70 fa d0 3d a2 c4 7e be
       -3.076305 -0.59218705 0.10204017 -0.24879697
000070 01 8b 3e 3f 98 51 a1 3f 4f 6f a3 3f bb 8f 09 40
       0.74430853 1.2603025 1.2768344 2.1493976
000080 36 03 9f bd 6d 8c b4 3f 6c e4 b4 3d 6b 7a ba bf
       -0.07764284 1.4105355 0.088326305 -1.4568609
000090 9e 17 11 40 85 ef 57 bf f5 e3 23 be 0f b6 73 3f
       2.2670665 -0.8434985 -0.16004927 0.95199674
0000a0 c1 bd ab bf 9b 2d d3 be d1 88 97 bf 07 51 9e bf
       -1.3417283 -0.41245732 -1.1838628 -1.2368478
0000b0 7a e9 30 3f fb 24 1b c0 80 7c 8f be f8 28 2f c0
       0.69106257 -2.424132 -0.28024673 -2.7368755
0000c0 97 91 13 3e 43 5d 84 be cc 61 8f bf 75 4f 4d c0
       0.14411007 -0.25852403 -1.120172 -3.2079747
0000d0 12 c7 ef 3f c6 6b 6b 3f e4 ee 5c 40 64 71 cc 3e
       1.8732626 0.91961324 3.4520807 0.3993026
0000e0 6b e5 e3 bf 11 0b 4b c0 a4 1c 16 3f 60 56 a4 40
       -1.7804388 -3.1725504 0.5863745 5.135544
0000f0 2c eb 86 be 97 69 fc 3d b0 f5 88 3e 1e 1b ab 3f
       -0.26351297 0.12324827 0.26749945 1.336765
000100 ab 99 d5 be 84 3a af 3f 6d 2f 96 bf 6d d1 d8 bf
       -0.41718802 1.3689733 -1.1733223 -1.6938912
000110 11 db dc bd e8 f4 9b 3d b7 0e 17 3e b3 fc 0e c0
       -0.10783971 0.076150715 0.14751707 -2.2341735
000120 ae e7 8d bf 34 e6 40 3f f5 64 24 c0 3b 34 ae be
       -1.1086328 0.7535126 -2.568662 -0.34024224
000130 8e 8f 46 c0 3a 9c 0a c0 c7 47 6c bf eb 1e 7c bf
       -3.102512 -2.1657853 -0.92297024 -0.9848468
000140 8a 90 2a 3f a9 52 3d 3d d6 08 50 3f d9 d6 a0 3f
       0.666268 0.04622141 0.8126348 1.2565566
000150 93 c3 0b c0 e1 5f 39 be e4 64 85 3f ca e8 f9 bf
       -2.183812 -0.18102981 1.0421414 -1.9524167
000160 ed 15 d2 bf a9 70 20 c0 c1 30 e5 bf f9 db 8f 3f
       -1.6412941 -2.5068762 -1.7905504 1.1239005
000170 cd a5 19 3f 42 8e 82 be 7d 49 c8 be 15 75 d6 bf
       0.60018617 -0.2549916 -0.39118567 -1.6754481
000180 10 7b 31 c0 8a e5 ef bf 1a 06 98 bf 81 b6 2e bf
       -2.7731361 -1.8741925 -1.1876862 -0.6824723
000190 ab b4 c4 3f 7f 55 51 bf f4 ef 43 be ae cb 99 bf
       1.5367635 -0.8177108 -0.19134504 -1.2015283
0001a0 d2 e4 49 3f e1 71 d6 bf 3d fc 06 c0 44 2e f1 be
       0.7886478 -1.6753503 -2.1091454 -0.4710561
0001b0 ae fb ee bf c5 13 fa bf 42 29 0f bf a9 42 1b be
       -1.8670557 -1.9537283 -0.5592233 -0.15162148
0001c0 00 7b 1e c0 c6 cf 04 bd c7 75 17 c0 f5 e6 5f bf
       -2.4762573 -0.03242471 -2.3665636 -0.8746179
0001d0 1c 3d d1 3e 25 64 4b bf 27 96 8f c0 1b ad 6d bf
       0.40866935 -0.79449683 -4.487079 -0.92842263
0001e0 58 0f 50 3f 24 68 0e c0 0d a5 a3 3e 1a 25 56 bf
       0.8127341 -2.2251062 0.3196186 -0.8365036
0001f0 3a e1 aa be 1e bd 9b bf a7 c6 42 3f 3b 93 0b bf
       -0.3337496 -1.2167089 0.7608437 -0.5452153
000200 76 ed 13 c0 be ec 7b 3f a0 c7 a6 bf d7 d3 91 bf
       -2.3113685 0.98408115 -1.3029671 -1.1392773
000210 51 3f 15 3e 65 fd a5 3f 2c 33 35 c0 03 f0 44 3f
       0.14574935 1.2967955 -2.8312483 0.7692873
000220 34 64 56 bf fe 62 23 3f 81 49 f5 bf 41 b8 74 bf
       -0.8374665 0.63822925 -1.9163057 -0.9559365
000230 be e6 65 bf 1f 9e ed 3e 01 f0 43 3e c7 dd a2 3c
       -0.8980521 0.464097 0.19134523 0.019881142
000240 d0 da 81 3f f8 d2 f4 be b9 e5 8f be b3 56 c4 3d
       1.0144901 -0.47817206 -0.28104952 0.09586849
000250 03 bc b3 be 9b 5d 49 3d 41 db e5 bf a8 cb ad 3c
       -0.3510438 0.049161535 -1.7957536 0.021215275
000260 27 c5 ce bf 40 82 28 bf 8d 8e 70 bf 31 e2 75 3e
       -1.6153916 -0.65823746 -0.93967515 0.24012066
000270 18 4c 37 bd 2e 45 98 bf 6b 37 96 3e 41 e8 8a bf
       -0.044750303 -1.1896112 0.29339156 -1.0852128
000280 33 07 58 bf 8d 02 6e 3f 57 47 9e bf c5 6a b8 3f
       -0.84385985 0.9297264 -1.2365521 1.4407583
000290 54 2a 74 3f 0d a0 ab 3c 97 fa 0d bf 4f 6f d9 bf
       0.9537709 0.020950342 -0.55460495 -1.6987094
0002a0 e6 20 8f 3e a9 2b c8 bf a9 6d d8 be 59 64 b3 bf
       0.27954787 -1.5638324 -0.42271164 -1.4014999
0002b0 ba 00 05 bd a6 0a 9b be 58 95 36 bd c8 14 34 3f
       -0.032471396 -0.30281562 -0.04457602 0.7034421
0002c0 67 f6 96 bf 28 f9 54 3f 5b 7f 40 bf de ff bc 3e
       -1.1793946 0.8319268 -0.7519433 0.3691396
0002d0 73 3a 3e bf 79 5d 50 3f a9 6a ba bf 85 91 81 be
       -0.74307936 0.8139263 -1.45638 -0.25306335
0002e0 25 f5 c7 be fd d1 3f bf 55 ab 30 be 0a 8d 0f c0
       -0.39054218 -0.7492979 -0.17252858 -2.2429833
0002f0 2d e0 23 c0 28 0c a7 3d 48 d8 c2 3d 43 ea df bd
       -2.5605576 0.081566155 0.095139086 -0.10933354
000300 ef 9a ac be 14 97 44 be 17 0d 82 3f 34 c0 40 40
       -0.33711955 -0.19198257 1.0160245 3.0117311
000310 4f 5e 89 3e 17 4a ce 40 b7 4a 6d 3e 11 ff 2b c0
       0.26829764 6.446544 0.23173033 -2.687443
000320 b8 2a 17 bf 95 e5 16 bf ad 81 26 3e c1 0f f9 be
       -0.5904956 -0.58944064 0.16260405 -0.48644832
000330 79 fe 40 3f 44 c6 1d bf 19 90 db 3e 0d 08 22 3f
       0.75388294 -0.61630654 0.42883375 0.63293535
000340 e9 e8 9c bf 03 0e 83 be 8c 16 f4 be 5b 80 fc 3e
       -1.2258579 -0.25596628 -0.47673452 0.49316677
000350 63 dd 34 bd 06 b7 b3 3e b3 12 da 3e c5 d8 78 be
       -0.044156443 0.35100573 0.4259239 -0.24301441
000360 81 7a 1b 3c 25 bd d4 40 19 0b c2 3f f3 13 c7 be
       0.009489656 6.648089 1.5159637 -0.38882408
000370 88 74 71 3f 81 37 cc 3f 70 49 87 3e d2 27 a6 3e
       0.9431844 1.5954438 0.26423216 0.32452255
000380 52 2f fb 3a 31 b8 c8 40 6f 9c 1b 3f 0b 16 f3 be
       0.0019163883 6.2724843 0.60785574 -0.47477755
000390 9c e7 05 3e a0 88 02 bf d6 da 0a 3d d5 4d a2 3e
       0.13076633 -0.50989723 0.033900104 0.31700006
0003a0 18 b7 5c 3e 25 00 8a 3e 20 8b 6b 3e b9 12 7e 40
       0.2155422 0.26953235 0.2300229 3.9698927
0003b0 b6 4c 46 3f 74 a6 85 bd 39 5d a2 3c c1 23 83 3e
       0.774608 -0.06525889 0.019819843 0.25613216
0003c0 0a ea 5b 40 88 d8 01 bf a1 35 9b be c6 26 ca 3d
       3.4361596 -0.50721025 -0.30314353 0.09870677
0003d0 e1 60 48 bf 4c 09 a0 3f f6 ce 4e 40 f6 e7 3e 3e
       -0.78272825 1.2502837 3.231382 0.18643174
0003e0 fc 2b 7b 40 66 a4 ec 3f 04 7b 67 3f e5 ae 87 3f
       3.9245596 1.848767 0.9042208 1.0600249
0003f0 89 74 c4 be 1b 2b 14 3e 55 ea e1 3e 3c 79 1a be
       -0.3837016 0.14469568 0.44124094 -0.1508531

fc3.bias f4 [64]
000000 f1 65 f1 bf 71 77 e5 be 19 15 4d c0 6c 40 99 41
       -1.8859235 -0.4481769 -3.2044127 19.156456
000010 68 18 fc 3f a9 01 4d 40 e7 79 76 40 ec 66 2b bf
       1.9694948 3.2032263 3.8511903 -0.6695392
000020 5c 58 5a 3e 4e b0 ab 40 e1 16 19 c0 28 3a f1 3f
       0.21322769 5.3652716 -2.3920214 1.8845873
000030 90 69 25 41 a9 ac 2d 3f 0a 4d 84 c0 b7 55 23 c0
       10.338272 0.67841583 -4.134404 -2.5521066
000040 90 67 eb 3f 0d 70 eb 3f ae 6b 39 41 0e 89 90 bf
       1.839098 1.839357 11.588789 -1.1291826
000050 49 12 f3 c0 8f 45 82 c1 41 5a 2d 41 25 ca 9c bf
       -7.595982 -16.283964 10.834535 -1.224919
000060 7b 55 38 40 18 4d 1a 3c d8 b4 22 c0 af 09 b8 c0
       2.8802173 0.009417795 -2.5422878 -5.751182
000070 9f f6 66 c1 00 a7 9f be 27 18 ed bf a8 b9 0d 40
       -14.43521 -0.31182098 -1.8522996 2.2144566
000080 6e 7c e5 bf 92 6f ef 3f 87 9e 2b c0 38 e6 32 c0
       -1.7928598 1.8705924 -2.6815507 -2.7953014
000090 95 a7 14 bf 4e 23 85 c0 7c 13 f1 c0 1e b7 fc 3f
       -0.5806821 -4.1605597 -7.5336285 1.9743383
0000a0 bc 7e 29 40 80 d4 f1 3f 95 d0 6e bf c2 e0 b3 3e
       2.6483603 1.8892975 -0.9328702 0.35132414
0000b0 f0 3d 3a 3f ba ce cd bf 8c 29 96 40 32 83 f8 be
       0.7275076 -1.6078713 4.6925716 -0.48537594
0000c0 75 7f 08 bf 7f d8 db 3f fd d6 c2 bf c1 4f 5a c0
       -0.53319484 1.7175444 -1.5221859 -3.4111178
0000d0 ae f2 7d 40 61 85 da 3e 90 5a a2 bf 6f fa 2b c0
       3.967937 0.42679885 -1.2683887 -2.6871603
0000e0 10 ed 58 bf 03 36 80 41 d6 be 52 bf 42 9d 4f bf
       -0.8473673 16.026373 -0.8232244 -0.8109933
0000f0 6a 9b 5a c0 2f a1 a2 c0 ba 10 c5 40 7c 42 6b 3e
       -3.4157357 -5.0821757 6.158292 0.2297458

q_out.weight f4 [1, 64]
000000 c4 a3 60 be fc a2 0d 3f fb a0 d9 bc 29 5e d1 3e
       -0.21937472 0.5532682 -0.02656602 0.4089215
000010 25 bb 05 3d 45 1b 79 3d 6a 6d 3f bc 17 5f d4 3c
       0.032649178 0.060817022 -0.011683801 0.025924249
000020 60 32 e1 be 88 79 4d 3d 2b fe f4 bd 3f ef c0 bb
       -0.43983746 0.05016473 -0.11962541 -0.0058878954
000030 4c fc d9 3c 33 37 35 3f 12 3c d5 3e 53 8d ab 3e
       0.026609562 0.7078735 0.41647393 0.3350626
000040 bc 04 b7 bc 3b 63 7f bf 04 88 b9 3f fc 78 2f 3f
       -0.022341125 -0.9976079 1.4494634 0.6854398
000050 09 83 a8 be 7a f8 a2 bd 54 57 4a 3e cf c6 34 3c
       -0.32912472 -0.079575494 0.19759876 0.011033728
000060 8c 69 25 3d 5f bc ed 3d 3c 2e 05 3e f8 f7 cf bd
       0.04038386 0.116081946 0.13005918 -0.10154718
000070 86 8c 18 be 58 86 17 3d 72 23 21 be a9 df 80 3c
       -0.14897355 0.036993355 -0.15736178 0.01573165
000080 d2 a4 a5 3d 68 4b c2 be 9b d0 ed bd fb 9c 5f be
       0.080880776 -0.37948155 -0.11612054 -0.21837227
000090 da f9 16 be 02 ab 31 3f 18 93 9e be 32 8e 9e 3b
       -0.14743748 0.6940156 -0.309716 0.0048387283
0000a0 46 aa a8 3e 1f 69 70 be 99 c8 79 3c 78 a9 76 3c
       0.32942408 -0.234776 0.01524558 0.015055053
0000b0 19 1b 17 bc d2 3a e0 3b a2 02 39 bc 6f 82 66 3d
       -0.009222769 0.0068429494 -0.011292132 0.056276735
0000c0 49 41 01 3d 52 56 b6 3d 36 9f 90 3e ab 9f f1 3c
       0.0315564 0.08903183 0.28246468 0.029495081
0000d0 d8 43 f0 3e 1b 56 bc 3e 73 da cf 3e 2b f4 77 bd
       0.4692676 0.36784443 0.4059635 -0.06053559
0000e0 04 25 4e bc 2f d8 79 3d 37 9a 61 3d a9 a8 fb 3d
       -0.012582067 0.060997184 0.05507871 0.12288029
0000f0 83 8e 52 bd be 53 8e be 3b 2e d8 3d 09 67 38 3f
       -0.05140544 -0.27798265 0.10555693 0.7203222
