maddpg/hand_maddpg/log/tic_tac_toe/dqn/policy.pth (torch, 431529 bytes, 20 tensors)

model.model.model.0.weight f4 [128, 18]
0	0x3de758d6	0.11296241
1	0x3e101f03	0.1407433
2	0xbdf9c66e	-0.121960506
3	0xbb8c5c3f	-0.0042834575
4	0x3d298ae9	0.04139224
5	0xbe328b4b	-0.17435949
6	0x3e059ab7	0.130473
7	0xbdd5d84b	-0.10441645
8	0xbd8779a8	-0.06615001
9	0xbe524c56	-0.20536932
10	0x3e84cd98	0.25938106
11	0xbd32c80f	-0.043647822
12	0xbcbbec28	-0.022939757
13	0x3d2f34f9	0.042775128
14	0xbe18d571	-0.14925171
15	0xbdeae78e	-0.11469947
16	0xbe5d75e4	-0.21627003
17	0x3d92b6fd	0.071638085
18	0xbde48105	-0.11157421
19	0xbe11a865	-0.14224394
20	0xbdfc02b7	-0.12305205
21	0xbc138e1b	-0.009006049
22	0xbe678efc	-0.22613138
23	0x3dd7119c	0.105014056
24	0xbe311e70	-0.17296767
25	0xbe1dd486	-0.15413103
26	0x3e41117e	0.18854329
27	0xbe31a878	-0.17349422
28	0x3e3edbe7	0.18638574
29	0x3e2b141e	0.16706893
30	0x3e5e771a	0.21725121
31	0xbd24f724	-0.040274754
32	0x3d839c67	0.06426316
33	0x3deb994c	0.115038484
34	0xbdd885ae	-0.105723724
35	0x3dcd2e51	0.100186
36	0x3e4d1982	0.20029262
37	0xbe4863c0	-0.19569302
38	0x3e80502e	0.25061172
39	0x3b898078	0.004196223
40	0x3d5949df	0.053048965
41	0xbdcb729f	-0.099339716
42	0xbe62d472	-0.22151354
43	0x3e0eea3c	0.13956541
44	0x3e79c8dd	0.2439303
45	0xbd9a9fac	-0.07549986
46	0xbd1b771d	-0.037955392
47	0xbe631703	-0.22176747
48	0xbe3e96e8	-0.18612254
49	0xbe276876	-0.16348442
50	0xbda7116e	-0.08157621
51	0x3e3b875c	0.18313354
52	0xbe55eee6	-0.20891914
53	0xbd3996b5	-0.04530974
54	0xbe32e763	-0.1747108
55	0xbe407343	-0.18793969
56	0x3d5a15ff	0.053243633
57	0xbe6e6d71	-0.23283936
58	0xbde75d26	-0.112970635
59	0xbe067ac1	-0.13132764
60	0x3e3abffc	0.18237299
61	0x3bf491b9	0.0074636606
62	0xbddd766d	-0.108136036
63	0x3c9985c4	0.018740542
64	0xbe25b459	-0.16182078
65	0x3d709a1d	0.058740724
66	0xbe20dc6f	-0.15709089
67	0x3d5e2797	0.054236975
68	0x3d788bae	0.060680084
69	0x3e244d3f	0.16045092
70	0x3e0a949c	0.13533252
71	0x3d7113cc	0.05885677
72	0x3e286990	0.16446519
73	0x3defc1bd	0.117068745
74	0x3e4d647f	0.20057867
75	0x3dbf525e	0.09341882
76	0xbe302a4d	-0.17203636
77	0xbe2f3768	-0.1711098
78	0x3da5fe1b	0.081051074
79	0xbdb0f984	-0.08641341
80	0xbe2a5331	-0.16633298
81	0x3e6e912d	0.23297568
82	0x3dba7653	0.091046
83	0x3e672f82	0.22576717
84	0x3c9b71d8	0.018975183
85	0xbe2de176	-0.16980538
86	0xbe41723e	-0.18891236
87	0xbda01afc	-0.07817647
88	0xbb966a0b	-0.004590278
89	0xbdfbe742	-0.12299968
90	0x3d5ff123	0.054673325
91	0x3e1752d5	0.14777692
92	0xbe5e4937	-0.21707617
93	0xbd9c86f8	-0.07642931
94	0x3e0aa789	0.13540472
95	0xbd392486	-0.045200847
96	0xbe248b79	-0.1606883
97	0xbde32bfd	-0.110923745
98	0xbdd8a05f	-0.10577463
99	0x3cd7d349	0.026345866
100	0xbdbf0a00	-0.09328079
101	0xbdeb4980	-0.114886284
102	0xbdb5531c	-0.088537425
103	0x3e446a60	0.19181204
104	0x3d29e276	0.041475736
105	0xbe76d9f6	-0.24106583
106	0xbad080c1	-0.0015907512
107	0xbd1619b9	-0.036645625
108	0xbe33a19a	-0.17542115
109	0xbdae9e8c	-0.08526334
110	0x3b521680	0.0032056868
111	0xbd42abc7	-0.0475271
112	0x3e1cf05f	0.1532607
113	0x3e492ef6	0.1964682
114	0x3e37dbf0	0.17954993
115	0x3c7bc0f7	0.015365831
116	0xbd7e2e18	-0.062055677
117	0x3dada838	0.08479351
118	0x3e447125	0.19183786
119	0x3dbdf21f	0.092746966
120	0xbe3fb2ab	-0.187205
121	0xbdc5a365	-0.09650306
122	0x3d99a097	0.07501333
123	0x3d6ff588	0.058583766
124	0x3e81456d	0.2524828
125	0xbaee35fb	-0.0018174046
126	0xbdf07c20	-0.11742425
127	0xbaede66b	-0.0018150335
128	0xbc6f08ab	-0.014589469
129	0xbc16d0a4	-0.009205017
130	0xbda88bc5	-0.08229784
131	0x3e63efee	0.22259495
132	0x3e62a4f2	0.22133234
133	0xbe58dfb4	-0.21179086
134	0x3e712937	0.23550878
135	0xbc992968	-0.018696502
136	0x3dbad690	0.09122956
137	0x3dfe7a04	0.124256164
138	0xb8dead63	-0.00010618081
139	0xbe060981	-0.13089563
140	0x3d787b81	0.060664658
141	0x3da8772a	0.08225854
142	0x3e26b0c1	0.16278364
143	0x3c32498a	0.010881791
144	0x3e62ab0e	0.22135565
145	0xbe1c5a1e	-0.15268752
146	0xbd853fef	-0.06506335
147	0xbe1bde03	-0.1522141
148	0xbde5ff4d	-0.112303354
149	0xbe4efef3	-0.20214443
150	0x3d8a9bac	0.06767973
151	0xbe1e4cac	-0.15458935
152	0xbe4a04a6	-0.19728336
153	0x3e76f0e1	0.24115326
154	0x3e206088	0.15661824
155	0x3e441916	0.19150195
156	0xbe0335a2	-0.12813428
157	0xbe31810d	-0.17334385
158	0x3d7f9ef4	0.06240745
159	0x3cf7de29	0.030257301
160	0xbbf21ce5	-0.0073886984
161	0x3d73373d	0.05937885
162	0x3da45f77	0.08026021
163	0xbe5b0cac	-0.21391553
164	0x3de07297	0.10959356
165	0x3e5cda55	0.21567662
166	0x3e328aa0	0.17435694
167	0xbe188f2e	-0.14898369
168	0xbdaeadf7	-0.08529275
169	0xbdcf28c1	-0.10115195
170	0x3dc4e5b6	0.096141264
171	0xbd9f5fa8	-0.07781917
172	0xbdc584db	-0.09644481
173	0xbe452afc	-0.19254678
174	0xbd22b166	-0.03971996
175	0xbe46053d	-0.19337936
176	0xbdc82d3f	-0.09774255
177	0x3d29a65d	0.041418422
178	0xbdaa160c	-0.08304986
179	0xbcc0fa2b	-0.02355679
180	0xbde042aa	-0.10950215
181	0xbde819d0	-0.11333048
182	0xbe2297e6	-0.15878257
183	0x3e2021d4	0.15637904
184	0xbe0eec2f	-0.13957284
185	0xbde32bca	-0.110923365
186	0xbddf89ae	-0.10914932
187	0xbe297214	-0.16547424
188	0x3c4c1893	0.012457031
189	0x3e7ec520	0.24879885
190	0x3de4060a	0.11133964
191	0xbce98f45	-0.028510699
192	0xbdb08c5e	-0.08620523
193	0xbdba4053	-0.090943
194	0x3e12d792	0.14340046
195	0x3dddedf9	0.10836405
196	0x3e78096d	0.24222346
197	0xbba29986	-0.004962149
198	0x3e25fb01	0.16209032
199	0xbca3d12a	-0.019997198
200	0x3e506ac6	0.20353231
201	0xbe72f57c	-0.23726457
202	0xbd3fb061	-0.046799067
203	0xbd060670	-0.032720983
204	0xbe61efa9	-0.2206408
205	0x3d5ae8c3	0.053444635
206	0xbe034726	-0.1282011
207	0x3e6d118e	0.23151228
208	0x3e36caf9	0.17850865
209	0xbe01971f	-0.12655304
210	0x3e7c316e	0.24628231
211	0xbe1dbb88	-0.15403569
212	0xbe249103	-0.16070943
213	0xbceeaa52	-0.02913395
214	0x3ccd25b6	0.025042396
215	0x3dafe397	0.08588331
216	0xbc9bacae	-0.019003239
217	0x3d78a787	0.06070664
218	0x3d415ecf	0.047209557
219	0x3e2bbb4c	0.16770667
220	0xbdffe2c8	-0.12494427
221	0x3acb5e08	0.0015515694
222	0xbd6d7db0	-0.057981193
223	0x3e115cfb	0.14195625
224	0xbddc6b18	-0.10762614
225	0xbe4af8f6	-0.19821534
226	0xbce5c534	-0.028048135
227	0x3d166e8b	0.036726516
228	0xbce6eda6	-0.028189491
229	0xbe20d060	-0.15704489
230	0xbdbf4c6c	-0.09340748
231	0x3c9f6243	0.019456035
232	0xbd678384	-0.056521907
233	0x3d8356f6	0.06413071
234	0xbcc92a0a	-0.024556179
235	0x3c2f691b	0.010706211
236	0x3e6b44d7	0.22975479
237	0xbcea6d84	-0.028616674
238	0xbe3795ca	-0.17928234
239	0x3e4e58c4	0.20151049
240	0xbd2c06fc	-0.04199885
241	0xbe3bedc3	-0.18352418
242	0xbdd77166	-0.10519676
243	0x3d813b5b	0.06310149
244	0x3e059653	0.13045625
245	0x3e51f6f7	0.20504366
246	0x3e2e9838	0.17050254
247	0x3e6f50c1	0.23370649
248	0x3e3d8a10	0.18509698
249	0x3e213519	0.15742911
250	0xbe6c4b58	-0.23075616
251	0x3dbbae31	0.09164084
252	0x3d3b83ee	0.045780115
253	0xbe161889	-0.14657797
254	0x3e53907c	0.20660585
255	0x3e11e848	0.14248765

model.model.model.0.bias f4 [128]
0	0xbe1c191c	-0.15243953
1	0x3d879f9b	0.06622239
2	0x3e442a5b	0.19156782
3	0x3d160ff6	0.036636315
4	0x3ac6fe62	0.0015182013
5	0xbd10c994	-0.03534849
6	0x3e4fb78c	0.20284861
7	0x3e5bb180	0.2145443
8	0x3e7675f4	0.24068433
9	0xba1fac02	-0.0006091
10	0xbc4906a7	-0.012269652
11	0x3cc0d422	0.023538653
12	0xbe115413	-0.14192228
13	0x3cf41644	0.029795773
14	0x3ce7e092	0.028305326
15	0xbdb85402	-0.09000398
16	0xbe4766b3	-0.1947277
17	0xbc0124cb	-0.007882307
18	0x3d40e66e	0.047094755
19	0xbe2d494a	-0.16922489
20	0x3dcc25b3	0.09968128
21	0xbe3c4a21	-0.18387653
22	0x3dd766fd	0.1051769
23	0xba9af513	-0.0011822305
24	0xbe5bacd4	-0.21452647
25	0x3e2f73cc	0.17134017
26	0x3e10fc3c	0.1415872
27	0x3ca2798a	0.019833345
28	0xbdf821db	-0.121158324
29	0x3e11d70c	0.1424219
30	0xbd8d278f	-0.06892311
31	0x3e4076c7	0.1879531
32	0xbd940250	-0.072270036
33	0xbe373a00	-0.17893219
34	0xbb6088d9	-0.0034261255
35	0x3d90c931	0.07069624
36	0x3e00849c	0.12550586
37	0xbd791ea0	-0.060820222
38	0x3e0f8bc9	0.14018168
39	0x3db742ba	0.08948274
40	0xbd507cd7	-0.050900307
41	0x3ce43249	0.02785601
42	0xbe44403d	-0.1916513
43	0x3d4de7e0	0.05026996
44	0x3e3d3cbe	0.18480203
45	0x3e0c5588	0.13704503
46	0xbd2c96b2	-0.0421359
47	0x3dd3d491	0.10343278
48	0x3e626a5f	0.2211089
49	0x3dfcfc6c	0.12352833
50	0xbe41f80c	-0.18942279
51	0x3e100184	0.14063078
52	0xbdca0c84	-0.098656684
53	0x3dabd17b	0.083895646
54	0x3e73e07f	0.23816107
55	0xbe199c32	-0.1500099
56	0x3d7e44bd	0.062077273
57	0xbde3ae6c	-0.11117253
58	0xbdf6d1b3	-0.12051716
59	0x3e25b0d4	0.16180736
60	0xbe699fbc	-0.2281484
61	0xbe4f0223	-0.20215659
62	0x3c4c48e0	0.012468547
63	0xbe62158c	-0.22078532
64	0xbd9a3619	-0.075298496
65	0x3e4fc005	0.20288093
66	0x3dbdfa04	0.09276202
67	0x3e54b530	0.20772243
68	0x3ce31ce7	0.027723743
69	0xbe29e774	-0.16592199
70	0xbd2b4c86	-0.041821025
71	0xbe4e2769	-0.20132221
72	0x3e373f4f	0.17895244
73	0xbdcd20ae	-0.10015999
74	0x3dbecdea	0.09316619
75	0xbe341c7e	-0.17588994
76	0xbe120ec5	-0.14263447
77	0x3dbd2335	0.09235231
78	0xbe4b5b9f	-0.1985917
79	0xbe2f68f4	-0.1712988
80	0xbe12c6b1	-0.14333607
81	0x3e64ba76	0.22336754
82	0x3d7c317b	0.061570626
83	0x3e1c95c6	0.15291509
84	0x3e7d769e	0.2475228
85	0x3e2a142c	0.16609257
86	0x3c15ffd9	0.009155237
87	0x3e21ea8c	0.15812129
88	0x3dd78f77	0.105254106
89	0x3d9b15a9	0.07572491
90	0xbe15be6a	-0.14623418
91	0x3e55e83f	0.20889376
92	0x3e02eeda	0.12786427
93	0xbe1f1b28	-0.15537703
94	0x3e43715f	0.19086216
95	0xbd0445e0	-0.0322932
96	0x3d969b73	0.07353868
97	0x3e1cc664	0.15310055
98	0xbe112232	-0.141732
99	0xbd167848	-0.036735803
100	0xbe4b2f6e	-0.19842312
101	0x3e5a2eeb	0.2130696
102	0x3e05eb73	0.13078098
103	0x3e65252b	0.2237746
104	0xbd8dfca6	-0.069329545
105	0xbe30facc	-0.17283171
106	0x3cb63f9e	0.022247132
107	0x3d8a5bdb	0.06755801
108	0x3c489006	0.012241369
109	0x3dcdb61c	0.100445
110	0xbe52bca5	-0.20579775
111	0xbcc3f896	-0.023922246
112	0xbd37b000	-0.04484558
113	0xbdce4fd2	-0.10073818
114	0xbe00fb87	-0.1259595
115	0x3c675646	0.01411969
116	0x3df95e0c	0.12176141
117	0x3dcd9fc6	0.1004024
118	0xbe28cb91	-0.16483904
119	0x3e6e669c	0.2328133
120	0x3dc47afe	0.095937714
121	0xbcb63161	-0.022240343
122	0xbc3fa7a9	-0.011697688
123	0x3e342b37	0.1759461
124	0xbce154da	-0.02750628
125	0xbca469f1	-0.020070048
126	0x3e3921bf	0.1807928
127	0xbe0b6073	-0.13611011

model.model.model.2.weight f4 [128, 128]
0	0x3db05eb9	0.08611817
1	0x3d12a797	0.035804357
2	0xbde34718	-0.110975444
3	0x3cdbf94c	0.026852272
4	0x3c754cac	0.014971893
5	0x3da84d5d	0.08217881
6	0xbd883766	-0.066511914
7	0xbd50baab	-0.05095927
8	0x3d994d45	0.07485441
9	0xbda7adcc	-0.08187446
10	0xbcafac5f	-0.021444498
11	0xbce16299	-0.027512835
12	0xbcf88728	-0.030337885
13	0xbc09ce08	-0.008410938
14	0xbd38fd09	-0.045163188
15	0x3c5b5f8a	0.0133894775
16	0xbd574598	-0.052556604
17	0xbd0648f0	-0.032784402
18	0xbd1ad690	-0.03780228
19	0xbd2b0974	-0.041757062
20	0x3d94e0b5	0.07269422
21	0xbd182d2e	-0.03715246
22	0x3cf43e48	0.029814854
23	0xbd9e455e	-0.077280745
24	0x3d2f42c3	0.04278828
25	0x3d2ca690	0.042151034
26	0xbdb173a2	-0.08664633
27	0x3cf6444e	0.030061867
28	0xbcf50f40	-0.029914498
29	0x3c86928a	0.016427297
30	0xbc8886af	-0.016665785
31	0x3d96201a	0.07330342
32	0xbcf2ee13	-0.029654538
33	0x3d3e36ab	0.046438854
34	0xbdb8c18d	-0.09021292
35	0x3d8fcb48	0.07021195
36	0xbd49ad6c	-0.049237654
37	0x3d413f33	0.047179412
38	0xbdbe2486	-0.0928431
39	0x3d40cb23	0.047068726
40	0xbd933b46	-0.0718904
41	0x3d76baf1	0.060236875
42	0x3c898b70	0.016790122
43	0xbce149f3	-0.027501082
44	0x3d77397a	0.06035755
45	0x3c23c258	0.009995066
46	0x3d3da579	0.046300385
47	0xbca5d96a	-0.020245273
48	0x3da359cd	0.079761125
49	0xb8c1901f	-9.229802e-05
50	0xbdcc7520	-0.09983277
51	0xbd1deafb	-0.038554173
52	0x3d902432	0.07038154
53	0x3d29b535	0.041432578
54	0xbcd9fdca	-0.026610274
55	0x3d4135f1	0.047170583
56	0xbbb88ac4	-0.0056317765
57	0xbd38d032	-0.045120426
58	0xbd37e3fa	-0.04489515
59	0xbdae9168	-0.08523828
60	0x3d50107d	0.050796974
61	0x3d9a83f1	0.07544697
62	0x3dbfaffd	0.09359739
63	0xbd660c22	-0.056163915
64	0xbc78907c	-0.0151711665
65	0x3d84ec8d	0.06490431
66	0x3cbce406	0.023057949
67	0x3d656f1d	0.05601417
68	0xbd5d5c13	-0.054042887
69	0xbd608a13	-0.054819178
70	0x3d8b2e58	0.06795949
71	0x3d97ffc4	0.0742183
72	0xbd340bf0	-0.043956697
73	0x3d3f6a01	0.046731953
74	0xbd0c5489	-0.034260307
75	0x3d58eea7	0.05296197
76	0xbc75ffc2	-0.015014591
77	0x3c92c885	0.01791788
78	0xbd8a72f1	-0.067602046
79	0xbda6fc56	-0.08153598
80	0xbd8b42d2	-0.06799854
81	0xbd93b1da	-0.07211657
82	0x3d2c4feb	0.042068403
83	0x3d1a7e39	0.03771803
84	0x3d588c0c	0.052867934
85	0xbdb0bc85	-0.08629707
86	0x3c838ca0	0.016058266
87	0xbda96a9a	-0.08272286
88	0xbda7014d	-0.08154545
89	0x3d86b6b4	0.065778166
90	0x3d20a3c8	0.039218694
91	0xbd881554	-0.06644693
92	0xbd98f812	-0.07469191
93	0x3d5050e5	0.050858397
94	0x3c574db3	0.0131410835
95	0xbd923284	-0.07138541
96	0x3c33a49f	0.010964542
97	0xbd40c2af	-0.047060665
98	0x3d6cf982	0.057855137
99	0x3d6be0c0	0.057587385
100	0xbb943688	-0.004523102
101	0xbdaa287a	-0.083085015
102	0xbbb0a94b	-0.005391275
103	0x3cb0a898	0.021564767
104	0x3d5e317f	0.054246422
105	0x3d35a12a	0.04434315
106	0xbcf0a845	-0.029377112
107	0x3d844f42	0.0646043
108	0x3bb46f4c	0.0055064317
109	0x3c4f7736	0.012662699
110	0x3d72ce48	0.059278756
111	0xbc8708a8	-0.01648362
112	0x3d9348c9	0.07191617
113	0x3d1cccdd	0.03828131
114	0x3d196f6b	0.037459772
115	0x3d821c33	0.06353035
116	0x3d2370e8	0.039902598
117	0x3d9ee00a	0.07757576
118	0xbd939ccc	-0.07207641
119	0xbd7509e8	-0.0598239
120	0xbc2ea014	-0.010658283
121	0x3d9e8301	0.07739831
122	0x3d6b93f8	0.05751416
123	0xbd9452aa	-0.072423294
124	0xbd4ec4d9	-0.050480697
125	0x3cc16793	0.023608958
126	0xbbb16184	-0.005413236
127	0x3d7a5bad	0.061122585
128	0x3cd92e7c	0.026511423
129	0xbd46c5df	-0.04852855
130	0x3ca8ae4b	0.020590922
131	0x3dd16aea	0.1022547
132	0x3d4a10b4	0.049332336
133	0x3d7bd76e	0.061484747
134	0x3c9467d8	0.018115923
135	0x3da0259b	0.07819673
136	0x3cd424c6	0.025896441
137	0xbacae848	-0.0015480602
138	0xbd2666fb	-0.040625554
139	0xbd2fabd4	-0.042888477
140	0xbd12d9d9	-0.035852287
141	0x3d389fbe	0.045074217
142	0x3d78b178	0.060716122
143	0xbd22f1c3	-0.039781343
144	0xbd40608d	-0.046967078
145	0xb7376400	-1.0930933e-05
146	0x3ce3d1ab	0.027809938
147	0x3cb08aae	0.021550503
148	0x3dca2072	0.0986947
149	0x3d115cb7	0.03548881
150	0x3d7c0e8a	0.061537303
151	0xbc5a37a9	-0.0133189345
152	0xbdaa5f8d	-0.08319006
153	0xbd69d498	-0.05708751
154	0x3cfa6360	0.030564964
155	0x3d073e9f	0.033018705
156	0xbd52d88e	-0.051476054
157	0xbce80302	-0.028321747
158	0x3cfd7d12	0.030943427
159	0xbb34cc3b	-0.002758755
160	0x3db465a8	0.08808452
161	0xbcfa3646	-0.030543458
162	0x3ce63f9a	0.0281065
163	0x3dbf8bc7	0.09352832
164	0x3c517ecd	0.012786579
165	0x3db799da	0.08964892
166	0xbb81eed7	-0.0039652395
167	0x3d945e98	0.07244605
168	0x3c90bd92	0.01766852
169	0xbc37f3b3	-0.011227536
170	0x3dcd796d	0.10032926
171	0xbd879f66	-0.066222
172	0x3ca979bb	0.020687928
173	0x3c818d38	0.015814409
174	0x3d8226a6	0.06355028
175	0x3bfaab32	0.0076498026
176	0xbd2fe4ae	-0.042942695
177	0xbd2576fd	-0.04039668
178	0xbd3f4d61	-0.046704654
179	0xbd556b09	-0.05210403
180	0x3db73dee	0.08947359
181	0x3c9e7de6	0.019347142
182	0xbda0dfec	-0.0785521
183	0xbdbb926a	-0.09158786
184	0xbae63505	-0.0017563408
185	0x3da41368	0.08011514
186	0x3ca83361	0.020532312
187	0x3c5c489b	0.013445045
188	0xbc5ad259	-0.013355815
189	0x3da2ca18	0.079487026
190	0x3d9e5218	0.07730502
191	0xbbf2369c	-0.007391764
192	0xbced3cc7	-0.028959645
193	0xbd0a4dad	-0.033765484
194	0x3cb6cbb6	0.022313934
195	0x3d80b8b9	0.06285233
196	0x3da3e8e7	0.08003407
197	0x3da602c9	0.08106
198	0x3d9a0d73	0.075220965
199	0x3d0cba6e	0.03435748
200	0x3de114c9	0.109902926
201	0x3da1e909	0.07905776
202	0xbc064275	-0.0081945555
203	0x3d97f2a9	0.074193306
204	0xbc876d91	-0.016531738
205	0xbd37c03b	-0.04486106
206	0xbd95832f	-0.07300412
207	0xba3923be	-0.0007062516
208	0x3db96c69	0.09053881
209	0xbd9af7bf	-0.07566785
210	0x3d30bffc	0.04315184
211	0x3c245538	0.010030083
212	0x3dbf8020	0.0935061
213	0xbc82077c	-0.01587271
214	0x3cf652d5	0.030068794
215	0x3cbf394f	0.023342757
216	0x3db59512	0.088663235
217	0x3da6cf16	0.08144967
218	0x3ce2f879	0.027706372
219	0xbb9e4eff	-0.0048311944
220	0xbd1e30dc	-0.038620815
221	0x3dd68a19	0.10475559
222	0x3d7c4562	0.061589606
223	0x3c113f88	0.008865245
224	0xbd49cda7	-0.04926839
225	0x3aaaf26c	0.0013042218
226	0x3d117e8e	0.035521083
227	0xbd552be9	-0.05204383
228	0xbd01632a	-0.03158871
229	0xbd1235bf	-0.035695788
230	0xbd46019f	-0.04834139
231	0x3d91c584	0.07117751
232	0x3d5b7572	0.0535788
233	0x3d97c48e	0.07410537
234	0x3d88542d	0.0665668
235	0xbaafad9e	-0.0013403182
236	0xbd4cc4b3	-0.049992274
237	0xbd65d5af	-0.056111988
238	0x3dcc8050	0.09985411
239	0xbd08b821	-0.033378724
240	0xbd4efd0a	-0.050534286
241	0xbd35a067	-0.044342425
242	0xbcfbf51b	-0.030756524
243	0x3dbf57d5	0.093429245
244	0x3cbe5c10	0.023237258
245	0xbd7231db	-0.059129577
246	0xbc8d9477	-0.017282708
247	0x3b12c354	0.0022394257
248	0x3d32c345	0.043643255
249	0x3da30b44	0.07961133
250	0xbcbccca1	-0.023046793
251	0xbc72a41e	-0.014809636
252	0x3d9de358	0.07709378
253	0x3d25bc66	0.040462874
254	0x3da0ae83	0.078457855
255	0xbd756acb	-0.0599163

model.model.model.2.bias f4 [128]
0	0x3d883c57	0.06652134
1	0x3da2ce32	0.07949485
2	0xbd44680f	-0.0479508
3	0xbb91194e	-0.0044280654
4	0x3c43dddc	0.011954751
5	0xbcd8d46f	-0.026468484
6	0x3ce86de5	0.028372714
7	0x3dac0c9f	0.08400845
8	0x3dab8ca7	0.08376437
9	0x3d002386	0.031283878
10	0xbcbd7807	-0.023128523
11	0x3c39bcbb	0.011336501
12	0xbd25579e	-0.04036676
13	0x3d441966	0.047875784
14	0x3d287525	0.041127343
15	0x3d255ba8	0.040370613
16	0x3d8420d4	0.06451574
17	0xbd979e4d	-0.0740324
18	0x3d6e4e01	0.05817986
19	0x3d820731	0.06349028
20	0xbd31f28d	-0.043444205
21	0xbd7fc268	-0.06244126
22	0x3ca4ced7	0.02011816
23	0xbd8cf825	-0.06883267
24	0xbd374868	-0.044746786
25	0x3d8443fa	0.06458278
26	0xbbee47ed	-0.007271758
27	0x3d93d52a	0.07218392
28	0xbce59ebf	-0.028029798
29	0x3cb71b4a	0.02235188
30	0xbd4bde1a	-0.04977236
31	0xbd185a95	-0.03719576
32	0xbd94703f	-0.07247972
33	0x3db2d8ce	0.087327585
34	0xbd870c68	-0.06594163
35	0xbd97a8e7	-0.074052624
36	0x3cf50692	0.02991036
37	0xbd21c8d2	-0.039498158
38	0xbd690db1	-0.056897823
39	0x3d5dbf5f	0.054137584
40	0xbd54a20f	-0.051912364
41	0x3d241d4f	0.040067013
42	0x3cecebc8	0.028921023
43	0xbd6bd1e9	-0.057573233
44	0x3da80943	0.082048915
45	0x3d08c5fb	0.033391934
46	0xbd915a1c	-0.07097265
47	0x3ccfc946	0.02536453
48	0x3c8bf343	0.01708377
49	0xbd9ebc51	-0.07750762
50	0xbc74f468	-0.014950849
51	0xbcedf12e	-0.029045667
52	0x3db6dde3	0.0892904
53	0x3b821af2	0.0039704973
54	0xbbe47ff4	-0.006973261
55	0x3d4505aa	0.048101105
56	0xbd8b0136	-0.0678734
57	0xbd9a74fb	-0.075418435
58	0xbd8b4ac3	-0.06801369
59	0x3c37971e	0.011205463
60	0xbd86ee85	-0.06588463
61	0xbd877151	-0.0661341
62	0x3d653b1a	0.055964567
63	0xbdb74e08	-0.0895043
64	0xbd3ac9ee	-0.04560273
65	0x3db57e19	0.08861942
66	0xbd9b46c6	-0.07581858
67	0x3db7a8b1	0.08967722
68	0xbd988267	-0.07446747
69	0xbda0eee1	-0.078580625
70	0x3cdf1fbb	0.02723681
71	0x3d541f53	0.051787686
72	0xbd92e67b	-0.07172867
73	0xbd971554	-0.07377115
74	0xbd30cc63	-0.04316367
75	0x3c3bc0ea	0.0114595685
76	0x3d512515	0.051060755
77	0x3c97963f	0.01850426
78	0xbd790daf	-0.060804065
79	0x3b0b234a	0.002123075
80	0x3c464210	0.012100711
81	0x3c7dc0b5	0.0154878395
82	0xbd8f8242	-0.070072666
83	0xbd99d7cd	-0.07511864
84	0x3a4232bd	0.0007408073
85	0xbd2aa928	-0.041665226
86	0xbc4df662	-0.012570949
87	0x3db9fd2c	0.09081492
88	0x3d9431dd	0.07236073
89	0xbcb32358	-0.02186744
90	0x3d1504dc	0.036381587
91	0xbb681fa0	-0.003541924
92	0xbcc54874	-0.0240824
93	0xbc86e52e	-0.016466703
94	0x3d20af4f	0.039229687
95	0x3d47c17a	0.048768498
96	0x3d32d9e4	0.043664828
97	0x3b4b7462	0.0031044711
98	0xbd7a646b	-0.061130922
99	0x3d0118e6	0.031517886
100	0xbd84e54f	-0.0648905
101	0xbd7e9c0f	-0.062160548
102	0x3d9c9917	0.07646387
103	0xbca9f0ce	-0.020744707
104	0x3c8f0629	0.017458992
105	0x3d3d0543	0.046147596
106	0xbd23facc	-0.0400341
107	0x3c9f43e6	0.019441556
108	0x3d0b32d1	0.03398401
109	0xbc589721	-0.013219626
110	0xbcad9076	-0.021187048
111	0x3cef22ca	0.029191393
112	0xbc155334	-0.009114075
113	0xbcc9bf2f	-0.024627296
114	0xbd117375	-0.0355105
115	0xbd9931c1	-0.07480193
116	0x3d7000a6	0.05859437
117	0x3db728a5	0.08943299
118	0xbd9faafa	-0.07796283
119	0xbd833c62	-0.064080015
120	0x3c90dd59	0.017683672
121	0xbb4d2293	-0.0031301125
122	0x3da7c29c	0.08191416
123	0x3c8aad63	0.01692838
124	0x3cad1c70	0.021131724
125	0xbd8005d5	-0.06251112
126	0x3d9ae50c	0.075632185
127	0xbca270f2	-0.019829247

model.model.model.4.weight f4 [128, 128]
0	0x3c878958	0.016544983
1	0x3d88acf1	0.06673611
2	0x3c51ea54	0.012812216
3	0xbd0ab448	-0.033863336
4	0xbd517b22	-0.05114282
5	0x3db6414c	0.08899173
6	0xbd2aa41c	-0.041660413
7	0x3d44aea7	0.048018124
8	0xbcc73a0c	-0.024319671
9	0xbd4f7fea	-0.050659098
10	0x3db359b0	0.08757341
11	0x3d254914	0.040352896
12	0xbd7ff77b	-0.062491875
13	0x3c0a191b	0.008428837
14	0x3d6f6fbd	0.05845617
15	0x3c0e8337	0.008698276
16	0x3da9d5f0	0.082927585
17	0xbbe2bc30	-0.0069194064
18	0x3cc0908b	0.023506423
19	0xbd9b2380	-0.075751305
20	0xbcb2e558	-0.021837875
21	0xbdae31ad	-0.08505569
22	0xbd1a56f2	-0.037680574
23	0x3c37ead8	0.011225425
24	0xbc933acc	-0.017972372
25	0xbbbd4215	-0.0057757
26	0xbd87c051	-0.06628478
27	0xbcf37b20	-0.029721797
28	0x3d921fa8	0.07134944
29	0x3dbd3a34	0.09239617
30	0x3d6c41b4	0.057679847
31	0xbd015c4f	-0.031582173
32	0xbcf9be71	-0.030486317
33	0x3db4f6b2	0.08836116
34	0x3ba47b03	0.005019547
35	0xbcae0c72	-0.021246169
36	0x3d7b53e1	0.06135929
37	0xbce72c05	-0.028219232
38	0x3d1b61fd	0.037935246
39	0xbac9d8d6	-0.0015399705
40	0xbd943a76	-0.07237713
41	0x3d019abe	0.031641714
42	0xbd1f6f5c	-0.03892456
43	0x3dc34995	0.09535519
44	0xbd4e7765	-0.050406832
45	0xbb6de417	-0.0036299282
46	0xbd8055d6	-0.06266372
47	0xbd464d40	-0.048413515
48	0xbd15dbdb	-0.036586624
49	0x3d772974	0.060342267
50	0x3d7ee33a	0.06222842
51	0x3c9cef96	0.019157212
52	0x396c1548	0.00022514642
53	0xbcdd2e75	-0.026999692
54	0x3d578ed8	0.05262646
55	0xbd7b4d69	-0.06135312
56	0xbcc0fc76	-0.023557883
57	0xbce36afe	-0.027760979
58	0xbc8eb9d0	-0.017422587
59	0xbc727ba8	-0.01479999
60	0x3a61fa06	0.0008620325
61	0x391159f2	0.00013861785
62	0xbd901eec	-0.07037148
63	0x3cb54cc8	0.022131339
64	0xbb6cb139	-0.0036116375
65	0xbd8e363d	-0.06943939
66	0xbda65730	-0.081220984
67	0xbd1848c7	-0.03717878
68	0x3d9b8670	0.07594001
69	0x3d20b26e	0.039232664
70	0x3c3fbe86	0.011703139
71	0x3d6e3b68	0.058162123
72	0x3dcbbb1d	0.099477984
73	0x3bc58470	0.0060277507
74	0x3d437bcd	0.047725488
75	0x3b5cea46	0.0033708974
76	0xbc2b951a	-0.01047256
77	0xbd5d4d54	-0.054028824
78	0x3ba51dc0	0.005038947
79	0xbcf4cd83	-0.029883152
80	0x3d45bec8	0.048277646
81	0xbd44131e	-0.047869794
82	0xbd5d27cc	-0.05399303
83	0xbd8e8ef7	-0.06960862
84	0xbd8049e3	-0.06264093
85	0x3d8e1e81	0.06939412
86	0xbd907842	-0.07054187
87	0x3da9ad58	0.08285016
88	0xbd7cdf23	-0.061736237
89	0xbd27a150	-0.040925324
90	0x3d891473	0.066933535
91	0x3cbd4f1c	0.023109011
92	0xbd419af7	-0.047266927
93	0xbccec818	-0.025241897
94	0xbd151a98	-0.036402315
95	0x3c81f903	0.015865808
96	0xbc468eb6	-0.012118986
97	0x3d3eb2f5	0.046557385
98	0x3d082463	0.033237826
99	0x3ce5f057	0.028068705
100	0xbc91a1b0	-0.017777294
101	0x3bc9f1f2	0.0061628753
102	0xbd833d2e	-0.064081535
103	0x3cc7aa86	0.024373304
104	0x3bfa66f6	0.0076416684
105	0xbd74fde9	-0.05981246
106	0x3cb78448	0.022401944
107	0x3d4bd18d	0.04976039
108	0x3d3f86e9	0.04675952
109	0x3bc90113	0.0061341613
110	0x3d99ffa4	0.07519463
111	0x3bd01e18	0.0063512437
112	0x3d99c4a9	0.07508213
113	0xbc866f67	-0.016410543
114	0x3c0f5c3b	0.008750017
115	0xbcad7db5	-0.021178106
116	0xbcc67348	-0.024224892
117	0x3d8981c3	0.06714203
118	0xbd4f4fef	-0.05061334
119	0x3db434f6	0.08799164
120	0x3d06dbd9	0.032924507
121	0x3d5c3550	0.05376178
122	0x3d1d22a9	0.038363133
123	0xbcb2ca20	-0.021824896
124	0x3bf61d0a	0.007510786
125	0xbafdd21d	-0.0019364987
126	0x3d170bcf	0.036876496
127	0xbc4d591a	-0.0125334505
128	0xbd06c4f4	-0.032902673
129	0x3d0ee358	0.03488478
130	0xbcaec868	-0.021335796
131	0xbc023cf8	-0.007949106
132	0x3c046228	0.008080043
133	0x3d219c5e	0.039455764
134	0x3a750900	0.00093473494
135	0xbcfb3110	-0.030663043
136	0x3b1496c0	0.0022672862
137	0x3c37d1b0	0.011219427
138	0x3daec229	0.08533127
139	0xbd91f638	-0.071270406
140	0xbd24cbae	-0.040233307
141	0xbd98b0bf	-0.07455587
142	0xbd2b50fc	-0.04182528
143	0x3d8a52ad	0.067540504
144	0xbdac0c0d	-0.08400736
145	0xbdad0561	-0.084482916
146	0xba6faf00	-0.00091432035
147	0x3d5e3f2e	0.05425947
148	0xbda5b58b	-0.08091267
149	0xbdab495d	-0.08363602
150	0x3b947da0	0.004531577
151	0xbcd49b50	-0.025952965
152	0xbd54a0c2	-0.051911123
153	0x3c3372e0	0.010952681
154	0x3d978579	0.07398505
155	0xbc0afe70	-0.008483514
156	0xbdaf2403	-0.085517906
157	0xbc85b988	-0.01632382
158	0xbd0de6e7	-0.034644034
159	0xbc51e5a8	-0.012811102
160	0x3d7d30f2	0.061814256
161	0x3b859a20	0.004077211
162	0xbd78e7f7	-0.060768094
163	0xbd9ceb7b	-0.07662102
164	0x3d2027da	0.039100505
165	0x3ce2e050	0.027694851
166	0xbd5f6209	-0.054536853
167	0x3cec237c	0.028825514
168	0x3c0ed488	0.008717664
169	0xbd826fbe	-0.063689694
170	0x3d80174f	0.06254446
171	0xbcb2ebd4	-0.021840967
172	0xbd64ee7d	-0.055891503
173	0xbd0aee96	-0.03391894
174	0xbcad16b0	-0.021128982
175	0x3d581536	0.052754603
176	0xbd137655	-0.036001522
177	0x3d2f8fa2	0.04286159
178	0x3d48b0ae	0.04899662
179	0x3da61099	0.081086345
180	0xbd9a6af5	-0.07539932
181	0xbd98d191	-0.074618466
182	0xbd2a5848	-0.041588098
183	0xbd6f2600	-0.05838585
184	0xbb175fe0	-0.0023097917
185	0xbcc3e5f0	-0.023913354
186	0xbc8769dc	-0.01652997
187	0xbd9fb1c0	-0.07797575
188	0xbd7e17bc	-0.062034354
189	0x3d9f8129	0.07788307
190	0xbcf7a6dc	-0.030230932
191	0xbc4eb590	-0.01261653
192	0x3da0aea1	0.07845808
193	0x3d56343e	0.052295916
194	0xbd58d510	-0.052937567
195	0xbda9aa6d	-0.08284459
196	0x3ba0a800	0.0049028397
197	0x3d8e137d	0.06937311
198	0x3d05d40a	0.03267292
199	0x3d36f296	0.04466494
200	0x3c2a8138	0.010406785
201	0x3d86e347	0.065863185
202	0xbb953e90	-0.004554577
203	0x3c8bf24c	0.01708331
204	0x3c2d22f8	0.010567419
205	0x3cbbd748	0.022929803
206	0x3d84917d	0.06473062
207	0xbd9a8059	-0.075440116
208	0x3d3fe916	0.046853147
209	0xbbc0d490	-0.0058847144
210	0x3d2c3cd2	0.04205019
211	0x3d4d7246	0.050157808
212	0x3d858209	0.06518943
213	0x3b0b08a0	0.0021214858
214	0x3dafe69d	0.08588908
215	0xbd26bd92	-0.040708132
216	0x3d949637	0.07255214
217	0xbd8d6115	-0.069032826
218	0x3d2fbbae	0.042903595
219	0xbc456a98	-0.01204934
220	0xbda555f4	-0.08073035
221	0xbd2e6fb1	-0.042586986
222	0xbd6b11bc	-0.05738996
223	0x3d8e27b1	0.06941164
224	0x39148400	0.00014163554
225	0xbcf842ea	-0.030305345
226	0xbd8429bc	-0.06453273
227	0x3ce6f220	0.028191626
228	0xbd291081	-0.041275505
229	0xbd5edb35	-0.05440827
230	0x3c11cd58	0.008899055
231	0x3d70f21a	0.058824636
232	0xbc60a168	-0.013710357
233	0xbcc1b490	-0.02364567
234	0xbd9bd01a	-0.076080516
235	0x3d6cee8e	0.05784469
236	0xbccaec0c	-0.024770759
237	0xbd87de99	-0.06634254
238	0xbd54d5d6	-0.051961742
239	0x3d7ba6a6	0.061438225
240	0x3d2983a2	0.0413853
241	0x3d7227b2	0.059119888
242	0x3db48947	0.08815246
243	0x3d172f2a	0.036910214
244	0xbdad4376	-0.08460133
245	0xb8dff000	-0.00010678172
246	0xbd943113	-0.07235923
247	0xbd5e8247	-0.05432346
248	0xbdab5fbc	-0.08367869
249	0xbd8085d1	-0.062755235
250	0xbc8b8398	-0.017030522
251	0x3d4121ea	0.047151484
252	0x3d12903c	0.035782084
253	0xbdab47b5	-0.083632864
254	0xbc7b65b8	-0.015344076
255	0xbcf3bf04	-0.02975417

model.model.model.4.bias f4 [128]
0	0x3cad74b3	0.02117381
1	0xbd563550	-0.052296937
2	0x3d8e33b0	0.06943452
3	0x3d106e4f	0.03526145
4	0xbd8cb316	-0.068700954
5	0x3d1fa403	0.038974773
6	0xbd87adf6	-0.06624977
7	0x3d927ac9	0.07152326
8	0x3d3194cb	0.04335479
9	0x3c69569d	0.014241842
10	0x3c71997a	0.014746064
11	0xbda974d9	-0.0827424
12	0x3db00228	0.08594161
13	0xbce0fa8f	-0.027463226
14	0x3d42a6a6	0.04752221
15	0x3cbe56fa	0.023234833
16	0x3d811670	0.06303108
17	0x3d73b3a4	0.05949749
18	0x3db61b9d	0.088919856
19	0x3d99138d	0.07474432
20	0xbcc08bdb	-0.023504188
21	0xba00d93d	-0.00049151835
22	0xbd33c695	-0.043890554
23	0xbc68bbf2	-0.014204966
24	0x3bdde859	0.0067720828
25	0x3d5101a2	0.051026948
26	0xbd736c92	-0.059429713
27	0x3d9f6260	0.077824354
28	0x3d3f6244	0.046724573
29	0xbc2c540a	-0.010518083
30	0x3d9b08cb	0.075700365
31	0xbd7b418e	-0.061341815
32	0xbd0246f7	-0.03180596
33	0x3d2ba137	0.041901793
34	0xba3785b4	-0.00070008193
35	0xbd4c3eb9	-0.049864504
36	0x3d954349	0.07288224
37	0x3ccd2f91	0.025047095
38	0x3c9b62fe	0.018968102
39	0x3cb907e9	0.02258678
40	0xbbb819df	-0.0056183184
41	0xbd690ed9	-0.056898925
42	0x3d519b54	0.051173523
43	0xbcfecb7e	-0.031102892
44	0xbca4fa13	-0.020138776
45	0xbd040a0a	-0.032236136
46	0xbd43b763	-0.047782313
47	0x3ccef346	0.025262486
48	0x3c808787	0.015689624
49	0x3b93ed1a	0.0045143487
50	0x3d9bf6a9	0.07615406
51	0xbdaec26a	-0.08533175
52	0x3c66ec52	0.014094429
53	0xbd72bea1	-0.05926383
54	0xbd92bd76	-0.07165043
55	0xbd744f0d	-0.0596457
56	0x3c81b6f5	0.015834311
57	0x3d7146ee	0.058905534
58	0x3da431fb	0.080173455
59	0x3cb5af7b	0.022178402
60	0x3c919e2a	0.017775614
61	0x3ce7a029	0.028274613
62	0xbcd27fbd	-0.025695676
63	0xbdae3a6c	-0.08507237
64	0xbdb89c37	-0.090141706
65	0x3d624c30	0.05524844
66	0xbda14cf5	-0.078760065
67	0x3d8f06b9	0.06983704
68	0x3d706009	0.058685336
69	0x3d7f8475	0.06238218
70	0xbd954960	-0.07289386
71	0xbd8a2f6d	-0.06747327
72	0xbd5d5aef	-0.0540418
73	0x3da170b2	0.07882823
74	0x3d0cca21	0.034372453
75	0xbd3bac13	-0.0458184
76	0xbdb1a420	-0.086738825
77	0x3d92eee7	0.07174473
78	0xbd02659d	-0.031835187
79	0x3d7a122a	0.06105248
80	0x3da1a015	0.07891861
81	0xbcd7a1f8	-0.02632235
82	0x3cfe31e5	0.031029651
83	0xbda593ac	-0.08084807
84	0xbd929df9	-0.07159037
85	0xbd951963	-0.07280233
86	0xbd157a11	-0.036493365
87	0xbcc28eff	-0.023749826
88	0xbd10f737	-0.035392012
89	0x3d8c7fb2	0.068602934
90	0x3d56873a	0.052375056
91	0x3c023a0b	0.007948409
92	0xbd46eb87	-0.04856446
93	0xbcf8bc0f	-0.03036311
94	0xbcf370e6	-0.02971692
95	0xbd63e1e6	-0.055635355
96	0xbd723301	-0.059130672
97	0x3d4bc663	0.049749743
98	0xbdafa809	-0.08576972
99	0x3a1e0b07	0.0006028865
100	0xbd436617	-0.047704782
101	0xbce56577	-0.028002484
102	0x3db74359	0.089483924
103	0x3d6afa15	0.057367403
104	0x3d1809b9	0.037118647
105	0x3c891625	0.016734192
106	0x3ca20b6d	0.019780839
107	0xbb7f1682	-0.0038923328
108	0x3d931e67	0.07183533
109	0xbd80f795	-0.062972225
110	0x3c2ba021	0.010475189
111	0x3c9fc434	0.019502737
112	0x3d355f4f	0.044280346
113	0xbcf81a70	-0.030286044
114	0xbd23f4d4	-0.04002841
115	0x3d082cd1	0.033245865
116	0xbd17e129	-0.037079964
117	0xbd325d04	-0.043545738
118	0xbdb4292f	-0.08796918
119	0x3d9f71a1	0.07785345
120	0xbd67fd37	-0.05663797
121	0xbd11aaf5	-0.035563428
122	0xbd534e18	-0.051588148
123	0xbd217123	-0.039414536
124	0xbd200947	-0.039071348
125	0x3c57a546	0.013161963
126	0x3ce92950	0.028462082
127	0x3da1215e	0.078676924

model.model.model.6.weight f4 [128, 128]
0	0xbd2864a8	-0.04111162
1	0xbc836bac	-0.016042553
2	0xbcda76cd	-0.026667977
3	0x3cb6c8f4	0.022312619
4	0xbc57b7f7	-0.013166419
5	0x3d66743f	0.056263205
6	0x3c531e79	0.012885683
7	0xbce39c24	-0.027784415
8	0x3d58f4e3	0.052967917
9	0xbd49fd0b	-0.049313586
10	0x3ca1e35f	0.01976174
11	0x3ca057d3	0.019573128
12	0x3d97b727	0.074079804
13	0xbd6cd02c	-0.057815716
14	0x3c4c168a	0.012456546
15	0x3d495051	0.04914886
16	0x3daadcb0	0.08342874
17	0x3ca9e6bd	0.020739907
18	0x3db0161b	0.08597966
19	0xbb810b6c	-0.003938129
20	0x3cd90e4c	0.026496075
21	0xbc969350	-0.018380791
22	0x3cd15279	0.025552021
23	0x3cdfdcc5	0.02732695
24	0x3c394f78	0.011310451
25	0xbd8d65ba	-0.069041684
26	0xbd3d2c51	-0.04618484
27	0x3dbc3e1e	0.091915354
28	0xbd501fee	-0.0508117
29	0x3dadd6ee	0.0848826
30	0xbb198579	-0.0023425503
31	0xbd80b5ab	-0.062846504
32	0xbd1033b9	-0.035205577
33	0x3d5ac6ce	0.05341225
34	0x3bea6c17	0.0071539986
35	0x3d8c0544	0.06836942
36	0xbc215b49	-0.009848424
37	0xbd3177da	-0.04332719
38	0x3da25730	0.07926786
39	0xbd8b0c16	-0.067894146
40	0xbc65134a	-0.01398165
41	0xbd303c88	-0.043026477
42	0xbcf185b6	-0.029482704
43	0xbcf661bc	-0.0300759
44	0x3da6a773	0.08137407
45	0x3c6c79f4	0.014433373
46	0x3d5528e0	0.052040935
47	0xbd45b29d	-0.048266042
48	0xbcf02e9c	-0.0293191
49	0x3a86c431	0.0010281858
50	0xbc9c8b51	-0.0191094
51	0x3da0a713	0.07844367
52	0xbd8ea692	-0.069653645
53	0x3d3a37c8	0.045463353
54	0xbda909b5	-0.082538046
55	0x3d9af6d0	0.07566607
56	0x3dbbf6b1	0.09177912
57	0x3cfd655d	0.030932123
58	0x3a406614	0.00073394296
59	0xbda94b89	-0.0826636
60	0x3cf40201	0.029786112
61	0x3d83f72b	0.06443628
62	0xbda2b2fa	-0.07944293
63	0xbd766c88	-0.060162097
64	0x3daa20ea	0.08307059
65	0x3c902c35	0.017599205
66	0xbd039f95	-0.03213461
67	0xbce2ab36	-0.02766953
68	0xbd5f9c5d	-0.05459248
69	0xbd3fa18a	-0.046784915
70	0xbc617c21	-0.013762505
71	0x3d95fe4e	0.073238954
72	0xbda5ae2f	-0.080898635
73	0xbafc25a5	-0.0019237293
74	0x3d7e1e8c	0.06204085
75	0x3dbeacba	0.09310289
76	0x3d4f56af	0.050619777
77	0x3cf7d2db	0.03025191
78	0xbd47fbb1	-0.048824016
79	0xbdbf8631	-0.09351767
80	0x3aab9f31	0.0013093707
81	0xbd7f8493	-0.062382292
82	0x3d1660a8	0.036713272
83	0xbd627dc8	-0.055295736
84	0x3da1f01f	0.079071276
85	0xbd3dbdf6	-0.04632374
86	0xbd4a8d17	-0.04945096
87	0xbc77fd0d	-0.015136016
88	0x3d2879dc	0.04113184
89	0xbb9558d1	-0.004557707
90	0xbd633472	-0.055469938
91	0xbd30f8a4	-0.043205872
92	0xbd73c3d0	-0.059512913
93	0xbd84a322	-0.064764276
94	0xbd067285	-0.032824058
95	0xbd0c5268	-0.034258276
96	0xbd6b917e	-0.0575118
97	0x3d07ffd9	0.03320298
98	0xbd5ed555	-0.054402668
99	0xbd020954	-0.031747177
100	0xbce6f6a4	-0.02819378
101	0x3d887e00	0.066646576
102	0xbd1f9079	-0.03895614
103	0xbd86773f	-0.06565713
104	0x3ce22395	0.027604857
105	0x3d25a300	0.040438652
106	0xbc0c89cd	-0.008577776
107	0x3d9202ef	0.07129466
108	0xbd64a59a	-0.055821992
109	0xbc181b84	-0.009283904
110	0xbd5addbb	-0.053434115
111	0x3dce0c93	0.10060992
112	0x3d7e2850	0.062050164
113	0xbc2ef4e4	-0.010678504
114	0x3dce8a21	0.1008494
115	0xbc94e6ee	-0.018176522
116	0xbc2ab280	-0.010418534
117	0xbc870fab	-0.016486963
118	0x3db14ead	0.08657584
119	0x3a0fb8fd	0.00054825825
120	0xbd002225	-0.031282563
121	0x3d51cb83	0.051219475
122	0xbc1741bb	-0.00923198
123	0x3d90f27f	0.070775025
124	0x3b198254	0.002342363
125	0x3dde6756	0.108595535
126	0xbd980af3	-0.074239634
127	0xbd362b9a	-0.044475175
128	0x3da555e7	0.08073025
129	0x3d95a09b	0.07306024
130	0x3d0176b0	0.03160733
131	0x3d47a267	0.048738863
132	0xbbc678ac	-0.0060568657
133	0x3cb25c11	0.021772416
134	0x3cf149af	0.02945408
135	0x3ce6a317	0.02815394
136	0xbc15abe1	-0.009135217
137	0xbd2a8a6a	-0.04163591
138	0xbc8a0a56	-0.016850632
139	0x3b7afa0a	0.0038296008
140	0x3d8dea59	0.06929464
141	0x3c4d751d	0.012540129
142	0x3bfbe91e	0.007687702
143	0xbc1e53d5	-0.009663542
144	0x3cd2ebf9	0.025747286
145	0x3da5acfe	0.08089636
146	0xbd667ea9	-0.056273136
147	0xbd9cce95	-0.0765659
148	0xbd25ba9a	-0.04046116
149	0x3db3a839	0.0877232
150	0xbd35cb55	-0.044383366
151	0x3cfe413f	0.031036971
152	0x3d95a297	0.07306402
153	0x3d68f00b	0.056869548
154	0x3d27d6a0	0.040976167
155	0xbb5edbc5	-0.0034005505
156	0x3d6ac559	0.05731711
157	0xbb3b567e	-0.002858549
158	0x3c5a7a20	0.013334781
159	0xbbfa4ba1	-0.00763841
160	0xbd1d365d	-0.038381923
161	0x3d144e90	0.036207736
162	0xbdaeb137	-0.08529895
163	0xbd8bb3e7	-0.06821423
164	0x3d894362	0.067023054
165	0xbd9b8731	-0.07594145
166	0xbd2e9819	-0.04262552
167	0xbcb1ea1b	-0.021718075
168	0xbd950066	-0.072754666
169	0x3d969769	0.07353098
170	0xbd992dd8	-0.07479447
171	0xbc14d119	-0.009083056
172	0x3be1f80a	0.0068960236
173	0xb9a26265	-0.00030972357
174	0xbd8fdd02	-0.07024576
175	0x3d050639	0.032476638
176	0x3bd5faf7	0.0065301615
177	0x3b9782b9	0.0046237377
178	0x3d450a94	0.04810579
179	0x3db4f5f7	0.088359766
180	0xbd0dc5a6	-0.03461232
181	0xbd3f26dc	-0.04666792
182	0xbd1b80e2	-0.03796471
183	0x3b8c0ba3	0.004273848
184	0x3cfae86b	0.030628404
185	0xbc0871a9	-0.00832788
186	0xbd78e687	-0.060766723
187	0x3cdfcce7	0.027319385
188	0xbc33da0d	-0.01097728
189	0x3d5753cd	0.052570153
190	0xbc8b54ce	-0.017008211
191	0xbcfb32f0	-0.030663937
192	0x3da0006d	0.07812581
193	0xbd63d803	-0.055625927
194	0x3d86d9f5	0.06584541
195	0xbcc57313	-0.024102723
196	0xbc45f2e0	-0.012081832
197	0xbd9933f6	-0.07480614
198	0x3d1b788e	0.037956767
199	0x3d4f160e	0.050558142
200	0xbc73201c	-0.014839198
201	0xba86b84b	-0.0010278312
202	0xbd659e4f	-0.056059178
203	0x3cdce9e6	0.026967
204	0xbd1eed8e	-0.03880077
205	0x3da69886	0.0813456
206	0xbd77c670	-0.06049198
207	0x3d148930	0.036263645
208	0x3ccded91	0.025137695
209	0xbdb8952e	-0.09012829
210	0xbb643043	-0.0034818805
211	0xbd129ba3	-0.035792958
212	0x3d856711	0.06513799
213	0xbd5dbffd	-0.054138172
214	0x3d966e3b	0.073452435
215	0xbd4398fc	-0.04775332
216	0xbcf6f2d0	-0.030145079
217	0x3d625520	0.055256963
218	0xbd97c0e4	-0.07409838
219	0xbd47e213	-0.048799586
220	0xbc9249ac	-0.017857395
221	0x3d126437	0.035740104
222	0x3d71e4a2	0.059055932
223	0x3d322f7e	0.043502323
224	0xbd7f1c58	-0.06228289
225	0x3cd43395	0.025903502
226	0xbd8e913a	-0.069612935
227	0x3ce13b72	0.027494166
228	0x3bfffd9e	0.007812216
229	0x3da6fda8	0.0815385
230	0xbd9972b1	-0.07492579
231	0x3d635a11	0.055505816
232	0x3da7f83e	0.08201645
233	0x3c0850b1	0.00832002
234	0x3cc89d00	0.024488926
235	0x3d78acbb	0.060711604
236	0xbd6c7695	-0.057730276
237	0x3c98e728	0.018664911
238	0x3d46ec82	0.048565395
239	0x3d43ac26	0.047771595
240	0xbbb79c6a	-0.005603363
241	0x3d6e4bf4	0.058177903
242	0x3c314abe	0.010821043
243	0x3dae7df7	0.0852012
244	0x3d8ac76b	0.06776317
245	0xbdb55a29	-0.08855087
246	0x3d6669e2	0.05625332
247	0xbd14a93c	-0.036294207
248	0x3d71b025	0.059005875
249	0x3d2fcdec	0.04292099
250	0xbd4f4c8b	-0.050610106
251	0xbd0095be	-0.031392805
252	0xbd3c80e3	-0.046021353
253	0xbd7c485e	-0.061592452
254	0x3d6767d8	0.056495517
255	0x3d42a8ca	0.04752425

model.model.model.6.bias f4 [128]
0	0x3d860959	0.06544752
1	0xbc4115f7	-0.011785022
2	0xbd1ebb0a	-0.038752593
3	0xbc738990	-0.01486434
4	0x3d217508	0.03941825
5	0xbd787832	-0.060661502
6	0x3d92a2c9	0.07159955
7	0xbd83e880	-0.0644083
8	0x3d43ec1a	0.047832586
9	0x3daeea32	0.08540763
10	0x3d27b631	0.040945236
11	0x3c0d3ec3	0.008620921
12	0xbdb6e449	-0.08930261
13	0xbd14b64f	-0.036306676
14	0x3d5f100d	0.054458667
15	0xbd34f152	-0.044175453
16	0xbd093b1e	-0.033503644
17	0xbc95de76	-0.018294554
18	0x3ce49e5f	0.027907548
19	0x3d3fddc2	0.046842344
20	0x3d2df712	0.042471953
21	0x3cdf07c7	0.027225388
22	0xbd26b235	-0.040697295
23	0xbd08d65b	-0.03340755
24	0x3ca1b1bb	0.019738069
25	0xbd9d491d	-0.07679961
26	0xbb7aabab	-0.0038249295
27	0x3d339696	0.04384478
28	0xbb2901e2	-0.0025788476
29	0x3d959262	0.07303311
30	0xbc47eb7e	-0.012202142
31	0xbd102a5d	-0.03519665
32	0x3cd78838	0.026310071
33	0xbca725ad	-0.020403707
34	0xbd878431	-0.066170104
35	0xbc851ee1	-0.016250076
36	0xbd5b3e65	-0.0535263
37	0x3cb2d59b	0.02183037
38	0x3b80babc	0.0039285105
39	0x3d4ddf18	0.050261587
40	0xbdafdbd6	-0.08586852
41	0x3db4d883	0.08830359
42	0xbd93d9df	-0.0721929
43	0xbdb238ee	-0.08702265
44	0xbd484b4e	-0.04889994
45	0xbd744b26	-0.05964198
46	0x3ba0989c	0.004901005
47	0xbc8ad683	-0.01694799
48	0xbcb9c9f6	-0.02267931
49	0x3dab00ab	0.08349737
50	0x3d59aa9e	0.05314123
51	0xbcfa412e	-0.030548658
52	0x3d39ac43	0.045330297
53	0x3daecf0d	0.085355856
54	0x3d011585	0.031514663
55	0xbd84788a	-0.064683035
56	0x3c1ac00f	0.009445204
57	0xbdb21622	-0.08695628
58	0xbc3b6224	-0.011436973
59	0x3d6ec635	0.058294494
60	0xbd991133	-0.074739836
61	0x3db67a83	0.08910086
62	0xbd6ffdad	-0.058591533
63	0xbcdc82a2	-0.02691776
64	0xbbc273f4	-0.005934233
65	0xbda09014	-0.07839981
66	0xbce7838b	-0.028260967
67	0xbd3fcb7d	-0.04682492
68	0x3d147508	0.036244422
69	0x3d80900f	0.06277477
70	0x3b81bd30	0.0039593205
71	0xbc2f482b	-0.0106983585
72	0xbd8d04d1	-0.06885684
73	0xbd17df73	-0.037078332
74	0x3d041e78	0.03225562
75	0x3d81c518	0.06336421
76	0xbc1a5fa8	-0.00942222
77	0x3d69c262	0.057070144
78	0xbd76b14d	-0.06022768
79	0x3db8d18d	0.09024344
80	0xbd2ad13f	-0.04170346
81	0x3b990440	0.004669696
82	0x3cae3e78	0.021270022
83	0xbcbbc59a	-0.022921372
84	0xbc75db62	-0.015005918
85	0xbc020a9f	-0.007937103
86	0xbd636ffd	-0.055526722
87	0xbdacdce2	-0.084405676
88	0xbd8a07bc	-0.067397565
89	0xbd5f65bd	-0.054540385
90	0xbd002158	-0.0312818
91	0xbd5f80e4	-0.05456628
92	0x3d9f4ae4	0.07777956
93	0x3d1e05a7	0.03857961
94	0xbc0fbb66	-0.008772707
95	0x3cd0781f	0.025447903
96	0x3d3c6809	0.045997653
97	0xbda58c7e	-0.080834374
98	0x3c4e7977	0.012602202
99	0xbd5052cf	-0.050860222
100	0x3be617c1	0.0070218747
101	0x3c287265	0.01028118
102	0xbdb2bfee	-0.08728014
103	0x3d477583	0.048696052
104	0xbcd1312e	-0.025536146
105	0x3d9330f2	0.0718707
106	0x3d5fba94	0.054621294
107	0xbd07fbf3	-0.033199262
108	0x3da5d200	0.08096695
109	0x3db00bee	0.085960254
110	0x3d555edd	0.05209242
111	0xbc733e2f	-0.014846369
112	0xbd70633a	-0.05868838
113	0xbc492e3a	-0.012279088
114	0x3d3ac6db	0.0455998
115	0xbcb98846	-0.022647988
116	0xbd93f072	-0.07223596
117	0x3dac3421	0.0840838
118	0xbc368a77	-0.011141411
119	0xbd6ce240	-0.057832956
120	0xbceeac21	-0.029134812
121	0x3d74e55d	0.05978905
122	0x3d5f1f64	0.054473296
123	0x3da572ae	0.08078514
124	0x3d4eb112	0.050461836
125	0x3d5456c8	0.051840574
126	0x3d6a25e9	0.05716506
127	0x3d61e2d9	0.05514798

model.model.model.8.weight f4 [9, 128]
0	0xbc69cb96	-0.01426973
1	0x3d6e2559	0.058141086
2	0xbd5c5796	-0.053794466
3	0x3a21c645	0.0006171207
4	0xbd629bac	-0.05532424
5	0x3bd1087b	0.006379185
6	0x3d83250e	0.06403552
7	0xbd44d829	-0.04805771
8	0x3ca598d6	0.02021448
9	0x3db4c11c	0.08825895
10	0xbdb22889	-0.08699138
11	0xbd9a606e	-0.07537924
12	0x3ac80180	0.0015259236
13	0x3bdcd12c	0.0067388024
14	0xbc2b6b45	-0.010462587
15	0xbd84e73a	-0.064894155
16	0xbdb86514	-0.09003654
17	0xbd1d0dd0	-0.03834325
18	0xbd753b89	-0.05987123
19	0xbd0a77f0	-0.033805788
20	0x3db1e60c	0.08686456
21	0xbd425d62	-0.047452338
22	0x3d06db68	0.032924086
23	0xbda5f49f	-0.081032984
24	0xbcfb3cce	-0.030668642
25	0xbdb27c70	-0.08715141
26	0xbde5d32e	-0.1122192
27	0xbca1aa54	-0.01973454
28	0x3d86b09b	0.065766536
29	0x3cb57e72	0.02215502
30	0x3daa177b	0.0830526
31	0x3dcc447c	0.09974
32	0xba7fb651	-0.0009754645
33	0x3dc96c0b	0.09835061
34	0xbd039d70	-0.032132566
35	0xbd641e4d	-0.05569296
36	0x3c968550	0.018374115
37	0xbd479e06	-0.048734687
38	0xbdbc7cc3	-0.09203484
39	0x3a982da4	0.0011610282
40	0xbd18b0b5	-0.037277896
41	0xbcca6e3c	-0.024710767
42	0x3d4893e6	0.048969172
43	0x3cb4b4c8	0.02205886
44	0xbca1dfb0	-0.019759983
45	0x3cc838a6	0.024441075
46	0xbd82ad31	-0.0638069
47	0xbda8a826	-0.08235197
48	0x3dac90e4	0.08426073
49	0xbcaac2b2	-0.020844791
50	0x3de2ccc4	0.11074212
51	0x3d5a63aa	0.053317703
52	0x3c9e33c5	0.019311795
53	0x3d4d4238	0.05011198
54	0x3d57e4a2	0.052708276
55	0xbd05ce90	-0.032667696
56	0x3c12aea4	0.00895277
57	0x3dba7964	0.09105185
58	0xbd698862	-0.05701483
59	0x3cd699f7	0.026196463
60	0xbd8de06b	-0.0692757
61	0x3c12ec01	0.0089674005
62	0xbd85fc68	-0.06542283
63	0xbdaf311e	-0.0855429
64	0x3cdbc97c	0.026829474
65	0xbd860a95	-0.06544987
66	0xb9caf4c5	-0.0003871081
67	0x3da2c64c	0.079479784
68	0x3ca78edc	0.020453863
69	0x3d761ad6	0.060084186
70	0xbda7e037	-0.081970625
71	0x3c8bc226	0.01706035
72	0x3abaa26b	0.0014239078
73	0x3d0c06d2	0.03418619
74	0x3bbda68b	0.0057876757
75	0x3d4142f3	0.04718299
76	0x3d937913	0.072008274
77	0x3c973e7a	0.018462408
78	0x3d8570c3	0.06515648
79	0xbdb678c7	-0.08909755
80	0xbcf3c661	-0.02975768
81	0xbd98cf22	-0.074613824
82	0xbd2896dc	-0.041159496
83	0x3c64ac14	0.013957042
84	0x3d133bdf	0.03594577
85	0x3cfee68c	0.031115793
86	0xbd6231fb	-0.055223446
87	0x3d842135	0.06451646
88	0x3cc52bb4	0.02406869
89	0x3d22d66a	0.039755262
90	0x3d5c74bc	0.053822264
91	0x3da5908e	0.08084212
92	0xbd49e10b	-0.049286883
93	0x3da801d5	0.082034744
94	0x3ca9de8f	0.020736007
95	0xbd8ef175	-0.06979648
96	0x3d878f8a	0.06619175
97	0x3db77ae6	0.08958988
98	0x3daca93b	0.08430716
99	0xbd850bb3	-0.06496372
100	0x3ce05005	0.027381906
101	0x3d2dada7	0.042401936
102	0xbdac1be5	-0.08403758
103	0xbd6259a4	-0.05526127
104	0xbda625d7	-0.08112686
105	0xbd4053d4	-0.046954945
106	0x3d29653c	0.04135631
107	0x3d68019a	0.056642152
108	0x3bb3b2e8	0.005483974
109	0xbc63ac2a	-0.013896028
110	0x3cb0c165	0.021576593
111	0xbdafcb40	-0.08583689
112	0x3daefda8	0.08544475
113	0x3dafbe9e	0.08581279
114	0x3bcbd2cf	0.0062201987
115	0x3d0ca783	0.03433944
116	0x3d86b53c	0.065775365
117	0xbda324ae	-0.079659805
118	0x3d5cd450	0.053913414
119	0x3c432268	0.011910059
120	0x3d57b916	0.052666746
121	0x3daacc3b	0.08339735
122	0x3d1566ea	0.0364751
123	0xbca57225	-0.02019603
124	0x3c61bcba	0.013777906
125	0x3bf0f7d0	0.0073537603
126	0x3d133025	0.035934586
127	0xbd07851f	-0.03308594
128	0x3d2e6983	0.042581093
129	0xbb42731a	-0.0029670657
130	0x3cbcdecc	0.023055457
131	0xbd72f8ce	-0.05931931
132	0xbd175f0c	-0.03695588
133	0xbd25c12a	-0.04046742
134	0xbd69d383	-0.05708648
135	0xbad43c27	-0.0016192243
136	0xbda35fbb	-0.079772435
137	0x3bf515af	0.0074793915
138	0xbc05513b	-0.008137043
139	0x3d69500b	0.0569611
140	0x3d14bc55	0.03631242
141	0x3d0c0c60	0.03419149
142	0xbd58aa4c	-0.052896783
143	0x3d062a79	0.03275535
144	0xbd995d41	-0.0748849
145	0xbd3a2239	-0.045442794
146	0xbc1340a9	-0.008987584
147	0xbd582bfd	-0.052776325
148	0x3d6a2978	0.057168454
149	0xbc6b0cf6	-0.014346352
150	0x3da78168	0.08178979
151	0x3bf52360	0.0074810237
152	0x3c08fa8e	0.008360518
153	0x3cf8046c	0.030275546
154	0xbdddf340	-0.10837412
155	0xbd6fb51d	-0.058522332
156	0xbd4f3add	-0.050593246
157	0x3d82e87a	0.06391998
158	0xbd7667bf	-0.060157534
159	0x3dc6ca70	0.09706581
160	0xbdcece76	-0.10097973
161	0x3dc5793e	0.09642266
162	0xbdc14110	-0.09436238
163	0xbde0161b	-0.10941716
164	0xbd9a9c5d	-0.07549355
165	0xbcd90c9f	-0.026495276
166	0xbdf6fc09	-0.12059791
167	0xbcf8dbb6	-0.030378204
168	0x3d05994e	0.032616906
169	0x3c4c01de	0.012451617
170	0xbbc2aee2	-0.005941258
171	0x3cd72fa4	0.026267834
172	0x3d229f7e	0.039702885
173	0xbdc8d6ab	-0.0980657
174	0x3ba21bbd	0.0049471543
175	0xbd95baca	-0.07311018
176	0xbcb29375	-0.021798829
177	0x3cb75420	0.022378981
178	0x3d701922	0.05861772
179	0x3c8256bc	0.015910499
180	0x3d9a6a22	0.075397745
181	0x3d7356ec	0.059409067
182	0x3cc2f593	0.02379874
183	0xbd1a8730	-0.03772658
184	0x3bd8c59f	0.006615355
185	0xbd1b6224	-0.03793539
186	0x3da6658e	0.08124839
187	0xbcc07c7d	-0.02349686
188	0xbce98a44	-0.028508313
189	0x3bfa46cb	0.0076378337
190	0x3c908e81	0.017646076
191	0xbd52c63d	-0.051458586
192	0x3d4506a1	0.048102025
193	0xbd246fc4	-0.04014565
194	0x3c32187e	0.010870097
195	0xbba18351	-0.004928984
196	0x3d8a65c3	0.06757691
197	0xbd349b9e	-0.04409372
198	0xbd8651ae	-0.06558548
199	0xbd91a0b6	-0.07110731
200	0x3c30a073	0.010780442
201	0x3d551678	0.05202338
202	0x3d5bdafa	0.05367563
203	0x3d4403d7	0.047855224
204	0x3d0b36ea	0.033987917
205	0xbba3fdb2	-0.005004608
206	0x3d8b6141	0.06805659
207	0x3da8e5a2	0.08246924
208	0x3bdd2278	0.0067484938
209	0xbbf03a76	-0.007331188
210	0xbda00d10	-0.078149915
211	0x3d92365b	0.07139274
212	0x3cca4c7c	0.024694674
213	0x3c1aebf8	0.009455673
214	0x3c6cabf8	0.014445297
215	0xbcba7901	-0.022762777
216	0x3c2f95c7	0.010716862
217	0xbd0b6221	-0.03402913
218	0xbd4c98ab	-0.049950283
219	0x3c6e317d	0.014538166
220	0x3caae660	0.020861804
221	0x3da5d70e	0.08097659
222	0x3d2a96b0	0.041647613
223	0xbdb982a3	-0.0905812
224	0x3d2698a1	0.040672902
225	0x3d7d6337	0.061862197
226	0xbcc18ae5	-0.0236258
227	0xbb006709	-0.0019592664
228	0x3dbdd8b3	0.09269848
229	0x3d8958f1	0.06706417
230	0x3c577768	0.013151027
231	0x3d1d37d5	0.038383324
232	0x3d9727ba	0.07380624
233	0x3d6f3a1d	0.05840503
234	0xbc3696a8	-0.011144318
235	0x3bb1cab0	0.0054257736
236	0x3d45e008	0.048309356
237	0x3db03e06	0.0860558
238	0x3bca3fc7	0.0061721536
239	0xbdae81ab	-0.08520826
240	0x3c185233	0.009296942
241	0x3d341133	0.043961715
242	0x3d9b2da8	0.075770676
243	0x3d41a4a7	0.047276165
244	0x3d6800e7	0.056641486
245	0xbd98ab68	-0.07454568
246	0x3c00a484	0.007851724
247	0x3d09a7f8	0.033607453
248	0x3d8bc691	0.06824983
249	0xbc996bbf	-0.018728135
250	0x3d7c6b45	0.061625738
251	0x3a57ef6a	0.00082372746
252	0xbdbb2d71	-0.09139527
253	0xbcaadbae	-0.020856705
254	0x3c890a15	0.01672844
255	0xbd85a2e1	-0.06525207

model.model.model.8.bias f4 [9]
0	0xbd27a3e3	-0.04092778
1	0xbd4fac65	-0.050701518
2	0xbd83e9c6	-0.06441073
3	0x3d769ede	0.0602101
4	0x3cd03b9f	0.025419055
5	0x3bca7195	0.006178091
6	0x3da5df01	0.08099175
7	0x3d876c55	0.066124596
8	0x3da32167	0.07965355
